models/trained_model.pth (torch, 149439 bytes, 23 tensors)

weight f4 [10, 6]
000000 c1 a6 55 bb be 15 c2 bb 21 12 cb 3b 55 5a f2 bb
       -0.0032600614 -0.005923002 0.0061972295 -0.0073960223
000010 32 7b e9 3b bb bf 89 bc 4e 50 fa 3a 5e 87 0c bb
       0.0071252817 -0.016815057 0.0019097419 -0.002144299
000020 ae df 5d bc f8 2b 98 bc bf 78 cc bb f2 be 1d 3c
       -0.013542099 -0.018575653 -0.00623998 0.009628044
000030 31 e3 86 bd 9f 10 85 3c f5 7a 87 3d 55 91 c6 bc
       -0.06586302 0.016243277 0.06615249 -0.024239222
000040 9a af b1 3d 9c cb b3 bd dd f5 a8 bb 8f 26 fd bc
       0.086760715 -0.0877907 -0.0051562623 -0.030902175
000050 b4 47 17 3b bd e9 42 3d 4d 55 a3 3c 0e 73 ff 3c
       0.002308351 0.04758619 0.019938136 0.031182792
000060 4d c8 c0 bc 92 6a be 3c e3 7e 0c 3b 7f a3 16 bb
       -0.02353301 0.023244176 0.0021437935 -0.0022985635
000070 9b 37 7d bc a9 2d 4b 3c be 59 5d bc 4f ad 9a 3c
       -0.015455152 0.012401023 -0.013510166 0.018881468
000080 a7 58 95 3a 46 d3 10 bd 63 59 38 3c cc 59 55 bc
       0.0011394218 -0.035357736 0.01125178 -0.0130218975
000090 2c 3a 3d 3d cb 73 14 3d d6 2d 37 3d b3 76 25 bd
       0.046198055 0.03624324 0.044721447 -0.040396404
0000a0 16 95 e4 3c 22 41 92 bd 2a 5b a8 3d 65 fd 16 bd
       0.027903121 -0.07141329 0.08220513 -0.03686275
0000b0 92 46 7c bd e4 b1 5a 3d 96 96 f1 bd 59 8b a4 3d
       -0.06159074 0.053392306 -0.117963 0.08034391
0000c0 3e 8d 88 bc d7 8c 19 bd 58 7b 13 bd 54 dc 94 bc
       -0.016668912 -0.03748783 -0.0360063 -0.018171467
0000d0 20 7b 48 3c 6a 6b 34 3d 06 47 03 3d 2f f7 22 bd
       0.012236387 0.04404775 0.032050155 -0.039786514
0000e0 e3 82 8e bd bb f0 25 3d e6 bb 70 bd ee cd 8b 3d
       -0.069585584 0.04051278 -0.058772944 0.06826387

weight f4 [17, 8]
000000 5c 6d 00 3c c9 b5 94 ba 37 70 1c 38 5d 14 ca 3b
       0.007838573 -0.001134568 3.7297807e-05 0.0061669783
000010 d1 ba 55 3b d6 01 d8 bb 74 56 e8 bb c5 fa 17 bc
       0.0032612572 -0.0065920157 -0.007090384 -0.009276097
000020 f7 38 96 3c d3 71 86 3a 49 ff 30 3d 81 18 28 bd
       0.01833771 0.0010257311 0.04321221 -0.041038994
000030 e1 37 15 bd f2 c9 88 3c b7 bb 0e bc db 2a f7 3c
       -0.036430243 0.016697858 -0.008711747 0.030171802
000040 7d 0f 30 bc 4d f9 8a 3d 21 74 cf 3c fc 97 0d bd
       -0.01074588 0.067858316 0.02532393 -0.03456877
000050 17 fa d1 bc 43 f5 94 3b 25 74 5a 3d 94 69 87 bb
       -0.025631947 0.004545839 0.05333342 -0.004132459
000060 cc 8e ee bb cb 4a a2 b9 0e 6b aa bb 05 6f a3 3a
       -0.0072802063 -0.00030954773 -0.00520075 0.0012469
000070 fc 2e 82 bb a6 63 33 bc 1b 9e ac 3c 61 20 15 3d
       -0.003972886 -0.010949051 0.021071484 0.036407832
000080 00 f5 0f bc f4 db 1a bd f4 52 c9 3c b7 77 a2 bc
       -0.00878644 -0.03780742 0.024575688 -0.019832475
000090 74 aa 55 3c 6a 4b 38 3c ea 9e 7e bb 27 a3 34 3b
       0.0130411275 0.011248449 -0.0038852044 0.0027563067
0000a0 e4 a8 f4 bb f5 0c 9c bb a3 43 c5 bc 3c 1c ab 3c
       -0.0074664224 -0.004762287 -0.024080103 0.020887487
0000b0 3d 9f c6 3c 11 b2 38 bc 39 af 15 bd 45 c2 f5 bc
       0.024245853 -0.011272923 -0.03654406 -0.029999861
0000c0 18 e2 d2 bb 7f c9 28 3c 7a 4a 11 3d 20 88 1e 3d
       -0.006435644 0.010301947 0.035471417 0.038704038
0000d0 56 ca e3 bb cb a1 a0 bc 17 d2 24 3c 9e 9e 63 bc
       -0.0069516106 -0.019608399 0.010059855 -0.013892798
0000e0 0d a6 f2 3c 9e 64 76 3c bf 4c 57 3b 75 80 9e bc
       0.029620195 0.015038637 0.003285214 -0.019348362
0000f0 82 03 63 3d d2 ac 40 bb 9a 1e 7e 39 b4 40 09 3b
       0.055423267 -0.0029399884 0.00024234728 0.0020943107
000100 e4 ca 81 bd 05 17 2d bd ce f5 1e bd e6 8a 89 3d
       -0.063375264 -0.04225828 -0.038808636 0.06715946
000110 52 6d 45 3d a8 73 26 bc 8d 2f 79 3d a3 c0 65 3d
       0.04819996 -0.010159411 0.060836364 0.056091916
000120 e2 9f e1 bc 31 82 01 bc d4 77 c6 bc 0a 4b c6 bc
       -0.027542058 -0.007904575 -0.02422706 -0.024205703
000130 43 ee 16 3b 1d 46 3a 3d 2b a4 a5 3c f3 5c f3 3c
       0.0023030199 0.04547702 0.020219883 0.029707408
000140 d1 c1 15 3d cc 61 52 3d 66 43 b4 3c 43 4e 18 3d
       0.03656179 0.051362798 0.022004794 0.03718401
000150 f9 41 34 ba 52 91 a1 b9 9a 18 65 3c 8f f0 0f 3b
       -0.0006876286 -0.00030816585 0.013982916 0.0021963452
000160 12 2b 89 bb 55 c5 f8 bc 65 48 9a 3c 10 a6 45 bc
       -0.0041860426 -0.030367533 0.018833349 -0.012063518
000170 58 79 46 bd fb 42 73 bd 6d ef 45 bd 1a 7e 9f 3c
       -0.048455566 -0.05939005 -0.048324037 0.01946931
000180 a0 88 fe 3c bd e1 53 3b 22 bc c7 bb 05 8e f3 3b
       0.031071007 0.0032330595 -0.006095425 0.0074327015
000190 79 bf c2 3c 6a ea 76 3c 61 3f 0c 3d 17 43 fc 3c
       0.023772942 0.015070537 0.03424013 0.03079371
0001a0 95 03 5f 3c c9 82 97 3c 55 78 b0 bc e3 22 82 bc
       0.013611694 0.01849498 -0.021541754 -0.015885776
0001b0 cd 53 8d 3b 9b cc 8d 3c 6f 36 da bb 96 8b 9d 3b
       0.0043129683 0.017309478 -0.006659321 0.0048078997
0001c0 19 d1 dd 3c c5 63 bd bc 21 8f 1e 3c 91 66 d7 bb
       0.027077245 -0.023118863 0.009677679 -0.006573506
0001d0 4f ce 18 3c f8 59 c3 3c 3f 69 3c 3b f5 36 67 bc
       0.009326532 0.023846611 0.0028749255 -0.014112224
0001e0 83 14 a5 3d a3 70 38 3d 67 f0 d1 3c 3b df a5 bd
       0.08060553 0.045029294 0.025627328 -0.080992185
0001f0 a7 b4 45 bd c8 17 6a bc 92 1c 65 bd 56 a8 7e bd
       -0.048267987 -0.014287896 -0.05593545 -0.062172256
000200 a5 09 f3 ba 25 96 14 bd 69 23 df 3c 4f 19 ec 3c
       -0.0018542303 -0.036276 0.027238565 0.028820662
000210 3d b0 05 bd 0b bd 6e bd c5 5b be bc 06 75 43 bc
       -0.032638777 -0.058285754 -0.023237118 -0.011929756

weight f4 [8, 5]
000000 c0 c1 77 ba d5 a6 df bb ac 3e 80 bc 7a 58 32 3a
       -0.0009451173 -0.006825308 -0.015654884 0.0006803345
000010 52 b9 43 39 1e 6f 81 bd b8 05 a4 3d 37 51 f7 bc
       0.00018665686 -0.06320022 0.08008903 -0.030190093
000020 46 41 1b 3d b9 9c 86 bd 5a f1 50 3d 87 f3 0d bd
       0.037904046 -0.06572861 0.05101142 -0.034656074
000030 19 25 e6 3c b1 3f 5d bd 33 9e 30 3c a6 8c b7 3d
       0.028093861 -0.05401582 0.010779905 0.089623734
000040 e6 60 ab bd 87 df 27 3d b2 d1 73 bd 4d 43 aa 3d
       -0.08368091 0.040984657 -0.059526153 0.08313618
000050 9b 88 21 bd a3 11 46 3d a9 af 72 bd f3 74 74 3d
       -0.039436918 0.048356663 -0.059249554 0.059681844
000060 d0 0f 30 bc c2 ad 9c bd 6d 37 29 3d 5b bd 2f bd
       -0.0107459575 -0.07650329 0.041312624 -0.042905193
000070 e4 28 97 3d 64 eb 8f bd fc 6e 9d bd d7 0a 45 3d
       0.07380846 -0.07027319 -0.07687184 0.04810604
000080 a5 fa 21 bd a1 c4 40 3c 7d c1 43 bd 13 49 00 bd
       -0.039545674 0.01176563 -0.047791947 -0.03131969
000090 c3 4b 04 3d 05 14 7c 3c 61 82 af 3c 83 8e 72 bc
       0.032298815 0.015385632 0.021424474 -0.014804485

weight f4 [16, 8]
000000 ae a0 eb 39 76 02 0a bb 89 41 34 bc 26 3a 7c 3b
       0.0004494241 -0.0021058596 -0.011001953 0.0038486808
000010 80 e8 af ba d6 0e 2d bc 7c bf a0 3a af 6c 31 3c
       -0.0013420731 -0.010562619 0.0012264098 0.010829135
000020 9b 22 7f bc e6 ab 7f 3c bb 49 29 ba b5 1a 18 bc
       -0.015572215 0.015604949 -0.0006457825 -0.009283711
000030 0a de 77 bb e9 cc e6 bc b9 b0 a8 bc be d9 a4 bc
       -0.0037821555 -0.02817388 -0.02059208 -0.020123359
000040 49 c9 16 3c 08 db 31 3c 81 d2 bc 3c e9 e5 b5 3c
       0.009203264 0.010855444 0.023049595 0.022204356
000050 9a f7 b4 bc 13 70 09 3b 02 60 69 bc d3 9d d8 bb
       -0.022090722 0.0020971342 -0.014244081 -0.006610611
000060 ae 55 14 bd 32 fa 22 3d 65 76 08 3d 26 30 22 bd
       -0.036214523 0.039789386 0.033316035 -0.0395967
000070 7f 32 26 bc dc 4c 1c bd cf 5a b7 bb 4d d0 48 bd
       -0.010143875 -0.038159236 -0.005595542 -0.049026776
000080 46 16 c7 3b d1 52 5d 3c 07 01 eb 3c 90 4b c4 3b
       0.0060756532 0.0135085145 0.028687013 0.005990453
000090 4b d0 49 bb 3c 1b c7 bc 53 2c 0e bc ba 67 8f 3b
       -0.0030794318 -0.024304979 -0.00867756 0.004376379
0000a0 c8 73 4d 3d 72 73 8f bd 10 bb 42 bd 26 b3 02 3d
       0.050159246 -0.07004441 -0.047541678 0.03190913
0000b0 4d ce b7 3b db 31 4c 3d 9e 18 2b 3d 90 82 53 3d
       0.0056093098 0.049852233 0.041771524 0.051638186
0000c0 7f f0 bc bd a2 fa a1 3d bc 5c 94 3d 1b 15 4c bd
       -0.092255585 0.079091325 0.0724425 -0.049824815
0000d0 4f 9b 99 bd 9f 9f b3 bd 07 72 94 bd 15 3f ca bd
       -0.07500326 -0.0877068 -0.072483115 -0.09875313
0000e0 76 4a 99 bd db a2 6f 3d 9a b8 8d 3d a1 ec 5d bd
       -0.074849054 0.05850492 0.069199756 -0.054180745
0000f0 aa ef 21 bd 6b 72 73 bd 2d e0 13 bd dc 10 8b bd
       -0.039535202 -0.05943529 -0.036102463 -0.06790325
000100 bc 22 3a bd e2 5c 50 3d 39 54 0b 3d 3f 32 b5 bc
       -0.04544328 0.05086983 0.034015868 -0.022118686
000110 7d f8 2b bd 31 ea 9e bc 83 eb 2c bd 92 5d 38 bd
       -0.041985024 -0.01939878 -0.04221679 -0.04501111
000120 58 60 a7 bd 51 f7 a0 3d 53 1a a0 3d 5c 66 eb bc
       -0.08172673 0.07859672 0.07817521 -0.028735332
000130 c0 36 93 bd 65 f0 a9 bd 91 56 ab bd db 98 ef bd
       -0.07188177 -0.08297805 -0.083661206 -0.11699077
000140 a1 3c 4e bd 7a 94 9b 3d 00 8c 4a 3d f6 f4 b0 bd
       -0.05035079 0.07596679 0.04944992 -0.086404726
000150 07 49 d8 bc 79 dd 3f bd 30 12 94 bd 90 07 82 bd
       -0.02640201 -0.046842072 -0.072300315 -0.06349099
000160 47 8e fe 3c 5f 58 b8 bc 3a fe e1 bc a5 10 0a 3c
       0.031073702 -0.022503076 -0.027587045 0.00842682
000170 73 b6 26 3d ea cf 89 3c f0 05 35 3d 0a 4f 2e 3d
       0.04070134 0.016822774 0.044195116 0.042555846
000180 d2 ff 2a 3d 0b 62 2d bd f3 d6 24 bd a6 88 ba 3c
       0.041747876 -0.04232983 -0.040244054 0.022770237
000190 c5 71 ed 3c a9 e1 6a 3d 2c 32 4d 3c 5d 3e e9 3c
       0.028984914 0.057344113 0.012524169 0.02847212
0001a0 1a bd f7 3c 6c 4f 2d bc 82 bf 93 bc bb a6 e2 3a
       0.030241538 -0.010578018 -0.018035654 0.0017292121
0001b0 7f ff 03 bc 90 61 e0 3c 48 5a 26 3b d9 fe 8f 3c
       -0.0080565205 0.027390271 0.0025383402 0.017577576
0001c0 5a f4 01 3d 73 db 68 bd f3 9b d0 bc ef fc 49 3d
       0.031727172 -0.056849908 -0.025464987 0.049313482
0001d0 eb 48 78 3d 92 f1 ed 3c 6c a7 62 3d 9f d1 7c 3d
       0.060616415 0.029045854 0.055335447 0.061723348
0001e0 aa e2 3b bd cc 58 4a 3d 42 ca a8 3c ff 39 30 bc
       -0.04587046 0.04940109 0.020604257 -0.010756015
0001f0 24 de 31 bd 06 a7 36 bd 42 fa 61 bb 48 de 87 bc
       -0.04342474 -0.04459288 -0.003448144 -0.016585484

weight f4 [7, 5]
000000 63 ff 36 bc 3e b7 a1 3b 10 cd 92 bb 05 3d ee 3b
       -0.011169287 0.0049351742 -0.0044800118 0.0072704577
000010 be 3c ca 3b ef 3b 1a bd 42 b7 41 3d 35 e4 8b bc
       0.006171792 -0.037654813 0.04729391 -0.017076591
000020 22 5d 65 bc 65 ab 0b bd 0e 3e 38 3d 95 22 f9 3c
       -0.013999255 -0.034099 0.044981055 0.030411998
000030 4c 07 30 bd 27 b0 2e 3d 6d 5c 6c 3d 52 30 ac 3d
       -0.04297571 0.04264846 0.05770533 0.08407654
000040 f5 82 64 bd 4b cd 85 bd 41 8c 72 3d ce 3c 84 3d
       -0.055788953 -0.06533297 0.059215788 0.0645691
000050 82 12 ce 3d c5 d2 c4 bd 47 d8 73 bd 9a 6b 93 3d
       0.10062124 -0.096105136 -0.05953243 0.07198258
000060 a6 f6 69 3d 51 34 93 3d df f6 ac bb b7 f3 80 bd
       0.057119988 0.07187713 -0.0052784528 -0.06296485
000070 31 c6 39 3d dd ff 8e 3d cb 6a d8 bd 3b 60 cc bc
       0.045355026 0.06982396 -0.10567244 -0.02494823
000080 83 1d ec 3d 29 26 e3 bd 95 2a e4 bd
       0.115290664 -0.11091263 -0.111409344

weight f4 [6, 4]
000000 3f d9 ba bb e1 07 55 3c a3 ad 7e bc 2b 4f 6f 3b
       -0.0057021673 0.013002367 -0.015544328 0.0036515694
000010 9c 86 a9 bd 9c 35 88 bd a1 1e cf bd 28 98 5d 3d
       -0.08277628 -0.0665085 -0.10113264 0.054100186
000020 7c 03 3e bd b9 b2 55 bd 7a 12 96 bc 27 72 05 3c
       -0.04639004 -0.052172396 -0.018319357 0.008144892
000030 0d ba 0f bc 24 7e 01 3d a1 78 f1 bc 88 f8 77 3d
       -0.008772385 0.031614438 -0.029476466 0.060539752
000040 ee a5 0d bd a8 b6 8d 3c 4c e9 31 bd e5 e5 95 3d
       -0.03458207 0.017299011 -0.04343538 0.073192395
000050 27 ed f7 3c 4a 1a dc 3c 31 71 96 3c ce e9 35 bd
       0.03026445 0.026868004 0.01836452 -0.044412427

weight f4 [3, 3]
000000 a5 0c 49 3c a6 a4 29 bb 2a 73 04 bb c9 7a 87 bd
       0.012271081 -0.0025885492 -0.0020210245 -0.06615216
000010 2a b0 d0 3d 59 64 e6 3c 41 12 6a 3d cf 64 bc bd
       0.10189851 0.028124021 0.057146315 -0.09198915
000020 43 f7 da bc
       -0.026729232

weight f4 [42, 13]
000000 00 04 e2 bb 64 23 25 bc 2b 84 db bb 5d 17 d6 bb
       -0.0068974495 -0.010079239 -0.0066991053 -0.006533547
000010 7c 89 4c bc 5d d4 89 bb 2e f9 4c 3c 1d 2f 9b bc
       -0.012483951 -0.004206224 0.012510581 -0.018943364
000020 09 8c dc 3b 8c cb b8 3b 4b 9b 2a bc e5 3f 55 39
       0.0067305607 0.005639499 -0.010413001 0.00020337066
000030 4a 38 23 3b 43 ef 34 3d 1e 87 15 bd af 03 b7 3c
       0.0024905377 0.04417349 -0.03650581 0.022340624
000040 a1 1b ba bc 0c f7 0a 3d 5f 3b 84 3d 88 cc 06 3d
       -0.022718253 0.03392701 0.06456637 0.0329099
000050 31 d6 af bc ac 88 ad bc 21 eb e5 bc f1 93 bf 3c
       -0.02146444 -0.021183334 -0.02806622 0.023385974
000060 9f c3 97 3a 17 1d a9 3c 46 84 0e bd 07 05 ac bb
       0.0011578685 0.020643754 -0.034794115 -0.0052496227
000070 cb 54 03 bd 54 d5 65 3d 38 4a d9 bc 6b c4 95 3c
       -0.032063287 0.05611165 -0.026524648 0.018282136
000080 d3 b1 97 3c ce 07 99 3d 5e 7e 1b 3d 7a 44 33 3d
       0.01851741 0.07472192 0.03796231 0.043766476
000090 bf 6b 4b 3c 10 57 05 3c a2 e0 b9 bb 25 f5 44 bd
       0.012415825 0.008138433 -0.0056725303 -0.04808535
0000a0 2c 70 6e bd b2 24 86 bc b0 bc ba 3c 31 50 14 bd
       -0.058212444 -0.01637492 0.022795051 -0.03620929
0000b0 1d d5 22 bc f1 d1 8f 3c 6e 43 0e 3d 6d 27 50 3c
       -0.0099385055 0.017556163 0.034732275 0.012704712
0000c0 1a 82 7a 3d d0 88 0b bd d3 fb b7 bc 0b 71 f8 bb
       0.06115923 -0.03406602 -0.022458946 -0.007581835
0000d0 5d 5c 91 3c 52 27 16 bd bc ff e2 39 7a c0 47 bd
       0.017744238 -0.036658593 0.00043296616 -0.048767544
0000e0 37 de 62 3d 2b af 73 bc f2 00 06 bd b8 4f 6d 3b
       0.0553877 -0.014873306 -0.032715745 0.0036210846
0000f0 33 a0 2a bd 90 ba 18 bd 8b 96 5a bc f1 72 19 3d
       -0.041656684 -0.037287295 -0.013341556 0.037463132
000100 93 43 c4 3c 29 e1 67 3d f3 f1 a3 3c df c8 8e 3d
       0.023958003 0.056611214 0.020012831 0.06971907
000110 e6 b0 6f bd 97 f2 8e 3d 84 c2 4b bd d1 61 4a bc
       -0.058518313 0.06979864 -0.04974605 -0.012352423
000120 7b 57 a0 bd 66 81 8a bc 96 8c c3 bd de 57 09 bd
       -0.078291856 -0.016907405 -0.09548299 -0.033531062
000130 14 81 10 3c eb 5b 8b 3d bc 74 e2 bc c5 d2 1c 3d
       0.008819837 0.06804641 -0.027643554 0.038286943
000140 a1 3d da bd 70 2d 46 bb fe f5 95 bc bf 43 9b 3c
       -0.10656286 -0.0030239485 -0.018305775 0.018953202
000150 57 c5 0e bd 5f 57 8f 3d 4d 91 2e bc 76 00 34 3d
       -0.034856167 0.069990866 -0.01065476 0.043945752
000160 d8 0b 39 bd c5 e8 22 3d c0 3d 24 3d 33 74 3b 3d
       -0.04517731 0.039772768 0.040097952 0.045765113
000170 de cb ae bc 7b 8b 6f 3d f3 4b 8c bd 6d b4 9a 3d
       -0.021337446 0.05848263 -0.06850424 0.07553945
000180 4c 22 90 3c 19 8f 95 3c 97 c2 7c bd ee cb 67 bd
       0.017594479 0.01825671 -0.061709013 -0.056590967
000190 ce 73 5d bd f5 b9 06 3d 8e 07 80 3d 2a 9a 37 3c
       -0.054065518 0.032892186 0.06251441 0.011206189
0001a0 28 9a e0 3c ba 58 15 bd 1f ba 3d 3d d8 54 6b bd
       0.027417257 -0.03646157 0.046320077 -0.05745396
0001b0 20 0f 2b 3d a9 ba a9 3b ad 6a 7d 3c 27 4e 9e bd
       0.04176247 0.0051797223 0.015467328 -0.0772975
0001c0 b7 6f bd bc 39 68 16 bd c8 46 7c bc 21 27 29 3d
       -0.023124559 -0.03672049 -0.015397735 0.04129708
0001d0 d4 44 c0 3a ed 60 e4 3c a3 c5 6f bd 76 01 1a 3d
       0.001466895 0.027878249 -0.05853809 0.03759905
0001e0 e0 31 ce 3c b3 cf 05 bd ed 12 c6 3c 63 42 37 3d
       0.025170267 -0.03266878 0.024178946 0.044741046
0001f0 e7 b5 2f bd 67 ad c6 3c 33 09 a9 bb a9 aa 9b bc
       -0.042898085 0.024252607 -0.0051585673 -0.019002276
000200 6f bb a4 bd 40 e7 94 bc fd 83 53 bc 12 32 4d bd
       -0.080435626 -0.018176675 -0.012909886 -0.05009658
000210 46 f6 fc 3a 2f fe c9 3b 02 bf e3 bc 8c 21 d6 3c
       0.001929947 0.0061643342 -0.02780104 0.026139043
000220 3b b3 2f 3d d3 93 22 3c 6e 5f 0e bd e1 d8 d9 3c
       0.042895537 0.009922939 -0.034758978 0.026592674
000230 ae 84 e2 3c a6 c1 98 3c ba 15 5b 3c 97 6e 02 bc
       0.027651157 0.018647026 0.013371879 -0.007960937
000240 7d 62 31 3d 7b 9b 6c bd 8c b6 6a bc 90 d6 b9 bc
       0.043306816 -0.057765465 -0.014325749 -0.02268532
000250 89 cd a1 bc a2 2c be bc 0d e1 04 3d ff e4 d5 3c
       -0.019751327 -0.023214642 0.032441188 0.02611017
000260 13 7f 0a bb 37 d5 1d 3d 5e ca 2f 3d 46 5f 98 bb
       -0.002113287 0.038533416 0.0429176 -0.0046500294
000270 31 e3 23 3b 07 c3 da bc 3f 6c 88 bc 16 e1 51 3c
       0.0025007243 -0.026704324 -0.016653178 0.012810012
000280 11 50 a0 3b 28 5a bf 3c a6 fb 34 3c 07 02 32 3c
       0.004892357 0.02335842 0.011046326 0.010864741
000290 18 72 f1 3c c2 4a 2b 3c 8e a9 37 3d 9d 44 2c bc
       0.02947335 0.010454835 0.044839434 -0.010514406
0002a0 0a 34 c5 bc f0 b4 5b 3d af db 58 3c bd 85 83 3d
       -0.024072666 0.053639352 0.01323597 0.06421993
0002b0 3b cd 4f bd 5f 38 99 3d 14 f9 33 3c 88 87 04 bd
       -0.050732832 0.07481455 0.010984678 -0.032355815
0002c0 59 9c 34 bd fe 00 50 bd f9 c0 a3 bd 46 d2 33 bc
       -0.044094417 -0.050782196 -0.07995791 -0.010975426
0002d0 2d 49 7a 3d 17 f8 29 3d f7 7f 0e 3d 8e 05 eb bc
       0.061104942 0.041496363 0.034790006 -0.028689172
0002e0 ad f4 d0 3c c4 2c 0b bd eb dc 11 3c e1 cf 1a 3d
       0.025507296 -0.03397824 0.008902769 0.037795905
0002f0 19 bd 02 3c e4 e4 a1 bc 2a cc 08 bd b9 f9 78 bc
       0.007979655 -0.019762464 -0.03339783 -0.015196257
000300 e2 4a eb ba 90 57 a9 3c b1 c7 61 3c 30 15 a6 bc
       -0.0017951394 0.020671636 0.01378052 -0.020273775
000310 73 f7 51 bd 42 bd 19 3d ae ad 97 3b e7 55 f4 bb
       -0.051261377 0.037534006 0.0046288585 -0.0074565294
000320 3b e8 9f ba dd f5 94 ba ca f4 c2 bc 8e 6a 5a 3c
       -0.0012199947 -0.0011364777 -0.023798365 0.013331069
000330 fc 15 73 3b 29 e0 c7 bc 0c 02 f6 bc cc 23 3e bc
       0.003709196 -0.02439888 -0.030030273 -0.011605214
000340 7c 9f 34 3c 04 10 23 3d 55 50 a6 3c 8c 0d ed bc
       0.011024352 0.039810196 0.020301977 -0.028937124
000350 ee c9 2f ba 65 85 fb 3c a9 32 de bb 1a db 38 bd
       -0.000670581 0.030703256 -0.0067809415 -0.045130827
000360 7f 3f 5b 3c 23 62 4d bd 18 86 44 bc eb 4a 41 bb
       0.013381838 -0.05014242 -0.011994861 -0.0029494117
000370 7f 65 28 bd ea 2a f4 bc 11 dc e9 ba 50 3a 23 bc
       -0.04111242 -0.02980562 -0.0017842074 -0.009962633
000380 22 1f 24 3c 7f f5 15 3c ed 14 fc bc ab b7 28 bc
       0.010017188 0.009152769 -0.030771697 -0.010297696
000390 22 43 7e 3c be 59 b4 3c bd 12 46 bc a1 e7 c0 bc
       0.015518935 0.022015449 -0.0120894285 -0.02354795
0003a0 6a 65 2a 3c f4 79 b4 bc 24 3c be 3c 99 44 c4 bc
       0.010400156 -0.022030808 0.023222037 -0.023958491
0003b0 0c 08 a2 3c 86 92 3c 3c 72 c5 a3 ba be d4 10 bc
       0.019779228 0.011509543 -0.0012494756 -0.008839784
0003c0 d7 a7 40 3d 88 51 23 bd a8 ae 27 3c b4 89 68 3c
       0.047035065 -0.039872676 0.010234512 0.014192987
0003d0 26 0d 10 3b 4f fb 83 3c bd 75 f6 bc 18 85 d6 3c
       0.0021980493 0.016111044 -0.030085439 0.02618651
0003e0 82 01 51 3c a8 30 0a 3d e1 3d 3f bd 96 94 ce 3c
       0.012756707 0.03373781 -0.04668987 0.025217336
0003f0 c7 70 59 bd 11 f7 02 bd a0 51 0b 3c 67 1b c4 3c
       -0.05308607 -0.031973902 0.008503348 0.023938848

weight f4 [6]
000000 a6 a7 78 3f 72 96 66 3f b1 78 6f 3f d1 e1 8a 3f
       0.9713081 0.9007331 0.93543535 1.0850164
000010 f0 32 81 3f 4f 63 66 3f
       1.009367 0.8999528

bias f4 [6]
000000 7d c2 48 bc cb 27 85 3c 85 e7 97 bc d5 4f 51 bc
       -0.012253401 0.016254326 -0.018543014 -0.012775381
000010 67 d8 02 3c dd fc 26 bb
       0.007986165 -0.0025480308

running_mean f4 [6]
000000 2b db 62 3d fc bc 00 3c 79 33 8a bc 31 69 c5 bb
       0.055384796 0.007857557 -0.016870247 -0.0060245027
000010 a5 b8 48 bd b6 b4 29 3b
       -0.049004216 0.0025895066

running_var f4 [6]
000000 66 a8 87 3f 46 e8 79 3f 60 f8 71 3f fe 00 5f 3f
       1.0598266 0.97620046 0.94519615 0.8711089
000010 88 00 3e 3f c2 dc 8b 3f
       0.7421956 1.0926745

weight f4 [200, 58]
000000 c0 65 5e 3d c2 c9 87 3d 99 4f 0b 3d f3 33 c2 bd
       0.054296255 0.06630279 0.034011457 -0.09482565
000010 b3 ae 97 3d a3 25 a3 bc 74 41 b6 bd 73 d3 02 bd
       0.07406368 -0.019915408 -0.08899203 -0.031939935
000020 f6 4c c5 bd 6e 83 cd 3d 81 24 9d 3d 27 60 a2 3c
       -0.0963382 0.10034834 0.07672978 0.01982124
000030 cf a1 ac 3d 0b d2 a7 3d 14 ad d9 bd f6 dd 6f bb
       0.084293 0.081943594 -0.10628715 -0.0036600805
000040 03 26 02 be 20 5d 33 3d 56 3c 83 3d 70 45 35 bd
       -0.12709813 0.043789983 0.064079925 -0.044255674
000050 d6 6f 13 3d ed 9c 15 3e c1 62 71 3d 34 b0 5f 3d
       0.035995327 0.14610644 0.05893207 0.0546114
000060 08 b7 fe 3c 17 1d 04 bc a2 93 d1 3d 42 f5 33 bd
       0.031093135 -0.008063576 0.10233237 -0.043935068
000070 f6 ec cd 3d 5a bd 89 bd ad 50 11 bd 66 c2 12 3e
       0.10054962 -0.06725569 -0.03547733 0.1433197
000080 ad 6f 1e 3e 6e 63 10 3e 89 1e 49 3d fe 75 9a bb
       0.15472288 0.1410043 0.049101386 -0.004713773
000090 7c 6b 69 bd 47 1b b5 3c bf 7f 1c 3c ee a1 f7 bc
       -0.05698727 0.022107733 0.009551941 -0.030228581
0000a0 6a 7f d8 bd 95 af 4d bd 08 5c a2 3c ee 2d cf 3d
       -0.10571177 -0.050216276 0.019819275 0.10116182
0000b0 68 a6 3a 3d 6f 46 d4 3d 85 57 8b bd b4 ec 43 bd
       0.045568854 0.10364997 -0.068038024 -0.04783316
0000c0 cf f3 bb 3d b9 67 bf 3c b7 41 b8 bb b8 6d 88 3d
       0.09177362 0.023364889 -0.005623068 0.06661552
0000d0 ef 1f 9a bd 14 e5 7c bd c6 38 d1 3d d4 c6 82 bd
       -0.07525622 -0.061741903 0.10215907 -0.0638558
0000e0 b9 a5 00 3d 7f 54 e0 3d 1e 18 a3 3d 39 ae d9 3d
       0.031408045 0.10953616 0.07963584 0.106289335
0000f0 06 6d 83 3d 5d 2f 28 be f1 23 64 3d b3 9f 9c bd
       0.06417279 -0.16424318 0.05569834 -0.07647648
000100 22 2a be bc 54 6b b3 bd 3f 7d b6 bd ef 72 9d 3d
       -0.02321345 -0.087607056 -0.089106075 0.076879375
000110 e0 6f 61 3b 95 20 d4 bc e3 85 9a bd 35 50 62 bd
       0.0034398958 -0.025894443 -0.07545068 -0.055252273
000120 9a be 28 3e ef 87 8a bd 6f bd 2f bd 1f ed 25 be
       0.16478959 -0.067642085 -0.042905267 -0.16203736
000130 92 11 00 3e c4 67 15 3e 8e 05 7f 3d 23 eb c9 3d
       0.12506703 0.14590365 0.062261157 0.09859302
000140 5a cf 0e bc 66 c5 d6 bd 3e 18 e5 bc fa e5 d4 3c
       -0.008716429 -0.104868695 -0.027965661 0.025988568
000150 a5 28 03 3e 02 51 be bc df 97 c3 3d 9d b2 ed 3d
       0.12808473 -0.023231987 0.095504515 0.116063334
000160 0d 1d 81 bd a3 4d 17 be aa 53 42 bd 81 18 03 be
       -0.06304369 -0.1477571 -0.04744307 -0.12802316
000170 9f 69 80 3d b6 b9 8a bd 87 d7 be 3c 40 8e f3 bd
       0.062701456 -0.06773703 0.02329613 -0.118923664
000180 35 a1 76 bd 9d 7a 13 3e 33 45 3f 3c 7c de e9 bd
       -0.060212333 0.14402242 0.011674213 -0.11419389
000190 df 5b e8 3d 84 32 a6 bd 7a fa 56 3d 02 69 5b bd
       0.11345648 -0.08115104 0.052484967 -0.05356694
0001a0 23 c4 07 3d 5e 42 c8 bd 28 65 d3 3d 9b ef 1a bd
       0.033146035 -0.097782835 0.103220284 -0.03782616
0001b0 ba 28 30 3d a3 79 e2 bd 61 b1 10 3e d6 de d0 3d
       0.04300759 -0.110583566 0.14130165 0.101987526
0001c0 64 1a b7 3d 24 f8 fa bd 73 0e f1 bd bf 16 be bd
       0.089405805 -0.1225436 -0.11770334 -0.09281682
0001d0 74 a8 55 bb e7 eb e0 3d a6 b2 f4 3d 00 be d0 bd
       -0.0032601627 0.10982495 0.11948137 -0.101924896
0001e0 34 67 16 3e de 7e 34 be d2 95 3b be 14 7f de bd
       0.14687806 -0.17626521 -0.1831887 -0.10864082
0001f0 90 f6 9d 3d 68 96 8d bd 87 8f 2f 3d 7a 09 04 3d
       0.07713044 -0.06913453 0.042861488 0.0322356
000200 aa e9 87 3c f8 ee 27 be 6a 5e 6e 3c b6 1e 23 be
       0.016590912 -0.16399753 0.014548877 -0.15929684
000210 88 f3 00 3b 31 67 3b 3d e1 1e 66 3c b0 c5 17 3e
       0.0019676406 0.045752708 0.014045448 0.14821506
000220 f8 7c d4 3d db 3f 0b bd 79 b5 3a 3c 63 98 0f 3e
       0.103753984 -0.033996444 0.0113958055 0.14022975
000230 ff 99 7c 3c 44 a5 88 bc de 4e fb 3d 92 cf 0b be
       0.015417575 -0.016680367 0.12270902 -0.136534
000240 f1 1f 68 bd ab 24 57 3c 96 15 bd 3d d3 ca 1e be
       -0.056671087 0.013131301 0.09232633 -0.15507059
000250 20 ce 0d be 5b 61 63 bd 98 cb 8c bd 00 e1 65 bd
       -0.13848162 -0.055512767 -0.0687477 -0.05612278
000260 3b 63 a6 bd 99 7c 17 3c 85 9e c3 3d 4a 43 36 3d
       -0.081243955 0.009246015 0.095517196 0.044497766
000270 9e d5 0a 3d 29 75 60 3d b8 54 0f 3a d8 8c 4c 3d
       0.033895127 0.054799233 0.0005467641 0.049939007
000280 5a e4 e2 3c a3 a9 14 bc 46 69 0d 3e f2 06 37 bc
       0.027696777 -0.009073648 0.1380969 -0.0111710895
000290 42 d7 26 3c 46 5d ee 3d f5 a1 ac 3d 34 0f bc 3c
       0.010183157 0.11638884 0.08429328 0.022956468
0002a0 50 f9 2a bd f8 c2 90 3c 6c f1 a0 bd e0 ea 47 bd
       -0.04174167 0.017671093 -0.078585476 -0.04880798
0002b0 ab 6f 03 bd be af 2c 3d 0b d7 09 bd 29 8d 2a 3d
       -0.032088917 0.04215979 -0.033652347 0.041638527
0002c0 92 ce 89 bd 60 e0 44 bd 39 ef 39 3d 52 4d ba 3d
       -0.06728853 -0.048065543 0.045394156 0.09096779
0002d0 e9 6c 5d bd f5 9e ba 3d 0f 4f 40 bc ad d7 e9 3d
       -0.054058943 0.0911235 -0.011737599 0.1141809
0002e0 2f 28 94 bd d3 9f ea 3d 67 c0 db 3b 51 2e 8c bd
       -0.07234227 0.11456265 0.0067062858 -0.06844772
0002f0 7f f6 23 be 0c 5c 86 3d 3f c4 05 bd 64 8c 87 3a
       -0.16012 0.06560525 -0.032657858 0.0010341522
000300 0a 3b cb bd 99 74 3a bd 79 3d db 3b 62 2d 54 3d
       -0.0992337 -0.045521352 0.0066906777 0.051801093
000310 3e d5 9e 3d a3 38 2c be d5 bd d2 bd 8d f1 36 bc
       0.077555165 -0.1681848 -0.10290114 -0.011165989
000320 3d 24 e4 bd 20 db c2 3d 66 12 02 3e 3d 10 3f be
       -0.111397244 0.09514451 0.12702331 -0.18658538
000330 64 14 3a bd 0b e4 0c 3e 05 64 06 3e df 4d 8a bd
       -0.045429602 0.13758866 0.13124092 -0.06753134
000340 10 68 05 3e 04 dc 5a bc f0 42 aa bd fe 03 d7 3d
       0.13027978 -0.01335812 -0.083135486 0.10498808
000350 31 b5 0a 3e b7 df 21 3d 8e 25 93 bd 38 23 66 bc
       0.13545682 0.03951999 -0.07184897 -0.014046483
000360 ce f0 48 bd e0 a1 c2 bd 29 69 81 3d 0d fe 70 3d
       -0.049057774 -0.095035315 0.06318886 0.05883603
000370 48 dd ba bd b1 6e 56 3c a2 ce 01 3d fd ca a1 3d
       -0.09124237 0.013087914 0.0316912 0.07900045
000380 2d 9d d0 3c 75 63 a4 3d fa 41 b7 bd 9c 6d f7 3c
       0.025465572 0.080267824 -0.08948131 0.030203633
000390 33 7d 66 3d 9b f4 0d be 2d 94 64 3d 28 b2 d6 bd
       0.056271743 -0.13862841 0.055805374 -0.10483199
0003a0 38 74 9b bd 3a 9d 82 bd 48 e5 51 bd a0 1d 49 3d
       -0.07590526 -0.06377645 -0.05124405 0.04910052
0003b0 0a 73 b1 bc 19 4c 87 3d 0b d7 cb bd d6 91 a7 bd
       -0.0216613 0.06606311 -0.099531256 -0.08182113
0003c0 23 1f eb bd 39 51 62 3d c6 db df bd f8 a4 11 be
       -0.11480548 0.05525324 -0.1093059 -0.14223087
0003d0 0f 8b b6 bd e5 0e f8 bd 56 f8 7e bd b0 99 2a 3d
       -0.08913242 -0.12112216 -0.06224855 0.041650474
0003e0 12 1e 5e 3d f8 22 ce bd 43 e1 82 3d 6d 88 6e 3c
       0.054227896 -0.100652635 0.063906215 0.014558894
0003f0 02 e3 a9 3c eb fc 0b 3e 2a 23 e6 3d 7d 3a fe 3d
       0.020738129 0.136707 0.11237176 0.124134995

weight f4 [200]
000000 3c bd 77 3f 56 b8 7b 3f bc 85 79 3f d3 93 82 3f
       0.96773124 0.9832815 0.9746969 1.0201362
000010 1c 71 7f 3f 8d e7 7b 3f 84 d9 7e 3f 02 b1 80 3f
       0.99781966 0.98400193 0.9955065 1.0054018
000020 89 9e 80 3f ad 9e 7c 3f 0a 12 76 3f 8c 03 7c 3f
       1.0048381 0.9867962 0.96121275 0.9844291
000030 54 a3 7e 3f 6e fa 7f 3f 6f 97 7a 3f 7f 3e 7b 3f
       0.9946797 0.999915 0.9788732 0.98142236
000040 9f 04 7c 3f 2f 6e 82 3f 9f 86 80 3f 63 4d 7b 3f
       0.9844455 1.0189875 1.0041083 0.9816496
000050 ab 7b 7e 3f 3d 9e 7e 3f f2 25 84 3f b9 3f 83 3f
       0.9940745 0.994602 1.032408 1.0253822
000060 00 6f 7e 3f 2d 1c 7a 3f d5 29 81 3f 3e 0b 7d 3f
       0.9938812 0.9769924 1.0090891 0.9884528
000070 c1 8e 7e 3f 9f 40 80 3f 07 ba 7b 3f 2d d3 7c 3f
       0.99436575 1.0019721 0.9833073 0.9875973
000080 cc 39 7e 3f 9b b1 78 3f 6b f9 83 3f 45 97 80 3f
       0.9930694 0.97146004 1.0310491 1.0046164
000090 67 da 79 3f 77 69 82 3f 24 5c 7d 3f 36 2d 77 3f
       0.9759888 1.0188435 0.9896872 0.9655336
0000a0 77 37 82 3f 13 28 83 3f 7f bc 7e 3f 85 7d 78 3f
       1.0173177 1.0246605 0.9950637 0.9706653
0000b0 2f 42 77 3f 39 5b 81 3f ef 63 73 3f eb d9 7c 3f
       0.96585363 1.0105964 0.9507436 0.98770016
0000c0 d6 d9 83 3f 99 6a 7e 3f 7a f1 82 3f 11 76 83 3f
       1.0300853 0.99381405 1.0229943 1.0270406
0000d0 eb 7e 80 3f e8 99 80 3f 27 46 80 3f f1 34 87 3f
       1.0038732 1.0046968 1.0021409 1.0563031
0000e0 e0 de 80 3f d5 71 81 3f 56 69 79 3f df 66 81 3f
       1.0068016 1.0112864 0.97426355 1.0109519
0000f0 0f 25 7f 3f bf 7b 78 3f c3 9e 7c 3f b8 92 7f 3f
       0.9966592 0.9706382 0.9867975 0.9983325
000100 fc a6 80 3f 1c 90 7b 3f 04 70 7d 3f 86 98 7d 3f
       1.005096 0.9826677 0.9899905 0.9906086
000110 1f 53 7e 3f 41 e4 82 3f cb f3 80 3f a7 a5 79 3f
       0.9934558 1.0225908 1.00744 0.9751839
000120 de c3 76 3f a6 38 89 3f 13 53 7e 3f d6 37 77 3f
       0.9639262 1.0720413 0.9934551 0.96569574
000130 2d 43 7d 3f 93 15 7c 3f 05 eb 81 3f 12 72 79 3f
       0.9893063 0.9847042 1.0149847 0.9743968
000140 68 ed 80 3f 7e 18 82 3f 92 a5 82 3f 51 8a 7e 3f
       1.0072451 1.0163724 1.0206778 0.99429804
000150 47 03 7a 3f ab 74 7c 3f cf 78 84 3f fb b8 83 3f
       0.9766125 0.9861552 1.0349368 1.0290827
000160 e0 4c 84 3f 81 2e 82 3f c4 d0 7e 3f a9 cc 83 3f
       1.033596 1.0170442 0.995373 1.0296832
000170 ae e9 82 3f ed 2a 7f 3f 76 18 83 3f 37 5d 7d 3f
       1.0227563 0.99674875 1.024184 0.9897036
000180 b4 ff 76 3f 28 a3 85 3f 4f 99 82 3f 69 c2 83 3f
       0.9648392 1.0440416 1.0203036 1.0293704
000190 05 d6 7c 3f e7 2d 78 3f 4b 10 7a 3f 16 8c 80 3f
       0.9876407 0.9694504 0.9768111 1.0042751
0001a0 b2 b5 82 3f 4e 6a 7c 3f 96 2a 82 3f eb c6 81 3f
       1.0211699 0.9859971 1.0169246 1.013883
0001b0 74 04 81 3f 7b 4e 82 3f 1a ba 89 3f 26 00 7c 3f
       1.0079484 1.01802 1.0759919 0.98437726
0001c0 e7 51 7f 3f 7a bf 7b 3f 86 41 83 3f 69 7f 78 3f
       0.9973435 0.98339045 1.0254371 0.9706941
0001d0 5f e3 80 3f 5e b7 74 3f 64 2b 82 3f 4a fe 7f 3f
       1.0069388 0.95592296 1.0169492 0.9999739
0001e0 25 0a 7a 3f d4 a9 80 3f f5 f8 81 3f 94 25 7f 3f
       0.9767173 1.0051827 1.0154101 0.99666715
0001f0 1a 8e 7e 3f 8b b2 80 3f a9 bb 7a 3f 51 15 7d 3f
       0.9943558 1.0054487 0.97942597 0.9886065
000200 82 ed 84 3f cb 86 80 3f b7 00 83 3f e7 0a 77 3f
       1.0384982 1.0041136 1.0234593 0.9650101
000210 a9 fc 7f 3f fc be 82 3f dc 42 83 3f 00 7c 85 3f
       0.99994904 1.0214534 1.0254779 1.0428467
000220 24 8d 7f 3f 8c 2e 81 3f eb 49 82 3f 6e 84 7d 3f
       0.9982474 1.009233 1.0178808 0.99030197
000230 fc b7 79 3f b6 10 81 3f 5a 17 79 3f 99 df 82 3f
       0.9754636 1.0083225 0.97301257 1.0224487
000240 e7 9d 82 3f 88 ad 79 3f 0f 2c 80 3f 03 6d 7e 3f
       1.0204438 0.9753041 1.0013446 0.9938509
000250 8d 3b 7d 3f 1c a8 7e 3f ab 2e 7c 3f e0 60 78 3f
       0.9891899 0.99475265 0.9850871 0.9702282
000260 8e bc 81 3f aa b8 74 3f 07 42 81 3f 40 78 86 3f
       1.0135667 0.95594275 1.0098275 1.0505447
000270 65 c9 81 3f e8 6c 80 3f 2b d4 79 3f aa 3f 7d 3f
       1.0139586 1.0033236 0.9758937 0.9892527
000280 94 ba 7d 3f e4 53 82 3f a0 33 82 3f 94 76 81 3f
       0.9911282 1.0181851 1.0172005 1.0114312
000290 5a d9 81 3f bb 4f 7f 3f 15 ba 80 3f 42 c2 84 3f
       1.0144455 0.99731034 1.0056788 1.0371783
0002a0 e9 80 81 3f c1 96 80 3f 9a f8 7c 3f ed dd 80 3f
       1.0117465 1.0046006 0.98816836 1.0067726
0002b0 f3 4d 7e 3f 09 dc 79 3f 39 0a 82 3f 02 c1 7c 3f
       0.9933769 0.9760137 1.015937 0.98732007
0002c0 aa 41 80 3f ee a5 81 3f cc a6 75 3f f6 7e 76 3f
       1.0020039 1.0128763 0.95957637 0.96287477
0002d0 ba 95 7d 3f 5b 62 86 3f 60 4f 82 3f a7 95 7e 3f
       0.9905659 1.0498766 1.0180473 0.994471
0002e0 ae c1 7c 3f 9a 26 82 3f af e7 81 3f b6 3b 7f 3f
       0.9873303 1.016803 1.0148829 0.99700487
0002f0 f5 9d 78 3f 89 a1 81 3f 17 1b 80 3f d4 6e 7a 3f
       0.97116023 1.0127422 1.0008267 0.9782536
000300 c7 3a 7c 3f 9f ba 88 3f 0d 2d 78 3f 3b bc 7c 3f
       0.9852719 1.0681952 0.9694374 0.98724717
000310 42 ee 81 3f 8a 77 7b 3f 69 df 75 3f ea 28 82 3f
       1.0150836 0.9822928 0.9604402 1.0168736

bias f4 [200]
000000 3a 2b c2 3b 1b 94 04 bd bf 2f 81 3c 68 3d 70 3c
       0.005925563 -0.032367807 0.015769837 0.014663078
000010 2a 73 1c 3d fb 13 48 bc 4c 74 c6 3b 5d 0d bf 3a
       0.038195767 -0.012211795 0.006056344 0.0014576126
000020 89 4b f6 3c a9 04 b3 3c ef 50 92 bc cd da 13 3d
       0.030065315 0.021852808 -0.017860858 0.036097337
000030 6f ec 28 3d 69 51 b0 3c 2e e3 90 bc b1 2b d0 3c
       0.041241106 0.021523194 -0.017686453 0.025411459
000040 9b 75 96 3c 98 bd 44 bb f2 5f e0 3c 6e 9d 04 bd
       0.018366626 -0.0030020233 0.0273895 -0.0323767
000050 98 76 18 3c c6 fe 31 3c 5c a1 da 3b 3d 8b 0e bd
       0.009305619 0.010863965 0.0066720676 -0.034800757
000060 44 4a 7d 3c 96 49 95 ba be 4b 2d 3d f7 f2 b0 3a
       0.015459601 -0.0011389728 0.04230856 0.0013500144
000070 53 a2 8f b9 02 e7 2f 3c 98 4e b9 3b 2f 2e 4a 3b
       -0.00027396026 0.010736229 0.005655121 0.0030850281
000080 41 47 23 bc 0d 2e 79 3c 33 c1 e9 bc 82 76 dd bc
       -0.009965719 0.015208733 -0.028534507 -0.027034048
000090 47 00 ef 3c 7c 56 76 bd e6 d6 15 3d 02 1a d7 bc
       0.029174937 -0.06014107 0.036581896 -0.026257519
0000a0 db 0d c6 38 70 16 a9 bc 75 31 14 bd 53 b9 df bc
       9.4439565e-05 -0.020640582 -0.03617998 -0.02731005
0000b0 cd 52 8a bc f7 06 ab 3c 96 e6 08 3c ed 81 34 3c
       -0.016885186 0.020877345 0.008355757 0.011017305
0000c0 93 fa 9b bb 67 d3 5a 3c 24 69 ef 3b 9b d0 d1 bc
       -0.0047600954 0.013356066 0.007306235 -0.025612166
0000d0 08 82 7c 3b 05 a9 db bc ca 8a 07 bd 12 13 0e bd
       0.0038529653 -0.026813993 -0.033091344 -0.034686156
0000e0 ba 2e e9 bb 1e f1 03 bd a5 c1 09 3c c1 48 92 3c
       -0.007116166 -0.03221237 0.008407985 0.017856957
0000f0 c5 4d 47 39 4f 67 48 bb d9 42 22 3c 61 f0 84 bb
       0.0001900709 -0.0030579155 0.009903633 -0.0040569757
000100 a3 79 4b bc 97 d1 81 bb e4 b2 80 bc 28 05 97 3c
       -0.012419137 -0.0039617526 -0.015710302 0.018435076
000110 6c e4 14 3d 56 96 31 bc 67 6a 3c bd 38 84 52 bc
       0.036350653 -0.010839066 -0.04599991 -0.012848906
000120 29 3e 0d 3d f7 0f c2 bc 2d 37 a8 3c 73 1d 7a bc
       0.03448311 -0.023689253 0.020534122 -0.01526581
000130 67 7d 58 bb 1a bf b2 3b 91 a4 9d bc 76 ac 31 3c
       -0.003303373 0.00545491 -0.01924351 0.010844341
000140 52 a9 03 3c 1f 88 ee 3c a8 ad 0a 3c 80 3e 2a bd
       0.008035975 0.029117642 0.008464254 -0.04156351
000150 02 87 89 bc 18 87 cd 3c 83 f4 50 3c 4b 73 e6 bc
       -0.01678801 0.025088832 0.012753609 -0.028131148
000160 cc 00 b9 bb 49 0d 91 bc dd 5d b1 bc eb c2 94 3b
       -0.005645847 -0.01770653 -0.021651203 0.0045398376
000170 4e f3 2e bb 09 d4 11 3d f6 2d 70 bd 57 5d 0f bb
       -0.0026695314 0.035602603 -0.05863758 -0.0021875703
000180 79 ca 53 3b 14 79 11 bd 1b b7 06 bc 4f f5 be bc
       0.0032316728 -0.03551586 -0.008222367 -0.023310332
000190 2e 69 17 3c c1 42 82 bc 23 c2 90 3c 62 93 09 bd
       0.009241385 -0.015900971 0.017670697 -0.03358782
0001a0 0b e9 1e bc 4b b9 56 bc af ab 2d bd 47 bd 0a 3b
       -0.009699116 -0.013105701 -0.04240006 0.0021169947
0001b0 19 48 fd bb c1 54 9e bb f4 b9 0b bd 96 03 13 3b
       -0.007729542 -0.004831881 -0.034112886 0.0022432557
0001c0 a5 30 b2 bc d2 56 cf ba 8b 31 f5 bc b6 4d 9b bc
       -0.021751711 -0.0015818721 -0.02993085 -0.018957954
0001d0 f3 56 a2 3c 73 bd 12 b9 28 81 77 bc 3c 25 12 bd
       0.019816851 -0.0001399422 -0.015106477 -0.03568004
0001e0 79 49 89 bc a8 06 f4 bc 9a 13 a3 bc 6e b0 ce ba
       -0.016758667 -0.02978833 -0.019906808 -0.0015769133
0001f0 73 e9 2b 3d f2 0e 18 3c 2a ec fc 3c e5 78 2d 3c
       0.04197068 0.009280907 0.03087433 0.0105879055
000200 0c 22 1f 3c 60 41 5a 3c b1 fa b4 bc 3d d5 a5 3c
       0.009712707 0.013321251 -0.022092195 0.020243281
000210 1f cb f6 bb e9 b8 3e bc da 17 88 bb ec 2f ab 3c
       -0.007531538 -0.011640766 -0.004153234 0.020896874
000220 e3 33 57 3c 10 6a 15 bc 13 d6 fd bc 41 9e c3 bb
       0.013134929 -0.009119526 -0.030985868 -0.005969793
000230 18 b4 d0 bc 45 b4 a1 3b 0e e8 4d 3d a8 3f d6 bc
       -0.0254765 0.00493482 0.050270133 -0.0261534
000240 1d 2e 24 3d cc 6d 95 bc 08 57 2d 3c 5d fe 99 bc
       0.04008304 -0.018240832 0.010579832 -0.018798048
000250 17 f1 2d 3c ed 22 23 bc 41 ee 66 bc 90 3c f3 3c
       0.010616562 -0.009957057 -0.01409489 0.029691964
000260 58 99 c2 3b 22 b7 83 3c ba 58 82 bb 94 7e 1f bd
       0.00593869 0.016078535 -0.003977862 -0.038939074
000270 d6 06 68 bb 34 ca 93 3b b4 79 82 bc 8e a9 3b bd
       -0.0035404465 0.0045101885 -0.015927173 -0.045815997
000280 f9 e4 58 3c ad 51 de 3c 08 ca 8b bb 6a 8a 0e 3c
       0.013238185 0.027138555 -0.0042660274 0.008699993
000290 b5 b1 a0 b9 80 80 8f 3c 90 09 f2 bb 9c 5c da bc
       -0.0003064998 0.017517328 -0.007386394 -0.026655488
0002a0 26 d8 b5 3b 31 4d 20 3d 56 df 5e 3b 20 9e 4f 3c
       0.0055494485 0.039136115 0.003400763 0.012671977
0002b0 28 1c 85 3c bf 3b 46 bd 8b 41 d0 3b ea ec f4 bb
       0.016248778 -0.048396822 0.0063554696 -0.0074745314
0002c0 83 b4 2f 3d 8e 49 8a bb d2 09 7e bc b6 ce 9c 3c
       0.04289676 -0.004220194 -0.015505271 0.019141536
0002d0 5f 43 51 bc 96 41 90 3c 26 8b 13 3d 72 00 f0 3c
       -0.01277241 0.017609399 0.036021374 0.029297087
0002e0 2f 41 13 3c 84 ea b5 bb 8e dd 32 ba 7e dc d4 3c
       0.008987709 -0.005551638 -0.00068231754 0.025984045
0002f0 2b 7b 7f 3b 14 2a d4 3c 3b 19 37 3c 19 a6 d7 3b
       0.0038983326 0.02589897 0.011175449 0.0065810797
000300 1b f7 10 3d d5 b6 d5 bc 88 3a 50 bc 17 6f 20 ba
       0.03539191 -0.026088158 -0.012709267 -0.00061200693
000310 05 2f f5 3a cb bf da 3c da 1c cd bc 13 1b 3b bc
       0.001870603 0.026702782 -0.025038172 -0.011420029

running_mean f4 [200]
000000 f2 8d 99 3d ae 09 c0 3d b2 4a 0b 3d eb 8f b0 3d
       0.07497777 0.09376846 0.034006782 0.086212
000010 1a 9d 95 3d ba 3f 5f 3d a6 c5 af 3d e6 15 22 3d
       0.07305355 0.054504134 0.0858262 0.039571665
000020 62 e6 5b 3d 36 a9 6b 3d 29 fe 92 3d 79 e5 56 3d
       0.053686507 0.05753442 0.071773835 0.052464936
000030 20 94 89 3d 47 7a 1f 3d 4b 21 85 3d 67 f1 83 3d
       0.06717706 0.038934972 0.06500491 0.06442528
000040 42 1d 96 3d e8 a1 4e 3d 2f 12 9f 3d 5d af a2 3d
       0.07329799 0.050447375 0.0776714 0.07943604
000050 29 0e ae 3d aa 91 93 3d 0a 5d ae 3d 98 3b 7e 3d
       0.084987946 0.072055176 0.085138395 0.06206855
000060 a1 23 1f 3d 2a 10 8e 3d 61 0a c4 3d 7a c4 9a 3d
       0.038852338 0.06936677 0.09572292 0.07557006
000070 1e 65 45 3d 6e 90 9c 3d d6 75 6d 3d 85 27 b7 3d
       0.048192136 0.07644735 0.057973705 0.089430846
000080 90 b0 a2 3d b9 26 8e 3d 51 91 7d 3d a4 db b3 3d
       0.07943833 0.069409795 0.061906163 0.087821275
000090 87 bc ae 3d f4 2e da 3d df d9 a8 3d 19 29 a4 3d
       0.085320525 0.10653487 0.082446806 0.08015651
0000a0 2e 22 9c 3d 08 07 7c 3d 2c 6b 7f 3d 4a c7 66 3d
       0.07623707 0.061530143 0.062358066 0.0563424
0000b0 22 21 8c 3d 33 d0 7a 3d 8c 02 7a 3d 43 d7 42 3d
       0.06842257 0.06123371 0.061037585 0.04756857
0000c0 c4 10 f2 3c 42 f7 82 3d 49 64 a4 3d 7a 75 94 3d
       0.02954901 0.06394817 0.080269404 0.072489694
0000d0 cd 25 c5 3d b4 b6 31 3d 7a 74 92 3d f5 52 8d 3d
       0.096263506 0.04338713 0.071511224 0.069005884
0000e0 ed 0c b4 3d 75 79 8e 3d 87 fc 93 3d b8 a8 78 3d
       0.08791528 0.0695676 0.072259 0.060707778
0000f0 41 cb 5b 3d aa 82 91 3d 4c db 7a 3d bb 08 96 3d
       0.053660635 0.07105 0.061244294 0.07325884
000100 f2 b9 98 3d 26 b2 64 3d ec df 77 3d 9b d4 99 3d
       0.07457341 0.055833958 0.060516283 0.075112544
000110 d0 9d b6 3d 62 bc a3 3d 4a 7b 81 3d b5 85 6f 3d
       0.08916819 0.079949155 0.06322344 0.058477122
000120 24 a8 83 3d 73 de 4b 3d 37 15 a9 3d ef ab a1 3d
       0.06428555 0.04977269 0.082559995 0.07894122
000130 18 d3 79 3d 9d 2d 8a 3d 30 22 79 3d 6c 4e 89 3d
       0.06099233 0.06746981 0.06082362 0.06704411
000140 f0 f9 76 3d a2 81 a6 3d e2 b9 87 3d e9 0d 78 3d
       0.060296953 0.08130194 0.06627251 0.06056014
000150 83 2c ba 3d 89 e7 86 3d 57 92 69 3d 81 ef 90 3d
       0.09090521 0.065871306 0.057024326 0.07076932
000160 bd b4 69 3d 95 a8 12 3d 35 20 79 3d 67 e4 8e 3d
       0.05705713 0.035805304 0.06082173 0.06977158
000170 22 b8 85 3d 83 e7 97 3d f1 80 94 3d 33 cf 86 3d
       0.06529261 0.07417204 0.07251156 0.06582489
000180 69 75 60 3d 8d 60 3b 3d 89 2b 57 3d e0 87 79 3d
       0.05479947 0.045746375 0.052531753 0.060920596
000190 d3 b8 5f 3d 56 03 91 3d 1f 19 7b 3d 6a a8 aa 3d
       0.05461962 0.070807144 0.061303254 0.08332904
0001a0 0e 64 9b 3d 04 d2 ac 3d 8a 5d 90 3d 27 e2 c4 3c
       0.07587443 0.08438495 0.07049091 0.02403362
0001b0 c7 a6 a7 3d 02 53 a8 3d ff 7b b6 3d f7 3e 40 3d
       0.08186107 0.082189575 0.08910369 0.046935048
0001c0 a9 60 a6 3d 96 c6 72 3d 79 c0 cb 3d fe ab 39 3d
       0.08123905 0.059271418 0.099488206 0.04533004
0001d0 f0 02 7a 3d cb 0a 40 3d 83 f9 6e 3d c6 f4 88 3d
       0.061037958 0.046885293 0.05834342 0.06687312
0001e0 45 22 9e 3d 4c 9b 72 3d 39 39 94 3d c9 38 b7 3d
       0.0772138 0.059230134 0.07237477 0.08946378
0001f0 33 d2 a5 3d 92 29 71 3d 4a 66 97 3d 51 81 37 3d
       0.08096733 0.058877535 0.07392557 0.04480106
000200 9d c5 89 3d c5 2f 8e 3d 8d 10 52 3d b6 e4 a9 3d
       0.06727145 0.06942705 0.051285315 0.08295576
000210 23 dc 9d 3d 23 6d 93 3d 1a 5a 25 3d 75 42 7d 3d
       0.07708003 0.071985506 0.04036913 0.061830956
000220 78 f2 32 3d 1e 4a 55 3d b7 b3 a7 3d 36 e1 36 3d
       0.043688267 0.052072637 0.08188575 0.04464837
000230 a7 8c 6e 3d cc dd 6a 3d 3c 4a a8 3d 8e 0a 8c 3d
       0.058239605 0.05734043 0.08217284 0.06837951
000240 a7 b5 a6 3d f1 f8 94 3d b1 f4 a2 3d a9 bb 8c 3d
       0.08140116 0.07274044 0.079568274 0.06871731
000250 d8 bd ac 3d 39 74 3c 3d 50 bf b4 3d 4a ce 54 3d
       0.08434647 0.046009276 0.088255525 0.051954545
000260 5b 1a 69 3d 0a 04 a3 3d 98 48 31 3d 20 5e 7d 3d
       0.0569099 0.07959755 0.04328212 0.061857343
000270 9a a0 b4 3d 01 96 39 3d 01 7e aa 3d 94 05 3a 3d
       0.08819695 0.04530907 0.083248146 0.045415476
000280 a2 a6 7c 3d fc 0b 50 3d 7f 8e bf 3d 45 d6 58 3d
       0.06168235 0.05079268 0.09353351 0.05293872
000290 d1 30 5c 3d 3a 45 71 3d 54 5e 9c 3d 95 2f b7 3d
       0.053757492 0.05890391 0.07635179 0.089446224
0002a0 14 30 40 3d 5e e0 3f 3d a3 16 6a 3d c0 56 5c 3d
       0.04692085 0.046844833 0.057150494 0.05379367
0002b0 01 53 b4 3d d6 54 4c 3d 23 9d 1d 3d 48 7f 92 3d
       0.08804894 0.049885593 0.038479935 0.07153183
0002c0 7c eb 80 3d 7f b7 dd 3d b5 bf 86 3d 98 e8 84 3d
       0.06294915 0.10826015 0.06579534 0.06489676
0002d0 a2 a8 a0 3d 6c 68 75 3d 7d 80 86 3d 26 b6 74 3d
       0.07844664 0.059914038 0.06567476 0.059744023
0002e0 42 d3 5b 3d bf 59 47 3d 13 10 66 3d 85 1c be 3d
       0.053668268 0.048669573 0.056167673 0.092827834
0002f0 c7 dd 7a 3d 4d f3 b1 3d da a2 8b 3d ab c5 56 3d
       0.06124666 0.08688984 0.06818171 0.052434605
000300 da 3b 9f 3d d9 d3 a5 3d 24 6b a7 3d c8 b8 95 3d
       0.07775088 0.08097047 0.08174732 0.07310635
000310 b1 40 9c 3d be e5 3a 3d b5 4c 49 3d 2e 4b ae 3d
       0.076295264 0.045629255 0.04914542 0.08510433

running_var f4 [200]
000000 2b c5 39 3c e5 9b a3 3c 3c ab 2e 3b 61 39 4d 3c
       0.011338512 0.019971797 0.0026652357 0.012525887
000010 23 2d 31 3c 1f 5f b1 3b 07 38 8b 3c 60 10 7f 3b
       0.010813984 0.0054129506 0.01699449 0.0038919672
000020 6a f9 f6 3b 25 62 b9 3b 17 55 da 3c 84 66 a9 3c
       0.0075370567 0.0056574517 0.026651902 0.020678766
000030 24 2f 14 3c dd 6e 56 3c 7a 37 10 3c 3e da 2f 3c
       0.009044442 0.013087955 0.008802289 0.010733185
000040 49 34 3a 3c b3 b6 a6 3b 1c fd a3 3c bb 70 7e 3c
       0.011365005 0.0050876974 0.020018153 0.015529807
000050 ef 35 94 3c ee 1b 0c 3c 2e 15 18 3d 5d f8 7e 3c
       0.018092124 0.008551581 0.037129574 0.015562144
000060 e4 85 29 3b bc b8 31 3c 88 87 5e 3c f0 64 70 3c
       0.0025867159 0.010847267 0.013582118 0.014672503
000070 48 d7 35 3c 38 a1 4a 3c 60 7b ab 3b 1d 88 dd 3c
       0.01109869 0.012367539 0.0052332133 0.027042443
000080 5d 82 87 3c 5f 7b 7c 3c fe 81 0b 3c 6a 88 18 3c
       0.016541654 0.015410273 0.008514879 0.009309867
000090 13 4f a4 3c 91 2c 0d 3d 94 4b 84 3c 10 41 b3 3c
       0.020057237 0.03446633 0.01614932 0.02188161
0000a0 6a 6d ab 3c 7b 07 1e 3d 49 e1 bb 3c 37 8d 0d 3c
       0.020926196 0.038581353 0.022934573 0.008639625
0000b0 98 d7 29 3c 8e a6 19 3c 4b 07 00 3c ac 4b dc 3b
       0.010366343 0.009378089 0.007814239 0.006722888
0000c0 01 69 0a 3b af 48 19 3c 2b ee ac 3c 75 86 d3 3c
       0.0021119716 0.009355708 0.021109661 0.02582095
0000d0 dc d6 99 3c 8b 99 78 3b bb 7a 2d 3c 7a dd 0d 3d
       0.01877921 0.0037933316 0.010588343 0.034635045
0000e0 12 13 8e 3c c8 73 87 3c d9 ae 75 3c 21 64 43 3c
       0.017343078 0.016534701 0.0149953 0.011925728
0000f0 99 7b 0e 3c 31 51 46 3c 2a d0 2c 3c 7b 39 bc 3c
       0.00869646 0.0121043185 0.010547677 0.022976628
000100 2c 4b 20 3c 97 86 9e 3c 1d 34 e9 3b 0e 39 34 3c
       0.009783547 0.019351287 0.007116808 0.010999931
000110 4c c0 98 3c fe 46 42 3c fb 59 ad 3c f4 9f c5 3b
       0.018646382 0.011857746 0.02116107 0.006031031
000120 ef e1 72 3c 48 23 98 3c 7f 8a 85 3c 88 ec 53 3c
       0.014824375 0.01857151 0.016301392 0.012934811
000130 49 07 b4 3c c0 5b 2d 3c 26 37 42 3c ad 40 b9 3c
       0.02197613 0.010580957 0.011853969 0.022613848
000140 36 2c 0d 3c 34 85 8f 3c b0 e8 18 3c 95 9e 76 3c
       0.008616498 0.01751957 0.009332821 0.015052457
000150 4c 3e 79 3c 58 07 30 3c 74 2a be 3b db 8d c3 3c
       0.015212607 0.010743938 0.0058034007 0.023871353
000160 70 b9 af 3c ae e2 09 3c 48 ca 72 3c b6 24 f4 3b
       0.021450728 0.008415861 0.014818735 0.0074506653
000170 dd 63 b7 3c 56 7f 16 3c 71 42 cb 3c 51 9b 80 3c
       0.022386486 0.009185633 0.024811955 0.01569906
000180 95 08 e9 3b 15 fa 80 3c e6 b5 8a 3c 3a 4d 24 3c
       0.0071116188 0.015744248 0.016932439 0.010028178
000190 21 80 cb 3b a1 ae 65 3c d6 3c 2c 3c 1c a6 e0 3c
       0.0062103425 0.014018686 0.010512551 0.027422957
0001a0 4c cc ce 3c 14 67 e3 3c c4 f5 1a 3c 29 7c a4 3a
       0.0252439 0.027759112 0.009458009 0.001254921
0001b0 2e 8c db 3c 12 75 47 3c d9 cc bb 3c 4d e6 93 3b
       0.026800241 0.012173908 0.022924827 0.004513538
0001c0 38 3e 9f 3c 85 7a 81 3c 8f ac 16 3d 43 7c 9e 3b
       0.019438848 0.015805492 0.03678566 0.0048365905
0001d0 9b ab b9 3b 26 f3 ab 3b 4d b4 c3 3b 29 73 ad 3c
       0.005666209 0.0052474914 0.0059724213 0.021173077
0001e0 3d b3 57 3c 27 2a 43 3c ec af 84 3c 4a 0e 6b 3c
       0.013165292 0.011911905 0.016197167 0.0143466685
0001f0 f7 a1 15 3c 32 64 f4 3b 4b 1d b1 3c b4 2a 5d 3c
       0.009132854 0.0074582333 0.021620413 0.013498951
000200 68 c5 53 3c 94 e3 84 3c ab 74 91 3c 2f 2a 80 3c
       0.012925483 0.016221799 0.017755827 0.015645115
000210 dd 0c ca 3c 52 7f 9f 3c a1 58 29 3b df fc dc 3c
       0.024664337 0.01946989 0.002584018 0.026976047
000220 65 ab e7 3b ee 4e 1f 3c 1c 8d 55 3c 7f 43 d1 3b
       0.0070699924 0.009723408 0.013034131 0.00638622
000230 21 70 18 3c 76 05 c4 3c ff 68 92 3c 2a 3e e2 3c
       0.009304077 0.023928385 0.017872332 0.027617533
000240 4d d7 a1 3c 4e 59 6a 3c c6 3e 0f 3d fa 97 3f 3c
       0.019755984 0.014303518 0.034971975 0.011693949
000250 96 64 c4 3c 8e 2a bd 3b 20 61 e5 3c 1f 19 27 3b
       0.023973744 0.005772895 0.028000414 0.002549715
000260 5d e5 b0 3c 4e d7 73 3c 69 66 51 3b 61 da 7e 3c
       0.021593744 0.014882876 0.003195191 0.015554995
000270 c5 a0 f9 3c d3 f9 f7 3b b4 81 87 3c a5 c1 78 3b
       0.030472169 0.007567623 0.01654134 0.0037957218
000280 03 a5 8a 3c bf 72 a1 3c 72 0d 69 3c e9 4c 03 3c
       0.016924387 0.019708036 0.014224397 0.008013942
000290 cf eb 52 3c 34 d4 e7 3b 2b 53 69 3c 6d be 00 3d
       0.012873604 0.007074857 0.01424102 0.031431604
0002a0 eb 12 35 3c 1b 75 80 3b 36 11 62 3c da 39 79 3b
       0.011051874 0.00392021 0.013798049 0.0038028867
0002b0 cc 8e 48 3c 8f 34 71 3c 67 7f 0f 3c 62 c6 75 3c
       0.012241077 0.014722004 0.008758402 0.015000911
0002c0 46 1e bd 3c d9 23 f2 3c 00 69 35 3c d8 13 2d 3c
       0.023085725 0.02955811 0.011072397 0.010563813
0002d0 23 6b ad 3c fd 7e a5 3b c8 e3 53 3c 59 27 d7 3b
       0.02116925 0.0050505386 0.012932725 0.00656597
0002e0 72 15 9d 3c 3f 3a 7a 3c a1 23 96 3a 1f 70 44 3c
       0.019175265 0.015272676 0.001145471 0.011989622
0002f0 e2 b1 27 3c 66 6f 45 3c 0d d8 54 3c 16 44 e8 3b
       0.010235282 0.012050485 0.012990964 0.0070881946
000300 92 bc 95 3c 17 54 0d 3d fa 24 4d 3c 81 4a 38 3c
       0.018278394 0.034504022 0.012521023 0.011248232
000310 1f 80 d2 3c 83 6e 72 3b e5 eb cf 3b 9f 90 df 3c
       0.025695859 0.003699214 0.0063452595 0.02729064
