models/trained_model.pth (torch, 149439 bytes, 23 tensors)

weight f4 [10, 6]
0	0xbb55a6c1	-0.0032600614
1	0xbbc215be	-0.005923002
2	0x3bcb1221	0.0061972295
3	0xbbf25a55	-0.0073960223
4	0x3be97b32	0.0071252817
5	0xbc89bfbb	-0.016815057
6	0x3b9066b3	0.004406774
7	0xb9903af7	-0.00027509753
8	0x3c0f482d	0.008745235
9	0x3c7f0c27	0.015566862
10	0xbc85499e	-0.016270455
11	0x3c6a4bf1	0.014300332
12	0xbd8507ec	-0.064956516
13	0xba207431	-0.00061208295
14	0x3d93c3a5	0.072150506
15	0xbd994ffc	-0.07485959
16	0x3da70bd2	0.081565514
17	0xbdb6f32f	-0.08933102
18	0xbb6e4dce	-0.0036362293
19	0xbc545a49	-0.012960979
20	0xbc2f870d	-0.010713351
21	0x3d3c9bc1	0.046046976
22	0x3bae8a91	0.005326577
23	0x3cfa5be2	0.030561391
24	0x3cd63b3e	0.026151296
25	0xb96a9ba1	-0.00022373955
26	0xbc206524	-0.009789739
27	0x3cf171d2	0.029473219
28	0xbc7fbb17	-0.015608571
29	0x3cec19d0	0.028820902
30	0x3beaaaeb	0.0071614883
31	0x3c9cc30d	0.019135976
32	0x3c05dc09	0.008170136
33	0xbccf8c72	-0.025335524
34	0x3c86e4ee	0.016466584
35	0xbc0f9455	-0.008763392
36	0x3b957773	0.0045613586
37	0x3cd9c371	0.026582452
38	0x3ca1c7d1	0.0197486
39	0xbd4f8eaf	-0.050673183
40	0x3cef6af5	0.029225806
41	0xbd861427	-0.065468125
42	0x3d9a6e27	0.07540541
43	0xbd1786de	-0.036993854
44	0xbd9a51af	-0.07535111
45	0x3d6850ba	0.05671761
46	0xbda2c5e6	-0.079479024
47	0x3daa493e	0.08314751
48	0x3c835c14	0.016035117
49	0xbd16e59a	-0.03684006
50	0xbc872278	-0.016495928
51	0x3d2a80e3	0.041626822
52	0xbaf621f7	-0.0018778433
53	0x3d26bb2c	0.040705845
54	0x3cba2cc2	0.02272642
55	0xbd48ecae	-0.04905384
56	0xbd884b25	-0.06654958
57	0x3cfaca29	0.030613976
58	0xbd99739f	-0.07492756
59	0x3d758b26	0.059947155

weight f4 [17, 8]
0	0x3c006d5c	0.007838573
1	0xba94b5c9	-0.001134568
2	0x381c7037	3.7297807e-05
3	0x3bca145d	0.0061669783
4	0x3b55bad1	0.0032612572
5	0xbbd801d6	-0.0065920157
6	0xbbe85674	-0.007090384
7	0xbc17fac5	-0.009276097
8	0x3b5be610	0.0033553876
9	0xbd0beebc	-0.03416322
10	0x3d1de951	0.038552586
11	0xbd416edd	-0.047224868
12	0xbbc937f1	-0.006140702
13	0x3b3226aa	0.002718369
14	0xbc0bcf4b	-0.008533309
15	0x3bdd2065	0.0067482465
16	0x3c316a8f	0.010828628
17	0x3d892c52	0.066979066
18	0xbb26a9e4	-0.0025430853
19	0xbd0d2e64	-0.03446807
20	0x3ab83e8c	0.0014056726
21	0x3cf235b9	0.029566633
22	0x3d1f4715	0.03888615
23	0xbcf5bf95	-0.02999858
24	0x3d1bfd32	0.038083263
25	0x3c73a371	0.01487051
26	0xbd6e242f	-0.058139976
27	0x3cfda4d2	0.030962382
28	0xbc95f32e	-0.018304434
29	0xbc13b7ed	-0.009016019
30	0x3cba7f2a	0.022765715
31	0xbbc4f8d1	-0.0060111065
32	0xbc58ee54	-0.013240416
33	0xbce49b63	-0.027906125
34	0xbba105df	-0.00491403
35	0x3d3ebbe7	0.046565916
36	0x3b3611e9	0.0027781671
37	0xbb02046d	-0.0019839064
38	0xbc845f2a	-0.016158659
39	0x3c7d30d0	0.015453532
40	0xbca95a98	-0.020673081
41	0x3c044359	0.008072698
42	0x3b175d9b	0.0023096565
43	0x3ce167c6	0.027515303
44	0x3d78aff8	0.060714692
45	0xbcc4d448	-0.024027005
46	0x3c4f7481	0.012662054
47	0xbbcf64fe	-0.006329178
48	0x3c2a8d20	0.010409623
49	0xbcd0e913	-0.025501763
50	0xbc2ffb04	-0.010740999
51	0x3c341e49	0.010993549
52	0xbbd237ba	-0.0064153345
53	0xbce08926	-0.027409147
54	0x373d9bed	1.1301582e-05
55	0x3ab82adb	0.0014050858
56	0x3c00df3c	0.007865723
57	0x3b55461f	0.0032543016
58	0xbb71631b	-0.0036832753
59	0x3d1235aa	0.03569571
60	0x3cd0b89b	0.025478652
61	0x3b94bd7f	0.0045391913
62	0xbc6282a5	-0.013825093
63	0x3bc66010	0.006053932
64	0xbd097421	-0.033558015
65	0xbd2a9e8d	-0.041655112
66	0xbcc6b331	-0.024255367
67	0x3da5fda2	0.08105017
68	0x3d3fa997	0.046792593
69	0xbc703f45	-0.014663522
70	0x3d859b62	0.065237775
71	0xbbd48437	-0.006485488
72	0xbc8390d5	-0.016060272
73	0xbc383e4b	-0.011245321
74	0xbce75475	-0.028238514
75	0x3b05fe44	0.0020445744
76	0x3ad99fef	0.001660345
77	0x3cd08c5a	0.02545755
78	0x3d083d38	0.033261508
79	0x3c505908	0.012716539
80	0x3c957174	0.018242575
81	0x3cb17992	0.021664415
82	0x3bf4f6ac	0.0074756946
83	0x3cd2fb67	0.025754644
84	0xbb119bf0	-0.002221819
85	0x3ba8a556	0.0051466627
86	0x3c3a1dfc	0.011359688
87	0x3c9dd168	0.019264892
88	0x3b9951d0	0.0046789423
89	0xbd38ebf7	-0.04514691
90	0x3ce345a8	0.027743176
91	0xbc2b476e	-0.010454042
92	0xbcda7399	-0.02666645
93	0xbd601b86	-0.05471375
94	0xbd2a1996	-0.041528307
95	0x3d50e8f1	0.0510034
96	0xba940545	-0.0011293074
97	0x3c88de68	0.016707614
98	0xbc990893	-0.018680846
99	0xbca6a571	-0.02034256
100	0x3bd2ce9f	0.0064333226
101	0x3ce53f77	0.027984364
102	0x39c81408	0.00038161897
103	0x3c505105	0.012714629
104	0x3c6b0089	0.014343389
105	0x3c364985	0.011125927
106	0xbcc80e36	-0.024420839
107	0xbc0a6e64	-0.008449171
108	0xbc17d3e2	-0.009266825
109	0x3beedaa9	0.00728925
110	0xbcbf4cfc	-0.023352139
111	0x3c3a7837	0.0113812005
112	0x3d18f0e5	0.03733911
113	0xbd76faae	-0.06029766
114	0x3d36c13e	0.044617884
115	0x3c80cbaa	0.015722115
116	0x3c86ed96	0.016470712
117	0xbc893494	-0.016748704
118	0xbc4cce2a	-0.012500325
119	0x3c33971e	0.010961322
120	0x3d7c01b8	0.061525077
121	0x3d6db0c2	0.058029898
122	0x3cbd5dc4	0.023116
123	0xbddaab7e	-0.10677241
124	0xbd5a3c01	-0.05327988
125	0xbc292043	-0.010322633
126	0xbd410b20	-0.04712975
127	0xbd84fc59	-0.06493444
128	0x3c877f8e	0.016540315
129	0xbd31ce27	-0.043409493
130	0x3d2ad672	0.041708417
131	0x3ccd2c78	0.025045618
132	0xbd2b09d0	-0.041757405
133	0xbd1621e2	-0.036653407
134	0xbca1f78d	-0.019771362
135	0x3cae2524	0.021257944

weight f4 [8, 5]
0	0xba77c1c0	-0.0009451173
1	0xbbdfa6d5	-0.006825308
2	0xbc803eac	-0.015654884
3	0x3a32587a	0.0006803345
4	0x3943b952	0.00018665686
5	0xbd8f3f68	-0.06994516
6	0x3d8da3b5	0.0691599
7	0xbd3513fe	-0.04420852
8	0x3d26cd17	0.040722933
9	0xbd77cd8e	-0.060498767
10	0x3d6386f0	0.05554861
11	0xbd06670b	-0.032813113
12	0x3d39e280	0.045382023
13	0xbd58a542	-0.052891977
14	0x3c48fc54	0.012267191
15	0x3db35413	0.0875627
16	0xbd9d14a6	-0.07669954
17	0x3d4fd07c	0.050735936
18	0xbd86b5ed	-0.06577668
19	0x3d9db34b	0.07700213
20	0xbd0b5362	-0.034015067
21	0x3d3f8cbf	0.046765085
22	0xbd3f1476	-0.046650372
23	0x3d689307	0.05678084
24	0xbb8b90a9	-0.004259188
25	0xbd8d2f82	-0.06893827
26	0x3d11bede	0.035582416
27	0xbd372d20	-0.04472077
28	0x3d736e73	0.059431504
29	0xbd5d4501	-0.054020885
30	0xbd9805c5	-0.074229755
31	0x3d496822	0.049171574
32	0xbd2316a3	-0.03981651
33	0x3d02eea0	0.03196585
34	0xbd5f02c6	-0.054446004
35	0xbcb6213a	-0.02223264
36	0x3d0becdb	0.03416143
37	0x3be9edbb	0.0071389354
38	0x3cac873c	0.021060579
39	0xbc721d5d	-0.014777509

weight f4 [16, 8]
0	0x39eba0ae	0.0004494241
1	0xbb0a0276	-0.0021058596
2	0xbc344189	-0.011001953
3	0x3b7c3a26	0.0038486808
4	0xbaafe880	-0.0013420731
5	0xbc2d0ed6	-0.010562619
6	0x3aa0bf7c	0.0012264098
7	0x3c316caf	0.010829135
8	0xbc5bac63	-0.013407799
9	0x3d13bf66	0.036071204
10	0x3c3244a4	0.010880623
11	0x3b9a7a07	0.004714254
12	0x3b5156c0	0.0031942576
13	0xbca2f85d	-0.01989382
14	0xbc689ffa	-0.014198298
15	0xbc9b3944	-0.018948205
16	0x3bc2aa20	0.0059406906
17	0x3a460673	0.00075540616
18	0x3cdee2ab	0.027207693
19	0x3bfdbf51	0.007743754
20	0xbcb64c9c	-0.022253327
21	0xbbb1250f	-0.005406029
22	0xbc2a8d23	-0.010409626
23	0xbb6bfa89	-0.0036007485
24	0xbd04ed43	-0.032452833
25	0x3d29e1c8	0.041475087
26	0x3d1b530b	0.037920993
27	0xbcb305d3	-0.021853363
28	0xbb595b5e	-0.0033166031
29	0xbccd0123	-0.025024956
30	0x3bbba425	0.0057263547
31	0xbd0ff570	-0.035146177
32	0xbaa99f5e	-0.0012941172
33	0x3c26530a	0.010151634
34	0x3cffe21e	0.03123575
35	0x3bdaa7c8	0.006672833
36	0x3c25b4a8	0.010113873
37	0xbc0ca9d5	-0.008585413
38	0xbb8869b4	-0.0041629914
39	0x3b3daa5d	0.0028940656
40	0x3d50245e	0.050815932
41	0xbda1a1be	-0.07892178
42	0xbd60a08a	-0.054840602
43	0x3d3d4ca1	0.046215657
44	0xbb915190	-0.004434772
45	0x3d15623e	0.036470644
46	0x3d483350	0.04887706
47	0x3d4a33fb	0.04936598
48	0xbdc0038b	-0.09375676
49	0x3dc61703	0.09672358
50	0x3db16022	0.08660914
51	0xbd613d74	-0.054990247
52	0xbd3f1e13	-0.04665954
53	0xbdb7d3c8	-0.08975941
54	0xbd6a5504	-0.057209983
55	0xbddf46f2	-0.109022036
56	0xbd805854	-0.06266847
57	0x3d98e53e	0.074655995
58	0x3d9c242a	0.07624085
59	0xbd49915b	-0.049210887
60	0xbd000560	-0.031255126
61	0xbd5f308b	-0.054489654
62	0xbd5cca74	-0.05390401
63	0xbd93e595	-0.07221524
64	0xbd421dac	-0.04739158
65	0x3d6830ec	0.05668728
66	0x3c882582	0.016619448
67	0xbd3ba110	-0.045807898
68	0xbc96c963	-0.018406576
69	0xbc98bfa9	-0.018646078
70	0xbcf00844	-0.029300816
71	0xbd15e487	-0.036594894
72	0xbd934d56	-0.07192485
73	0x3d9537ad	0.0728601
74	0x3d7e1ffe	0.06204223
75	0xbd3af302	-0.045641907
76	0xbe0e60f2	-0.13904169
77	0xbd59b9b4	-0.053155616
78	0xbdf9b85e	-0.121933684
79	0xbdf19f65	-0.1179798
80	0xbd84eccf	-0.0649048
81	0x3d8a448b	0.06751355
82	0x3d438472	0.04773373
83	0xbd30c976	-0.043160878
84	0xbc7eb1a4	-0.0155452825
85	0xbd5bdf1a	-0.053679563
86	0xbd94d8ee	-0.072679386
87	0xbd999306	-0.074987456
88	0x3d1dd9d4	0.038537815
89	0xbce019b6	-0.02735601
90	0xbc89d91b	-0.016827157
91	0x3cbcbe01	0.02303982
92	0x3d83e581	0.06440259
93	0x3c1cab59	0.009562337
94	0x3d2068f5	0.039162595
95	0x3d3395ea	0.04384414
96	0x3d5a5d33	0.053311538
97	0xbd6a5365	-0.057208437
98	0xbd3c0343	-0.045901548
99	0x3c845e9d	0.016158396
100	0x3b7019aa	0.003663639
101	0x3d94064e	0.07227765
102	0x3bb06561	0.005383179
103	0x3d35491c	0.044259176
104	0x3c8e079d	0.017337615
105	0xbc83e446	-0.01610006
106	0xbc9ab123	-0.018883293
107	0x3c083d69	0.008315423
108	0xbd0cc327	-0.0343658
109	0x3cde0729	0.027103024
110	0x3b81d47b	0.003962097
111	0x3c46d9d5	0.012136896
112	0x3d03ffc9	0.032226358
113	0xbd882a67	-0.066487126
114	0xbd04697e	-0.032327168
115	0x3d352015	0.04422005
116	0x3d910198	0.07080382
117	0x3cf40b81	0.029790642
118	0x3d50bd7f	0.050961968
119	0x3d837905	0.06419567
120	0xbd1c75f0	-0.03819841
121	0x3d58148d	0.052753974
122	0x3d1afd8e	0.037839465
123	0xbab14025	-0.0013523145
124	0xbc9c8d71	-0.019110413
125	0xbd71c790	-0.05902821
126	0xbc5eec46	-0.013606137
127	0xbd0affec	-0.033935472

weight f4 [7, 5]
0	0xbc36ff63	-0.011169287
1	0x3ba1b73e	0.0049351742
2	0xbb92cd10	-0.0044800118
3	0x3bee3d05	0.0072704577
4	0x3bca3cbe	0.006171792
5	0xbcf14ddb	-0.02945607
6	0x3cff016f	0.031128613
7	0xbca0abca	-0.019613165
8	0xbc3ab8a0	-0.011396557
9	0xbd0ccd10	-0.03437525
10	0x3d4097ee	0.04701989
11	0xba9de9a2	-0.0012047777
12	0xbd487c86	-0.04894688
13	0x3d011fd4	0.031524494
14	0x3d631773	0.055442285
15	0x3d9b9261	0.07596279
16	0xbdbe987c	-0.09306428
17	0xbd8e2008	-0.06939703
18	0x3d671eb1	0.056425754
19	0x3d7dbf76	0.06195017
20	0x3dbf28eb	0.09333976
21	0xbdc42921	-0.09578157
22	0xbd0178b5	-0.031609256
23	0x3d8b5848	0.06803948
24	0x3d4c2a66	0.04984512
25	0x3d878167	0.066164784
26	0xbd4098f1	-0.047020856
27	0xbd8abf8b	-0.06774815
28	0x3d2fd876	0.042931043
29	0x3d884d15	0.06655327
30	0xbddfd8d0	-0.109300256
31	0x3d8752bd	0.06607578
32	0x3ddb0043	0.10693409
33	0xbdbc7619	-0.09202213
34	0xbdda6c51	-0.10665191

weight f4 [6, 4]
0	0xbbbad93f	-0.0057021673
1	0x3c5507e1	0.013002367
2	0xbc7eada3	-0.015544328
3	0x3b6f4f2b	0.0036515694
4	0xbdeee51a	-0.116647914
5	0xbd246777	-0.040137734
6	0xbdd7cce8	-0.1053713
7	0x3d9685a8	0.07349712
8	0xbd0b06d2	-0.03394205
9	0xbd49e5c1	-0.049291376
10	0x3c72eafc	0.014826532
11	0x3cd73a78	0.026272997
12	0xbb76e71a	-0.0037674368
13	0x3c31c124	0.010849271
14	0xbd540b6a	-0.051768698
15	0x3d2fef46	0.0429528
16	0xbd7cdf3e	-0.061736338
17	0x3b8bc6da	0.0042656483
18	0xbd8126e2	-0.063062444
19	0x3d589977	0.05288073
20	0x3d01478b	0.03156237
21	0x3d28dd08	0.041226417
22	0x3c40069c	0.011720326
23	0xbd5e2919	-0.054238413

weight f4 [3, 3]
0	0x3c490ca5	0.012271081
1	0xbb29a4a6	-0.0025885492
2	0xbb04732a	-0.0020210245
3	0xbd98803b	-0.07446333
4	0x3dc2c662	0.09510495
5	0x3d1d2748	0.03836754
6	0x3d3418b2	0.043968864
7	0xbdcd2d7a	-0.100184396
8	0xbd318cab	-0.043347042

weight f4 [42, 13]
0	0xbbe20400	-0.0068974495
1	0xbc252364	-0.010079239
2	0xbbdb842b	-0.0066991053
3	0xbbd6175d	-0.006533547
4	0xbc4c897c	-0.012483951
5	0xbb89d45d	-0.004206224
6	0x3c4cf92e	0.012510581
7	0xbc9b2f1d	-0.018943364
8	0x3bdc8c09	0.0067305607
9	0x3bb8cb8c	0.005639499
10	0xbc2a9b4b	-0.010413001
11	0x39553fe5	0.00020337066
12	0x3b23384a	0.0024905377
13	0x3d246224	0.040132657
14	0xbcbd4372	-0.02310345
15	0x3c621fd6	0.013801536
16	0xbcf5b91e	-0.029995497
17	0x3c8e9f6c	0.017410003
18	0x3d5d77ec	0.054069445
19	0x3be2849a	0.00691278
20	0xbcb9ed73	-0.022696232
21	0xbcb57687	-0.022151245
22	0xbb8663cb	-0.0041012517
23	0xbc9e50a4	-0.019325562
24	0x3cf4b32d	0.029870594
25	0xbc3508fe	-0.011049507
26	0x3d5ad78f	0.05342823
27	0xbaf0769e	-0.0018345898
28	0xbc8b9d73	-0.017042851
29	0x3d68e36c	0.05685751
30	0xbc568223	-0.01309255
31	0x3aed7e5e	0.0018119325
32	0xbd1155f1	-0.03548235
33	0x3d862947	0.06550842
34	0x3d84b961	0.06480671
35	0x3d2b8f60	0.04188478
36	0x3d1fa8ad	0.03897922
37	0x3cdc48b4	0.026890136
38	0x3ceda267	0.029008104
39	0xbd3f62d1	-0.046725098
40	0xbd5f7a52	-0.054560013
41	0xbd086ad1	-0.033304993
42	0xba6f233f	-0.00091223785
43	0xbd0d69ef	-0.034524854
44	0xbcc996ae	-0.024607982
45	0x3c32eaee	0.010920269
46	0x3cbe4181	0.023224594
47	0x3c8cfa2a	0.017209131
48	0x3d30bbf1	0.043147985
49	0x3c980933	0.018559074
50	0xbb957979	-0.0045616
51	0x3d41907b	0.047256928
52	0x3cdd1ffd	0.026992792
53	0xbb0659f7	-0.00205004
54	0x3c9028bc	0.017597549
55	0xbd180c6b	-0.037121218
56	0x3d7700e0	0.06030357
57	0x3c81dbf2	0.015851948
58	0x3c9f8462	0.019472305
59	0xbb69bbdb	-0.003566495
60	0xbcab63c0	-0.020921588
61	0xbd47293b	-0.048623305
62	0xbbbcaa7c	-0.005757628
63	0x3d05a3b2	0.032626815
64	0xbcd560f8	-0.026047215
65	0x3c45058b	0.012025247
66	0x3d46e125	0.04855456
67	0x3dc44cf4	0.0958499
68	0xbd9ef6be	-0.07761906
69	0x3d86f215	0.06589142
70	0x3cb9726a	0.022637565
71	0x3db69e5b	0.08916923
72	0xbd7fd6ff	-0.062460896
73	0xbd940c6f	-0.07228934
74	0xbdd3076c	-0.1030415
75	0xbdd253c0	-0.1026988
76	0xbc9f1150	-0.019417435
77	0xbccbd96e	-0.024883952
78	0x3c8e4f08	0.01737167
79	0xbcce09de	-0.02515119
80	0xbda39b66	-0.07988624
81	0xbd2283d0	-0.039676487
82	0xbd142563	-0.036168467
83	0xbcc3275d	-0.02382248
84	0xbcfc11a2	-0.030770127
85	0x3d992019	0.07476825
86	0x3d5e25c2	0.054235227
87	0x3d44785c	0.047966346
88	0x3ccca68e	0.024981763
89	0x3c950e0b	0.018195173
90	0x3d73337c	0.05937527
91	0x3ce27053	0.027641451
92	0xbb36a433	-0.0027868866
93	0x3d297063	0.041366946
94	0xbd60e597	-0.054906454
95	0x3d49bf12	0.049254484
96	0x3d576e73	0.052595567
97	0x3cbe67cc	0.023242854
98	0xbd760142	-0.060059793
99	0xbd2b1757	-0.041770305
100	0xbd2f00af	-0.04272526
101	0xbcbcaaed	-0.023030723
102	0x3ccece03	0.025244718
103	0xbd1c6a60	-0.038187385
104	0xbd27bb03	-0.040949833
105	0xbc7825e1	-0.01514575
106	0x3cff92ed	0.03119799
107	0xbd7a9de3	-0.06118573
108	0x3d425dd7	0.047452774
109	0x3c96df66	0.018417072
110	0x3cf3d2d7	0.029763622
111	0xbda9003b	-0.08251997
112	0xbd362e77	-0.044477906
113	0xbcab6211	-0.020920785
114	0xbd7408ef	-0.059578832
115	0x3b23a38a	0.0024969303
116	0xbd7e7151	-0.062119786
117	0xbc256a6c	-0.010096174
118	0xbd4412eb	-0.047869604
119	0x3d265368	0.040606886
120	0xbc42baa3	-0.011885318
121	0xbcde2089	-0.027115123
122	0xbc6e9e4f	-0.014564111
123	0x3cde78c7	0.0271572
124	0xbd569a8b	-0.052393477
125	0xbcfe8fe2	-0.031074468
126	0x3c529308	0.012852438
127	0xbd3c30cf	-0.045944985
128	0xbd88daf9	-0.06682391
129	0xbd28aa47	-0.041178014
130	0xbcd99278	-0.0265591
131	0xbd25dd39	-0.040494177
132	0xbcdb6279	-0.026780354
133	0xba5cb8aa	-0.0008419851
134	0xbcddca53	-0.027074015
135	0x3b27ef60	0.0025624856
136	0x3d460726	0.04834666
137	0xbbec55ac	-0.0072123613
138	0xbc475631	-0.012166546
139	0x3c97ea11	0.018544229
140	0x3c012c45	0.00788409
141	0x3c8c8cae	0.017156925
142	0x3cb1acb5	0.021688798
143	0xbb46dc25	-0.0030343619
144	0x3b0227fa	0.0019860254
145	0xbcca66c5	-0.024707207
146	0x3c3cad4d	0.0115159275
147	0xbb081993	-0.0020767197
148	0xbd29bdf0	-0.041440904
149	0xbd223f86	-0.039611362
150	0x3d0191c9	0.031633172
151	0x3d233278	0.039843053
152	0x3c528951	0.012850122
153	0x3d22804a	0.039673127
154	0x3b9755b5	0.0046183714
155	0x3d0da907	0.034585025
156	0xbc0811fa	-0.008305067
157	0xbd74a31f	-0.059725877
158	0x3ac59ade	0.0015076061
159	0xbbcabf5d	-0.006187363
160	0xbbb46531	-0.005505227
161	0x3cd04394	0.025422849
162	0x3cf77430	0.03020677
163	0xbcec2a6d	-0.028828824
164	0x3c0fe944	0.008783642
165	0x3cecbb69	0.028897958
166	0x3c0c1862	0.008550735
167	0xba805a6c	-0.0009792573
168	0xbd095974	-0.033532575
169	0xbb28478f	-0.0025677418
170	0x3cc1aa68	0.023640826
171	0x3d449e99	0.048002813
172	0xbd142ee3	-0.036177527
173	0x3d66e393	0.056369375
174	0x3d46b500	0.04851246
175	0x3d367a21	0.044550065
176	0xbc23e160	-0.010002464
177	0xbd840148	-0.06445557
178	0xbd805483	-0.06266119
179	0xbd41d788	-0.047324687
180	0x3d25ee81	0.04051066
181	0x3d100d86	0.035169147
182	0x3cdc5d6b	0.026900014
183	0xbaadf8cd	-0.0013273001
184	0x3c8e7cc9	0.017393487
185	0xbd125225	-0.03572287
186	0x3c66aa77	0.014078728
187	0x3d098acd	0.033579636
188	0x3ccff634	0.025385953
189	0xbc7e86e2	-0.015535088
190	0xbd015df2	-0.031583734
191	0xbcecb548	-0.028895035
192	0xbd255109	-0.040360484
193	0xbc740424	-0.014893565
194	0x3b286497	0.0025694722
195	0xbd0761ea	-0.033052363
196	0xbc8d5feb	-0.017257651
197	0x3c8cec3e	0.017202493
198	0xbba1aec6	-0.0049341647
199	0x3b66cf1b	0.003521866
200	0xbc89d9f0	-0.016827554
201	0x3c8902be	0.01672494
202	0xbccebd47	-0.025236739
203	0x3c7a20d5	0.015266617
204	0x3b20e60c	0.002455118
205	0xbcb5d58a	-0.02219655
206	0xbcf8c984	-0.030369528
207	0xbc4159e9	-0.011801221
208	0x3b83f24d	0.0040266872
209	0xbc9e4e53	-0.019324457
210	0x3bb0f96d	0.0054008276
211	0xbd1894e2	-0.03725136
212	0xbc72ffc5	-0.014831488
213	0x3bf6b452	0.00752882
214	0x3cee56cf	0.029094128
215	0xbd110274	-0.03540273
216	0x3c89f421	0.016840043
217	0x3c11c528	0.008897103
218	0xbce70027	-0.028198315
219	0xbc553e1f	-0.013015299
220	0xbc988ae1	-0.01862091
221	0xbd0f2253	-0.034944844
222	0x3cc58105	0.024109373
223	0xbcd71ecd	-0.026259804
224	0x3c0148a5	0.007890855
225	0x3c6dae45	0.014506881
226	0xbcc99ea9	-0.024611788
227	0x3bbb2dc8	0.0057122447
228	0x3d06a1dd	0.03286921
229	0x3cc122e2	0.023576204
230	0xbc2fe94e	-0.0107367765
231	0x3aa225bd	0.0012370866
232	0x3b0bfdda	0.0021361024
233	0xbc8c9920	-0.01716286
234	0x3ceec149	0.0291449
235	0x3ae73edc	0.0017642635
236	0x3c4376a4	0.011930142
237	0xbbbc404b	-0.005744969
238	0x3c943ca3	0.01809532
239	0xbc347f41	-0.011016668
240	0xbbce58a9	-0.00629719
241	0xbd284deb	-0.041089933
242	0xbc71a0f6	-0.014747849
243	0x3b60f69d	0.003432668
244	0xbc7b942e	-0.015355153
245	0xbb1d5a96	-0.0024010292
246	0xbd2dbad9	-0.04241452
247	0x3d3e0e60	0.046400428
248	0x3c56f983	0.013121012
249	0x3c193e66	0.009353256
250	0xbd00fa68	-0.031488806
251	0x3cdfc460	0.027315319
252	0x3c341e43	0.010993543
253	0x3bf13a80	0.00736171
254	0x3ca26b9c	0.019826703
255	0x3b977f45	0.004623326

weight f4 [6]
0	0x3f78a9e1	0.97134215
1	0x3f5c0d9f	0.85958284
2	0x3f6f4cbe	0.93476474
3	0x3f8d0d69	1.1019717
4	0x3f7cabe4	0.98699784
5	0x3f70563e	0.93881595

bias f4 [6]
0	0xbd02f05e	-0.031967513
1	0xb9f49cf5	-0.0004665625
2	0xb9657c0f	-0.00021885357
3	0xbd1af2e3	-0.03782929
4	0xbbaf7fb5	-0.0053558
5	0xbb53dae9	-0.0032326526

running_mean f4 [6]
0	0x3ca437e6	0.020046186
1	0x3cc9c722	0.024631087
2	0xbd4a8c54	-0.049450234
3	0x3c83e0b8	0.016098365
4	0x3cde8594	0.027163304
5	0x3bf8c359	0.0075916466

running_var f4 [6]
0	0x3f827ca9	1.0194293
1	0x3f6f86af	0.93564886
2	0x3f86c8f1	1.0530072
3	0x3f857d3f	1.0428847
4	0x3f8aa059	1.0830184
5	0x3f82f167	1.022992

weight f4 [200, 58]
0	0x3d9a6458	0.0753867
1	0x3dacb8e6	0.08433704
2	0x3d3f9e3a	0.046781756
3	0xbd7b02d4	-0.061281994
4	0x3d4dceb3	0.05024595
5	0xbc38f433	-0.01128869
6	0xbdce9103	-0.100862525
7	0xbd55a7c7	-0.052161958
8	0xbd9e1331	-0.07718504
9	0x3da07cb3	0.078362845
10	0x3d1b7a6d	0.03795855
11	0x3d05d630	0.03267497
12	0x3d5661be	0.052339308
13	0x3d9be3ea	0.076118305
14	0xbe01a38a	-0.12660041
15	0x3c86f52a	0.016474325
16	0xbe1c588e	-0.15268156
17	0x3d7e28b3	0.062050533
18	0x3d38deff	0.04513454
19	0xbd43e9d8	-0.047830433
20	0x3d08ec89	0.033428703
21	0x3e149837	0.1451119
22	0x3d305a9b	0.043055158
23	0x3dde929d	0.10867808
24	0x3d3d41aa	0.0462052
25	0x3b827173	0.0039808094
26	0x3df89ad7	0.12138908
27	0xbd14181b	-0.0361558
28	0x3d99fd4e	0.07519017
29	0xbd59806d	-0.053100992
30	0xbd225ad2	-0.039637394
31	0x3e1c6f0f	0.1527674
32	0x3e29f475	0.16597159
33	0x3e116bab	0.14201228
34	0x3d1c790b	0.038201373
35	0xbc7d975b	-0.0154779805
36	0xbd689b28	-0.056788594
37	0x3c910c05	0.017705927
38	0x3cb18c03	0.021673208
39	0xbd81bf07	-0.06335264
40	0xbddfb9f9	-0.10924143
41	0xbd71af5b	-0.059005123
42	0xb9ade6d6	-0.00033169118
43	0x3dac2688	0.08405787
44	0x3d7a470d	0.061102916
45	0x3df24fc7	0.118316226
46	0xbdade137	-0.08490222
47	0xbdb1c36d	-0.08679853
48	0x3dc803e2	0.097663656
49	0x3ca64cfa	0.020300377
50	0x3c48c566	0.012254095
51	0x3c7a2113	0.015266675
52	0xbde88da9	-0.113551445
53	0xbd848661	-0.06470943
54	0x3db29ab9	0.08720917
55	0xbd76d316	-0.0602599
56	0x3d063425	0.032764573
57	0x3dbd0d18	0.09231013
58	0x3d581e74	0.052763417
59	0x3e06e5ce	0.13173601
60	0x3dcdb2d4	0.100438744
61	0xbe3c1b65	-0.18369825
62	0x3d877bc7	0.066154055
63	0xbdc6841a	-0.09693165
64	0xbaf3549f	-0.0018564648
65	0xbd952716	-0.07282846
66	0xbd879858	-0.06620854
67	0x3e08400c	0.13305682
68	0xbcd33f1b	-0.025786927
69	0xbd6cc6f3	-0.05780692
70	0xbdb5e137	-0.08880847
71	0xbd3b2fb7	-0.0456998
72	0x3e334cb3	0.17509727
73	0xbdaefc7a	-0.0854425
74	0xbcddc12d	-0.027069652
75	0xbe2e5c76	-0.17027459
76	0x3e0f2b51	0.13981368
77	0x3e139c48	0.14415085
78	0x3d778463	0.06042899
79	0x3de1fa77	0.110341005
80	0x39e5077b	0.00043683857
81	0xbe021e59	-0.12706889
82	0xbcb9e4ec	-0.022692166
83	0x3ca05a2c	0.019574247
84	0x3dfa38dc	0.12217876
85	0xbcc990c5	-0.024605164
86	0x3dcc20f3	0.09967222
87	0x3e06eb61	0.13175727
88	0xbd868d67	-0.06569939
89	0xbe21a174	-0.15784246
90	0xbd04925e	-0.03236615
91	0xbde9f5ae	-0.11423813
92	0x3d9aafbf	0.07553052
93	0xbdab8838	-0.08375591
94	0x3cdefdad	0.027220571
95	0xbdfa0609	-0.12208182
96	0xbd99d2b7	-0.07510894
97	0x3e0ee07b	0.1395282
98	0x3c7fb4a0	0.015607029
99	0xbda38531	-0.079843886
100	0x3dd933e9	0.10605604
101	0xbdcbdd12	-0.09954275
102	0x3cc2333e	0.023706075
103	0xbde9a2bc	-0.11407992
104	0x3d1e39b7	0.03862926
105	0xbd90e1e0	-0.07074332
106	0x3dd65187	0.10464769
107	0xbce85506	-0.028360855
108	0x3cd58a2e	0.026066866
109	0xbd8c4093	-0.06848254
110	0x3dd38a29	0.10329086
111	0x3dd523d0	0.10407221
112	0x3dcdd9fa	0.10051341
113	0xbe16b61f	-0.14717911
114	0xbe165e82	-0.1468449
115	0xbdb87bb9	-0.09007973
116	0x3d5a5063	0.05329932
117	0x3d98c92c	0.074602455
118	0x3d837c58	0.06420201
119	0xbe054024	-0.13012749
120	0x3ddf34c6	0.108987376
121	0xbe1340d8	-0.14380205
122	0xbe051d2c	-0.1299941
123	0xbdc84597	-0.09778898
124	0x3e040245	0.12891491
125	0xbdcaec88	-0.09908396
126	0x3d2dcdd7	0.042432632
127	0x3d2dea3a	0.042459704
128	0x3d5fd51e	0.054646604
129	0xbde85372	-0.11344041
130	0xbc4e246b	-0.012581925
131	0xbe05b74d	-0.13058205
132	0xbcaa157a	-0.020762194
133	0x3d921be2	0.071342245
134	0xbc53d21f	-0.012928515
135	0x3dfa938b	0.12235173
136	0x3dc53426	0.09629087
137	0xbcf0ffaf	-0.029418794
138	0x3d05d85c	0.03267704
139	0x3dc493aa	0.09598477
140	0x3b9b1a8b	0.004733389
141	0x39d2b291	0.00040187364
142	0x3dc08b23	0.09401538
143	0xbdd506e7	-0.10401707
144	0xbd9cc485	-0.076546706
145	0xbc930033	-0.017944431
146	0x3dfb13f8	0.12259668
147	0xbe00e6a4	-0.12587982
148	0xbd90a3ae	-0.070624694
149	0xbd0193a0	-0.031634927
150	0xbd6a27a4	-0.05716671
151	0xbe0859e2	-0.13315538
152	0xbdec030c	-0.11524019
153	0x3cf352c8	0.02970256
154	0x3de8ff04	0.11376765
155	0x3ce2b0e1	0.027672233
156	0x3cf4fbae	0.029905166
157	0x3de3deb8	0.111264646
158	0x3c4349be	0.011919437
159	0x3d909910	0.07060444
160	0x3c993058	0.01869981
161	0xbda07763	-0.07835271
162	0x3de5b8bb	0.11216875
163	0x3d0aaacd	0.033854295
164	0x3b880b90	0.004151769
165	0x3dbbb545	0.09165434
166	0x3daa9d86	0.083308265
167	0x3d1fb62e	0.0389921
168	0xbd562f5e	-0.052291267
169	0x3c926240	0.017869115
170	0xbdc61e69	-0.09673769
171	0xbd6c4bc2	-0.057689436
172	0xbc7e50f2	-0.015522229
173	0x3c9da15f	0.019241987
174	0xbd4d54fe	-0.050129883
175	0x3da5426b	0.08069309
176	0xbd080872	-0.03321118
177	0xbd79adce	-0.06095677
178	0x3d6471aa	0.05577246
179	0x3d856eff	0.065153114
180	0xbd3610f8	-0.044449776
181	0x3dd633ac	0.104590744
182	0xbcc1504e	-0.023597863
183	0x3de419e0	0.11137748
184	0xbda5d783	-0.08097746
185	0x3ddbc96b	0.10731777
186	0xbc74cf71	-0.014942036
187	0xbdccd35d	-0.10001252
188	0xbe316a49	-0.17325701
189	0x3d9f98f6	0.07792847
190	0xbd4bb851	-0.049736325
191	0x3c27c73d	0.010240373
192	0xbde5782a	-0.1120456
193	0xbd65ddf6	-0.05611988
194	0x3c15b86b	0.009138207
195	0x3d40f446	0.047107957
196	0x3d83c395	0.06433789
197	0xbe17bd60	-0.14818335
198	0xbe0dff1e	-0.1386685
199	0x3c281b5b	0.010260428
200	0xbdebd96c	-0.11516079
201	0x3de98144	0.114016086
202	0x3d5cd702	0.053915985
203	0xbe5bcb2d	-0.21464224
204	0xbd123b1f	-0.035700914
205	0x3e21b51b	0.15791743
206	0x3ddec283	0.10876944
207	0xbdbcd805	-0.0922089
208	0x3d8f31e0	0.06991935
209	0xbc2d5cec	-0.010581236
210	0xbd873d46	-0.06603484
211	0x3da4c243	0.08044865
212	0x3df9fdcc	0.12206611
213	0xbc0433f8	-0.008069031
214	0xbd866076	-0.06561367
215	0xbcf915c3	-0.030405885
216	0xbd68f304	-0.056872383
217	0xbdbc450e	-0.09192859
218	0x3db5ae8b	0.08871182
219	0x3d5d3762	0.054007895
220	0xbd9486b1	-0.07252253
221	0xbc834073	-0.016021943
222	0x3af30b4f	0.0018542799
223	0x3cb3dd0a	0.021955986
224	0x3d035747	0.032065656
225	0x3d54c46c	0.051945135
226	0xbdc90194	-0.09814754
227	0x3d06e14e	0.03292971
228	0x3d62d511	0.055378977
229	0xbe0e7a10	-0.1391375
230	0x3d5dcd6a	0.054150976
231	0xbdba3b57	-0.090933494
232	0xbd50309d	-0.05082761
233	0xbda5c92c	-0.08095011
234	0xbd80b3e1	-0.06284309
235	0x3da77293	0.0817615
236	0xbd234b41	-0.03986669
237	0x3daf5851	0.08561767
238	0xbd5935e8	-0.053029925
239	0xbd015f01	-0.031584743
240	0xbdfc427a	-0.12317367
241	0x3d71bd01	0.05901814
242	0xbd7f8e2a	-0.062391438
243	0xbe0c0380	-0.1367321
244	0xbdaa8071	-0.083252795
245	0xbe0aed51	-0.13567092
246	0xbdb3629c	-0.087590426
247	0x3d960657	0.07325428
248	0x3d009dde	0.031400554
249	0xbd9abdf0	-0.07555759
250	0x3d1b8e5c	0.03797756
251	0x3ccf010b	0.025269052
252	0x3d065086	0.032791637
253	0x3dfb34e4	0.122659475
254	0x3de0cf62	0.10977055
255	0x3dd1eb9f	0.10250019

weight f4 [200]
0	0x3f7b81bd	0.9824484
1	0x3f80341f	1.0015906
2	0x3f741e8b	0.95359105
3	0x3f84e17f	1.0381316
4	0x3f81099c	1.0081058
5	0x3f7c8718	0.98643637
6	0x3f7ff8a1	0.9998875
7	0x3f80c2df	1.005947
8	0x3f7ebffa	0.99511683
9	0x3f7bf53e	0.98421085
10	0x3f7afae9	0.9803911
11	0x3f7a1381	0.9768601
12	0x3f812a15	1.0090967
13	0x3f84cbec	1.0374732
14	0x3f7ab662	0.97934544
15	0x3f79f7e6	0.9764389
16	0x3f7ec630	0.9952116
17	0x3f803fe1	1.0019494
18	0x3f800c5f	1.0003775
19	0x3f7e7045	0.9939006
20	0x3f824400	1.0177002
21	0x3f8086b7	1.0041112
22	0x3f8450ba	1.0337136
23	0x3f82b466	1.0211303
24	0x3f7ce689	0.9878927
25	0x3f7c914d	0.9865921
26	0x3f81c328	1.0137682
27	0x3f7ca18b	0.98683995
28	0x3f7abc48	0.97943544
29	0x3f7e3d13	0.9931194
30	0x3f777ab3	0.966716
31	0x3f7c51da	0.98562396
32	0x3f7ee9ed	0.9957569
33	0x3f7c32eb	0.98515195
34	0x3f810a16	1.0081203
35	0x3f82b8c4	1.0212636
36	0x3f7db363	0.9910185
37	0x3f85baf9	1.0447685
38	0x3f841460	1.0318718
39	0x3f78b648	0.9715314
40	0x3f83c3c1	1.0294114
41	0x3f85786c	1.0427375
42	0x3f7c98a0	0.9867039
43	0x3f79753d	0.97444516
44	0x3f77d78d	0.9681328
45	0x3f7ef78c	0.99596477
46	0x3f703c18	0.93841696
47	0x3f7ea2e0	0.9946728
48	0x3f819d0a	1.012605
49	0x3f7f160f	0.99643034
50	0x3f834280	1.0254669
51	0x3f81b4f9	1.0133353
52	0x3f7e35e6	0.9930099
53	0x3f791d47	0.973103
54	0x3f77e774	0.96837544
55	0x3f89a78e	1.0754259
56	0x3f7f7b93	0.99797934
57	0x3f8304bc	1.023582
58	0x3f768cd1	0.9630862
59	0x3f828dc9	1.0199519
60	0x3f7e54ff	0.99348444
61	0x3f7f15a2	0.99642384
62	0x3f7d7ff9	0.99023396
63	0x3f7dfc8e	0.9921349
64	0x3f80a236	1.0049503
65	0x3f7afc41	0.9804116
66	0x3f7c4cb4	0.9855454
67	0x3f7a8c47	0.97870296
68	0x3f7a2508	0.97712755
69	0x3f814a83	1.0100864
70	0x3f82002e	1.0156305
71	0x3f787863	0.97058696
72	0x3f75e577	0.9605326
73	0x3f8cd176	1.1001422
74	0x3f7df7c7	0.99206203
75	0x3f752e35	0.9577363
76	0x3f82de25	1.0224043
77	0x3f7d5583	0.98958606
78	0x3f816f0a	1.0112011
79	0x3f7bd74b	0.98375386
80	0x3f8335fc	1.025085
81	0x3f837d01	1.0272523
82	0x3f83a6f1	1.0285321
83	0x3f7cad05	0.98701507
84	0x3f7c8e25	0.98654395
85	0x3f7a3fa1	0.9775334
86	0x3f821283	1.0161899
87	0x3f827b10	1.0193806
88	0x3f86abdc	1.0521197
89	0x3f810f73	1.008284
90	0x3f81110c	1.0083327
91	0x3f7fe9d7	0.99966186
92	0x3f843e9b	1.0331606
93	0x3f81938a	1.012315
94	0x3f838ff5	1.0278307
95	0x3f798bcc	0.9747894
96	0x3f7d4849	0.98938423
97	0x3f880090	1.0625172
98	0x3f827638	1.0192327
99	0x3f84b635	1.0368105
100	0x3f7fe9d0	0.99966145
101	0x3f74dfe8	0.95654154
102	0x3f7f402c	0.99707294
103	0x3f814ba8	1.0101213
104	0x3f809924	1.0046735
105	0x3f7f3e5e	0.9970454
106	0x3f81f24d	1.0152069
107	0x3f7a7909	0.97840935
108	0x3f81e165	1.014691
109	0x3f7e5274	0.99344563
110	0x3f8956cd	1.0729614
111	0x3f77ed45	0.9684642
112	0x3f80e9e9	1.0071384
113	0x3f7f75ce	0.9978913
114	0x3f846d47	1.0345849
115	0x3f7c88d7	0.986463
116	0x3f7b485d	0.9815729
117	0x3f786c31	0.97040087
118	0x3f820d2e	1.0160272
119	0x3f803580	1.0016327
120	0x3f7a710b	0.9782874
121	0x3f7ceb63	0.9879667
122	0x3f813da8	1.0096941
123	0x3f804f81	1.0024263
124	0x3f76ec32	0.96454155
125	0x3f810fac	1.0082908
126	0x3f762709	0.9615331
127	0x3f7b21d3	0.98098487
128	0x3f84f823	1.0388225
129	0x3f8063b1	1.0030423
130	0x3f812de0	1.0092125
131	0x3f778fe2	0.9670392
132	0x3f7d55d3	0.9895908
133	0x3f8316df	1.0241355
134	0x3f82a2eb	1.0205969
135	0x3f8372c9	1.0269405
136	0x3f7d0ec4	0.98850656
137	0x3f8364d1	1.0265142
138	0x3f77e187	0.968285
139	0x3f7a7863	0.97839946
140	0x3f777b5f	0.96672624
141	0x3f81e664	1.0148435
142	0x3f799a94	0.9750149
143	0x3f83dfc2	1.030266
144	0x3f809d4c	1.0048003
145	0x3f79a46a	0.975165
146	0x3f7f329a	0.99686587
147	0x3f81ba6d	1.0135018
148	0x3f81c14f	1.0137118
149	0x3f81924b	1.012277
150	0x3f80372f	1.0016841
151	0x3f7c8ff9	0.98657185
152	0x3f7decf5	0.9918969
153	0x3f7ad195	0.97976047
154	0x3f827f8f	1.0195178
155	0x3f874cc3	1.0570301
156	0x3f822274	1.0166764
157	0x3f7e4bec	0.993346
158	0x3f7be9de	0.9840373
159	0x3f807fc2	1.0038989
160	0x3f7ea22e	0.99466217
161	0x3f81bc73	1.0135635
162	0x3f810a1f	1.0081214
163	0x3f7d5549	0.9895826
164	0x3f806447	1.0030602
165	0x3f7fe206	0.9995426
166	0x3f814176	1.0098102
167	0x3f869467	1.0514039
168	0x3f82fdfb	1.0233759
169	0x3f7fb2e9	0.9988237
170	0x3f7a537a	0.97783625
171	0x3f80ef79	1.0073081
172	0x3f7d242a	0.98883307
173	0x3f7848fc	0.96986365
174	0x3f829f9c	1.0204959
175	0x3f7c3f9f	0.9853458
176	0x3f7e1362	0.99248326
177	0x3f8029a0	1.0012703
178	0x3f726635	0.94687206
179	0x3f7f357a	0.99690974
180	0x3f7d5ca6	0.98969495
181	0x3f8470f7	1.0346974
182	0x3f7fa581	0.99861914
183	0x3f7da1f1	0.9907523
184	0x3f7c7141	0.9861031
185	0x3f80a475	1.0050188
186	0x3f808b0a	1.0042431
187	0x3f802352	1.0010779
188	0x3f7b9c08	0.9828496
189	0x3f7f649f	0.9976291
190	0x3f7d03cc	0.9883392
191	0x3f7600ba	0.9609486
192	0x3f7bcb53	0.98357123
193	0x3f892fb3	1.0717682
194	0x3f7463c2	0.9546472
195	0x3f7ecf0a	0.99534667
196	0x3f81a515	1.0128504
197	0x3f7e24e4	0.9927504
198	0x3f765a0a	0.9623114
199	0x3f7fb763	0.998892

bias f4 [200]
0	0x3c52bec0	0.012862861
1	0xbc884cfb	-0.01663827
2	0xbca3066a	-0.01990052
3	0x3c1c3af5	0.009535541
4	0x3d17eea7	0.03709283
5	0xbcbb221d	-0.022843415
6	0xbca94f29	-0.02066763
7	0x3c2efae6	0.010679936
8	0x3ccc70d7	0.02495615
9	0x3c104d94	0.008807559
10	0x3c6cd927	0.01445607
11	0x3d3b1f32	0.045684047
12	0x3cd67cd7	0.026182575
13	0xbc81a5aa	-0.015826065
14	0xbd1f9109	-0.038956676
15	0x3beeb7be	0.0072850874
16	0x3cb9534f	0.022622732
17	0xbcb61ca5	-0.022230456
18	0x3d457682	0.04820872
19	0xbc381a10	-0.0112366825
20	0x3cb1fda2	0.021727387
21	0x3b23a9df	0.0024973077
22	0xbccfc4bf	-0.02536237
23	0xbc78ea45	-0.015192573
24	0x3c98b5a2	0.018641297
25	0x3ccc0b98	0.024907872
26	0x3cc2285d	0.023700887
27	0xbc367a6a	-0.011137584
28	0xbcb39019	-0.021919297
29	0x3bb4d4b8	0.005518522
30	0xba2220e7	-0.00061847124
31	0x3c8f5bab	0.017499765
32	0xbd26ef1f	-0.040755387
33	0x3ca51f3c	0.020156495
34	0xbcd692cd	-0.026193047
35	0xba91edb8	-0.0011133468
36	0xbc929546	-0.017893445
37	0xbd214134	-0.039368823
38	0x3c7d410b	0.015457402
39	0xbd05a70f	-0.032630023
40	0x3c9c2620	0.019061148
41	0xbce0fe2f	-0.027464954
42	0xbc9dd02b	-0.019264301
43	0x3c6f74be	0.014615236
44	0xbc3a5e14	-0.011374969
45	0x3bc473a8	0.0059952326
46	0xbb8853b6	-0.0041603697
47	0xbd08ffe5	-0.033447165
48	0xbbcb82dc	-0.006210668
49	0x3d19b9f7	0.037530866
50	0xba13ee58	-0.0005643121
51	0xbc8dde04	-0.01731778
52	0xbd0ef648	-0.03490284
53	0xbc2478c1	-0.010038556
54	0xbcfffd47	-0.031248702
55	0xbd9ca69c	-0.07648966
56	0x3cc2ff52	0.023803387
57	0xbd327041	-0.043564085
58	0x3c930255	0.017945448
59	0x3ccc4421	0.02493483
60	0x3c7e7f2a	0.015533248
61	0x3ba140b1	0.004921042
62	0xbbf5930c	-0.007494336
63	0xbc8ce72a	-0.017200071
64	0x3c57b914	0.013166685
65	0xbc03d18f	-0.008045568
66	0x3ab1649b	0.0013534011
67	0x3d0db89b	0.03459988
68	0x3af6e995	0.0018837923
69	0x3c20b432	0.009808587
70	0xbcb25fab	-0.021774134
71	0xb976fb55	-0.00023554017
72	0x3d3d2415	0.04617699
73	0xbd2a60e4	-0.04159631
74	0x3ca75daa	0.020430405
75	0xba3cf6f1	-0.0007208428
76	0xbd12360d	-0.035696078
77	0x3cb7fdc5	0.022459874
78	0xbccc8102	-0.02496386
79	0x3ba05028	0.004892368
80	0xbc14d9c2	-0.009085121
81	0x3c91bed7	0.017791195
82	0x3cd86bc2	0.02641857
83	0xbd2241b0	-0.039613426
84	0x3ae1fb3e	0.0017241014
85	0x3ca65a96	0.020306867
86	0x3d103441	0.035206083
87	0xbd149660	-0.03627622
88	0xbcf28b19	-0.029607343
89	0x3ba05b9c	0.004893733
90	0xbd43058e	-0.04761272
91	0xbb88ea8e	-0.0041783517
92	0xbc771987	-0.01508177
93	0x3cfe7b6e	0.031064715
94	0xbd0cf510	-0.034413397
95	0x3c14498f	0.009050741
96	0xbcf3d1fb	-0.029763212
97	0xbcbd27c0	-0.023090243
98	0x3ce5eb5b	0.028066328
99	0xbd0249ec	-0.03180878
100	0xbc0c09c2	-0.008547248
101	0xbc67d13f	-0.014149009
102	0x3c9e8af4	0.019353367
103	0xbc906c44	-0.01762975
104	0x3c18468c	0.009294163
105	0xbd01cf47	-0.031691816
106	0xbd5da482	-0.054111965
107	0x3c2c34d4	0.010510642
108	0x3be91934	0.0071136
109	0xbc84016a	-0.016113956
110	0xbd4fd346	-0.050738595
111	0xbcb34cc1	-0.021887185
112	0xbcdd3b2a	-0.02700575
113	0xbd0f9f60	-0.0350641
114	0xbce267e4	-0.02763743
115	0xbbfda3ce	-0.0077404743
116	0x3d84edd7	0.06490677
117	0x3c5346fd	0.012895343
118	0x3c968c38	0.018377408
119	0xbd1cf866	-0.03832283
120	0xbd24b430	-0.040210903
121	0xbd1aa193	-0.037751745
122	0xbd3ad130	-0.045609653
123	0xbc32f982	-0.010923745
124	0x3d5428c0	0.051796675
125	0xbb3e87fa	-0.0029072748
126	0x3c123c43	0.0089255
127	0xbc8e6b9a	-0.017385293
128	0x3bbf3d2e	0.0058361506
129	0x3c3f0e31	0.011661098
130	0xbbd410d7	-0.006471734
131	0x3d1e4c45	0.038646955
132	0xbd452db2	-0.04813928
133	0xbccf3d15	-0.02529768
134	0x3c8c2819	0.017108964
135	0x3aaa5d09	0.0012997697
136	0x3d3537f2	0.044242807
137	0xbd1f6fae	-0.038924865
138	0xbc04ebd2	-0.008112865
139	0xbca19249	-0.019723075
140	0xbafb4076	-0.0019168991
141	0x3cf8550a	0.030313987
142	0x3d0e2d0b	0.034710925
143	0xbbf14d8d	-0.007363981
144	0x3cc03c00	0.02346611
145	0xbceeb478	-0.029138789
146	0x3cc9088f	0.024540214
147	0xbc2a51c5	-0.010395472
148	0x3d3530b3	0.044235896
149	0xbca25b5d	-0.019818956
150	0xbc742ed2	-0.014903741
151	0x3cc6e321	0.024278225
152	0x3c7d1f63	0.015449378
153	0x3c9706cb	0.018435856
154	0xbd582f2a	-0.052779354
155	0xbcf6bfa4	-0.030120678
156	0xbbcd5182	-0.00626582
157	0x3d34ef62	0.044173606
158	0xbc3326a5	-0.010934507
159	0xbd430d94	-0.04762037
160	0x3c441dee	0.011970026
161	0x3cbff73f	0.023433326
162	0xbc90b200	-0.017663002
163	0x3c5f9d51	0.013648347
164	0x3b22c6df	0.0024837775
165	0x3bfca588	0.0077101626
166	0xbb8316ef	-0.0040005366
167	0xbb27757e	-0.0025552209
168	0xbba68261	-0.0050814603
169	0x3d4319fb	0.0476322
170	0xbc3c2892	-0.011484282
171	0xbc85a3aa	-0.016313393
172	0x3b4eabb9	0.003153546
173	0xbcdfa56a	-0.027300555
174	0xbbd340db	-0.0064469404
175	0xbc2f8a35	-0.0107141035
176	0x3d20ac2b	0.039226692
177	0x3c38aa5d	0.0112710865
178	0xbc97e5be	-0.018542167
179	0x3d060ac5	0.032725114
180	0xbce264ba	-0.02763592
181	0x3cb59ca4	0.022169419
182	0x3ce8a5a4	0.028399296
183	0x3ca8711d	0.02056175
184	0x3c863e7d	0.016387219
185	0xbd051fdd	-0.03250109
186	0xbd0f0232	-0.034914203
187	0x3cd6efb1	0.02623734
188	0xbbce3391	-0.0062927683
189	0x3d15e722	0.03659738
190	0x3c4d8985	0.012544994
191	0x39b67c73	0.00034806467
192	0x3d1c28ad	0.03812473
193	0xbd0f8a65	-0.035044093
194	0xbc288af1	-0.010287032
195	0x39783c55	0.00023673598
196	0xbc5b19cc	-0.01337285
197	0x3d48ea1a	0.04905138
198	0xbd31757f	-0.043324944
199	0xbc0f1f40	-0.008735478

running_mean f4 [200]
0	0x3da953a0	0.08267903
1	0x3dcb61cb	0.09930762
2	0x3d43b318	0.04777822
3	0x3dc034fc	0.09385106
4	0x3d99e262	0.07513882
5	0x3d727a68	0.059198767
6	0x3db4541c	0.08805105
7	0x3d3ae0bf	0.04562449
8	0x3d53415e	0.05157601
9	0x3d85ee3a	0.06539579
10	0x3d919611	0.07108701
11	0x3d4c9742	0.04994894
12	0x3d73e850	0.059547722
13	0x3d1eaaeb	0.03873722
14	0x3d92a03a	0.07159467
15	0x3d897fa2	0.06713797
16	0x3d83bcd4	0.064325005
17	0x3d567727	0.052359726
18	0x3d9d9b94	0.0769569
19	0x3dad4f29	0.08462364
20	0x3daf9ff8	0.085754335
21	0x3d8bd479	0.06827635
22	0x3da78a2d	0.08180652
23	0x3d840955	0.064470924
24	0x3d23d28d	0.03999572
25	0x3d9bb82f	0.076034896
26	0x3dcbe673	0.09956064
27	0x3d8b6c5d	0.06807778
28	0x3d4402ad	0.047854114
29	0x3d8f19a1	0.0698731
30	0x3d67ac6f	0.05656093
31	0x3db18b1d	0.08669112
32	0x3daacc4c	0.08339748
33	0x3dad2efc	0.08456227
34	0x3d8f50ee	0.06997858
35	0x3dd21e4b	0.10259684
36	0x3da65629	0.081219025
37	0x3de4fc1a	0.11180897
38	0x3da2f157	0.07956188
39	0x3d9fb6e2	0.07798554
40	0x3d8a6e85	0.06759361
41	0x3d7884f6	0.060673676
42	0x3d8a5b1a	0.067556575
43	0x3d6a4283	0.057192337
44	0x3d8c11f6	0.06839363
45	0x3d89bb10	0.067251325
46	0x3d87ad1d	0.066248156
47	0x3d1811b0	0.037126243
48	0x3d3236ee	0.043509416
49	0x3d7a26c7	0.061072137
50	0x3db3d75e	0.087813124
51	0x3da0251d	0.07819579
52	0x3dcb6024	0.09930447
53	0x3d5b0e4e	0.05348044
54	0x3d846464	0.064644605
55	0x3d8a919d	0.06766055
56	0x3da51b3e	0.08061837
57	0x3d6b332f	0.05742186
58	0x3d820d9e	0.063502535
59	0x3d8777e4	0.06614664
60	0x3d5bfcc4	0.053707853
61	0x3d9c3847	0.076279216
62	0x3d790b86	0.060802005
63	0x3d989cc6	0.07451777
64	0x3da8c6c3	0.08241036
65	0x3d492c2c	0.04911439
66	0x3d8af34e	0.06784688
67	0x3dae9bc9	0.085258074
68	0x3dc3599e	0.095385775
69	0x3dc121bb	0.09430262
70	0x3d8503dd	0.064948775
71	0x3d807531	0.062723525
72	0x3d8bd980	0.06828594
73	0x3d65949f	0.05604994
74	0x3da5fb20	0.08104539
75	0x3d9aa884	0.07551673
76	0x3d838720	0.064222574
77	0x3d71daf4	0.0590467
78	0x3d7e17ba	0.062034346
79	0x3d7b2b78	0.061320752
80	0x3d789061	0.060684565
81	0x3dbb5fa9	0.09149105
82	0x3d7e65ad	0.062108684
83	0x3d754a47	0.05988529
84	0x3dbe089f	0.09278988
85	0x3d8f85e4	0.070079595
86	0x3d9df9f8	0.077136934
87	0x3d986e8d	0.07442961
88	0x3d5ab79f	0.05339777
89	0x3d0954ea	0.033528246
90	0x3d7fd2b3	0.062456798
91	0x3d973bbf	0.073844425
92	0x3d8dc04f	0.069214456
93	0x3d8ea1e7	0.06964474
94	0x3d946870	0.07246482
95	0x3d7c75e9	0.061635885
96	0x3d5ce48f	0.053928908
97	0x3d2f4a53	0.04279549
98	0x3d5b07b0	0.05347413
99	0x3d6e4b7a	0.05817745
100	0x3d4eb52e	0.050465755
101	0x3d8fa31c	0.070135325
102	0x3d88486f	0.066544406
103	0x3db0b0be	0.08627461
104	0x3d836fd5	0.06417815
105	0x3da1a6b6	0.07893126
106	0x3d9b3632	0.07578696
107	0x3d05cd27	0.03266635
108	0x3dbb81e9	0.09155638
109	0x3d9c9491	0.07645524
110	0x3db75cfb	0.089532815
111	0x3d29790a	0.041375197
112	0x3d919a71	0.071095355
113	0x3d55df5d	0.05221497
114	0x3dcd786b	0.100327335
115	0x3d2a6fc5	0.041610498
116	0x3d48acdc	0.048992977
117	0x3d28f186	0.04124596
118	0x3d98161b	0.07426091
119	0x3d6c5afe	0.057703964
120	0x3daab0f5	0.08334533
121	0x3d7127c6	0.05887582
122	0x3d8ffc5b	0.07030555
123	0x3db0dd31	0.08635939
124	0x3d9f53f0	0.07779682
125	0x3d822dba	0.06356378
126	0x3da48d66	0.08034782
127	0x3d4f66a8	0.05063501
128	0x3d88f03e	0.066864476
129	0x3da80e88	0.082058966
130	0x3d5194f3	0.05116744
131	0x3da9ef25	0.08297566
132	0x3d9fe772	0.078078166
133	0x3d94c865	0.07264785
134	0x3d201cfa	0.039090134
135	0x3d6b87ac	0.057502434
136	0x3d29d4fe	0.04146289
137	0x3d6b6d03	0.05747701
138	0x3dabd79a	0.08390732
139	0x3d3e7656	0.046499573
140	0x3d607524	0.054799214
141	0x3d8674fe	0.06565283
142	0x3dacfb80	0.08446407
143	0x3d92a268	0.07159883
144	0x3d9e0f60	0.07717776
145	0x3d81ada1	0.06331945
146	0x3da8f2dc	0.08249447
147	0x3d9598ab	0.0730451
148	0x3daeed04	0.08541301
149	0x3d5d9a20	0.054102063
150	0x3db8ffad	0.09033141
151	0x3d14cef0	0.036330163
152	0x3d79ce33	0.060987663
153	0x3d9118d3	0.07084813
154	0x3d6b95ae	0.057515793
155	0x3d8a371c	0.067487925
156	0x3d9ec5e1	0.07752586
157	0x3d465c72	0.048428006
158	0x3db5fdd0	0.088863015
159	0x3d57c58c	0.05267863
160	0x3d7a0d96	0.061048113
161	0x3d616871	0.055031244
162	0x3de1c46d	0.11023793
163	0x3d4b581e	0.049644582
164	0x3d8dc552	0.069224015
165	0x3d8251fc	0.063632935
166	0x3d8be316	0.068304226
167	0x3db7d5e7	0.089763455
168	0x3d4b89ab	0.049691837
169	0x3d7564d7	0.05991062
170	0x3d8a41b4	0.06750813
171	0x3d86c697	0.06580847
172	0x3db71fe6	0.08941631
173	0x3d4a2f72	0.049361654
174	0x3d22a531	0.03970832
175	0x3da9084a	0.08253534
176	0x3d898b07	0.067159705
177	0x3dd72502	0.105051056
178	0x3d7f6086	0.06234791
179	0x3d689261	0.056780223
180	0x3da8df6c	0.08245739
181	0x3d792768	0.060828596
182	0x3d86bd44	0.06579068
183	0x3d7e239a	0.06204567
184	0x3d86a8ac	0.0657514
185	0x3d47bf58	0.048766464
186	0x3d36761d	0.044546235
187	0x3db5eb2b	0.08882745
188	0x3d70471d	0.05866157
189	0x3d9d16a1	0.07670332
190	0x3d983263	0.074314855
191	0x3d5943db	0.053043228
192	0x3d942917	0.072344
193	0x3da988e6	0.082780644
194	0x3db55643	0.08854344
195	0x3d97aac1	0.074056156
196	0x3d9e6b7c	0.07735345
197	0x3d314c8c	0.04328589
198	0x3d3f6601	0.046728138
199	0x3db055d5	0.08610121

running_var f4 [200]
0	0x3c3169e7	0.010828472
1	0x3c9e44e4	0.019319959
2	0x3b87ad86	0.0041405587
3	0x3c7216af	0.014775916
4	0x3c4ebeb8	0.012618713
5	0x3bb1620e	0.0054133004
6	0x3c930600	0.017947197
7	0x3b979e81	0.0046270494
8	0x3be472fa	0.006971714
9	0x3bcd9744	0.006274136
10	0x3cacb900	0.021084309
11	0x3cb3844e	0.021913674
12	0x3c186580	0.009301543
13	0x3c565c1f	0.013083487
14	0x3c3677f9	0.011137002
15	0x3c30974a	0.010778258
16	0x3c21fa62	0.009886356
17	0x3bbebbc8	0.005820725
18	0x3ca88c9f	0.020574866
19	0x3c8c6e0c	0.017142318
20	0x3ca09e73	0.019606804
21	0x3bf8a86a	0.007588436
22	0x3d13b691	0.03606278
23	0x3c944a31	0.018101783
24	0x3b368c2a	0.002785454
25	0x3c425998	0.011862181
26	0x3c7a907c	0.015293237
27	0x3c53b4f5	0.0129215615
28	0x3c17d19c	0.009266283
29	0x3c32c9e3	0.010912391
30	0x3ba828e6	0.0051318286
31	0x3ccece1f	0.02524477
32	0x3ca5abbf	0.020223496
33	0x3c80d52f	0.015726654
34	0x3c014af7	0.007891408
35	0x3c2f82e5	0.01071236
36	0x3ca390a0	0.019966424
37	0x3d01a2ec	0.031649515
38	0x3c7a61ca	0.015282104
39	0x3cbbdab6	0.022931438
40	0x3cc39c5b	0.023878267
41	0x3d05e3c0	0.032687902
42	0x3c6bb672	0.01438676
43	0x3c0e53c5	0.008686964
44	0x3c267dd6	0.010161838
45	0x3c0c853e	0.008576689
46	0x3c21bf8b	0.009872328
47	0x3bfa28b0	0.007634245
48	0x3b22eef8	0.0024861675
49	0x3bff01d5	0.007782201
50	0x3cd65198	0.026161954
51	0x3cc3c0a3	0.023895567
52	0x3c9f9e40	0.01948464
53	0x3ba25f2d	0.0049551935
54	0x3c375adc	0.011191096
55	0x3d25127f	0.040300842
56	0x3c97e8a9	0.018543558
57	0x3ca0fe31	0.019652458
58	0x3c4a9f79	0.012367123
59	0x3c41dac7	0.011831946
60	0x3c1deb4f	0.0096386215
61	0x3c4d1f51	0.012519673
62	0x3c368423	0.011139902
63	0x3cac2087	0.021011604
64	0x3c397293	0.0113188205
65	0x3c979722	0.018504683
66	0x3c0187b0	0.007905886
67	0x3c637005	0.013881688
68	0x3cad591f	0.02116066
69	0x3c702f65	0.014659737
70	0x3c9dc370	0.01925823
71	0x3bc93567	0.0061403993
72	0x3c549e88	0.01297725
73	0x3cb9c923	0.022678917
74	0x3c6ebcb3	0.014571357
75	0x3c362bcf	0.011118843
76	0x3c83c99f	0.016087351
77	0x3c23754c	0.009976696
78	0x3c71cff0	0.014759049
79	0x3cba9d1f	0.02278
80	0x3c175a67	0.009237862
81	0x3cac1efc	0.021010868
82	0x3c176df6	0.009242525
83	0x3c6db544	0.014508549
84	0x3c801b3b	0.015637984
85	0x3c3ddb39	0.011587911
86	0x3be79187	0.0070669088
87	0x3cd070a6	0.02544434
88	0x3cbc48b4	0.022983886
89	0x3bfb534a	0.007669841
90	0x3c831586	0.016001474
91	0x3c11d1de	0.008900134
92	0x3cbce207	0.023056997
93	0x3c05ca48	0.008165903
94	0x3cd6ab0a	0.026204605
95	0x3c56799e	0.013090519
96	0x3c06080b	0.0081806285
97	0x3caac4c5	0.02084578
98	0x3c711110	0.014713541
99	0x3bf0b21e	0.007345452
100	0x3bd4eda7	0.006498057
101	0x3c89e33d	0.016831988
102	0x3c1fad3f	0.009745895
103	0x3ce72577	0.028216107
104	0x3ce99180	0.028511763
105	0x3cb4868d	0.022036815
106	0x3c1903e0	0.009339303
107	0x3adb7459	0.0016743048
108	0x3cecd3b2	0.028909538
109	0x3c5278c0	0.012846172
110	0x3cb596ef	0.022166697
111	0x3b7bd5bf	0.0038426963
112	0x3c64879d	0.013948348
113	0x3c96b12c	0.018395029
114	0x3d142723	0.036170136
115	0x3b9f04c8	0.004852865
116	0x3b868b6e	0.004105977
117	0x3bba8dd8	0.0056931786
118	0x3bf58f18	0.0074938647
119	0x3cae7795	0.021297256
120	0x3c60704f	0.013698651
121	0x3c459dd3	0.012061554
122	0x3c83060c	0.015994094
123	0x3c6ee8b1	0.014581845
124	0x3c12d9fb	0.008963103
125	0x3bf305f8	0.007416483
126	0x3cc8f360	0.024530113
127	0x3c5fccbb	0.013659651
128	0x3c648c0f	0.013949408
129	0x3c8ea475	0.017412404
130	0x3c8ba131	0.017044635
131	0x3c79c77b	0.015245314
132	0x3cfaea5c	0.03062933
133	0x3cc4b6bc	0.024012916
134	0x3b334881	0.0027356448
135	0x3ccf3430	0.02529344
136	0x3bd8c9dc	0.0066158604
137	0x3c0bf07d	0.008541224
138	0x3c5bd01b	0.013416315
139	0x3b9a3b91	0.004706808
140	0x3c0b69e7	0.008509136
141	0x3ca281fb	0.01983737
142	0x3c901955	0.017590204
143	0x3ccf9628	0.025340155
144	0x3c8696e4	0.016429372
145	0x3c549b47	0.012976474
146	0x3d05bd15	0.032651026
147	0x3c4fbd07	0.012679345
148	0x3cc3ebb0	0.023916095
149	0x3be67ac9	0.00703368
150	0x3cc2bd6c	0.023771964
151	0x3b038b01	0.0020071866
152	0x3cafb831	0.021450134
153	0x3c5f7982	0.01363981
154	0x3b9850b7	0.004648294
155	0x3c78b100	0.015178919
156	0x3d00bd56	0.031430565
157	0x3beb2652	0.007176199
158	0x3c9b0920	0.01892525
159	0x3b9128a5	0.004429894
160	0x3cc5f059	0.024162458
161	0x3cb1783f	0.021663783
162	0x3c79f7d7	0.0152568435
163	0x3c05277b	0.008127089
164	0x3c221a91	0.009894029
165	0x3bf26b2f	0.007398031
166	0x3c4d5ccb	0.012534331
167	0x3d002cbe	0.03129267
168	0x3c252093	0.010078567
169	0x3ba3aa6c	0.004994681
170	0x3c64fec4	0.0139767565
171	0x3bc6a400	0.006062031
172	0x3c407107	0.011745698
173	0x3c5577f5	0.013029088
174	0x3c154d41	0.009112657
175	0x3c796c15	0.015223523
176	0x3cb3ed16	0.021963637
177	0x3cd220f5	0.02565048
178	0x3c338870	0.010957822
179	0x3c14e85a	0.0090886
180	0x3cc1b9c4	0.02364815
181	0x3bc637b9	0.006049123
182	0x3c333bdf	0.010939567
183	0x3c1032ea	0.008801201
184	0x3c85b6df	0.016322551
185	0x3c7c43bc	0.0153970085
186	0x3b10cd95	0.0022095193
187	0x3c3ea7fb	0.011636729
188	0x3c4835a2	0.012219818
189	0x3c5fa728	0.013650693
190	0x3c62288f	0.013803615
191	0x3c0ef31d	0.008724955
192	0x3c93a620	0.01802355
193	0x3d16f5b4	0.036855415
194	0x3c4fa00b	0.012672435
195	0x3c3a9367	0.0113876825
196	0x3ce54790	0.027988225
197	0x3b49fc1f	0.0030820442
198	0x3bc4f3c8	0.0060105063
199	0x3cd65b1b	0.02616649
