models/trained_model.pth (torch, 149503 bytes, 23 tensors)

weight f4 [10, 6]
0	0x3c17d963	0.009268138
1	0x3c172f04	0.009227518
2	0xbb8d00f4	-0.004303092
3	0xbc0fbf91	-0.0087737
4	0xbb9f061f	-0.0048530246
5	0x3be0f067	0.0068645957
6	0x3caf7e55	0.021422544
7	0xbca63cc6	-0.02029265
8	0x3b6a9550	0.0035794564
9	0x3d8fe7b0	0.07026613
10	0xbc84daa3	-0.016217535
11	0x3c5808ab	0.01318566
12	0xbd987eef	-0.07446086
13	0x3d918627	0.07105666
14	0x3c41a3e4	0.01181886
15	0x3c46fc59	0.012145125
16	0xbd4d3e9f	-0.05010855
17	0xbd92379f	-0.07139515
18	0xba427389	-0.0007417729
19	0xbd011ba0	-0.031520486
20	0xbd82c4c2	-0.06385185
21	0xbc5a89ce	-0.013338519
22	0x3b00647b	0.001959114
23	0x3b9e9045	0.0048389756
24	0xbcdf1198	-0.027230069
25	0x3c96268c	0.018328927
26	0x3c126e21	0.00893739
27	0x3d003d32	0.03130836
28	0xbc1e353f	-0.00965625
29	0xbacec44c	-0.0015775054
30	0x3d05e98c	0.03269343
31	0x3cece8df	0.028919635
32	0x3cb5a78e	0.022174623
33	0x3d49b0d4	0.049240902
34	0xbcd227ea	-0.025653798
35	0xbb5b926f	-0.003350403
36	0xbd4bb72b	-0.04973523
37	0x3d576f09	0.052596126
38	0x3cd5544d	0.026041174
39	0xbd87fa15	-0.06639496
40	0x3d2e6aac	0.0425822
41	0xbd88ae5d	-0.06673882
42	0x3d085a91	0.033289496
43	0xbd9917b1	-0.07475222
44	0xbd67a045	-0.05654933
45	0xbd1692dd	-0.036761153
46	0x3d241676	0.040060483
47	0x3d09ad58	0.03361258
48	0x3cb153e2	0.021646444
49	0xbd21e7a9	-0.03952757
50	0xbd319222	-0.043352254
51	0x3ce873c5	0.028375516
52	0x3d042579	0.0322623
53	0x3d32b6ce	0.043631367
54	0x3c912351	0.017717035
55	0xbd037a5a	-0.032099105
56	0xbca47a87	-0.020077957
57	0xbc1d986f	-0.0096188625
58	0x3d55b0af	0.05217045
59	0x3d03b667	0.032156374

weight f4 [17, 8]
0	0x3b4fec3b	0.0031726498
1	0x3c6b0e2f	0.014346643
2	0x3c20a527	0.009805
3	0x39e5df70	0.00043844758
4	0xbc2e8ddb	-0.010653938
5	0xbb8d1313	-0.0043052523
6	0x3a72e348	0.0009265435
7	0x3c177783	0.009244802
8	0xbd428ef0	-0.047499597
9	0xbd6c3f4e	-0.05767756
10	0xbcb50e81	-0.022101643
11	0xbd723aea	-0.059138216
12	0xbc869113	-0.016426599
13	0xbc880d3a	-0.01660787
14	0x3d25d558	0.040486664
15	0x3d82476a	0.063612774
16	0xbba2388f	-0.00495059
17	0x3b9a3e26	0.0047071157
18	0x3cf0f973	0.029415822
19	0x3b9e07d4	0.0048227105
20	0xbbb3e66d	-0.0054901154
21	0xbc01707b	-0.007900353
22	0x3c0590bc	0.008152183
23	0x3bade88c	0.0053072628
24	0x3c3ad222	0.011402639
25	0xbcdcf81e	-0.02697378
26	0xbc9e86c7	-0.019351376
27	0xbb07f3ed	-0.0020744756
28	0xbc9e83dd	-0.019349987
29	0xbc774c67	-0.015093899
30	0x3c25a509	0.010110148
31	0x3c4ccda3	0.0125001995
32	0x3b573070	0.0032835267
33	0x3bd4029f	0.006470039
34	0xbc002b88	-0.007822879
35	0xbbf83da0	-0.0075757056
36	0xbd3fa6be	-0.046789877
37	0xbb6b307d	-0.0035887056
38	0x3d23957d	0.039937485
39	0x3ae55026	0.00174952
40	0x3ca628b4	0.02028308
41	0x3cbb1531	0.022837253
42	0x3bb0ac18	0.005391609
43	0x3d13b7ee	0.03606408
44	0xbd2ee57e	-0.04269933
45	0x3c932f73	0.017966961
46	0x3d08c549	0.03339127
47	0xbc023194	-0.007946391
48	0x3d2485e5	0.040166754
49	0x3d008b13	0.03138263
50	0xbba47b23	-0.005019562
51	0x3d2542f2	0.040347047
52	0xbc7ec8c5	-0.015550797
53	0x3cba9df3	0.022780394
54	0x3c464b17	0.012102864
55	0xbd41c936	-0.04731103
56	0xbc2e6383	-0.010643843
57	0x3ce567ae	0.02800354
58	0x3c2b5deb	0.0104594035
59	0x3b2e496c	0.0026594056
60	0x3cc07415	0.023492852
61	0x3c22e177	0.00994145
62	0x3ca95e36	0.020674806
63	0x3cb2d468	0.021829799
64	0x3d7e87ee	0.06214135
65	0x3d0254cf	0.03181916
66	0xbcd16743	-0.025561934
67	0x3d8fce82	0.0702181
68	0x3d99911f	0.07498383
69	0x3beeaa85	0.007283511
70	0xbd45f27a	-0.048326947
71	0xbd920041	-0.07128955
72	0x3d073681	0.033010963
73	0x3ca07641	0.019587638
74	0xbcbc459a	-0.022982407
75	0x3cbf7856	0.02337281
76	0x3c9a8711	0.018863233
77	0x3c77a2a3	0.015114459
78	0xbbc988f2	-0.0061503584
79	0xbd04de37	-0.032438483
80	0x3c5aedbd	0.013362345
81	0xbb8003fd	-0.0039067254
82	0xbc6609a6	-0.014040386
83	0xba46a07a	-0.00075770135
84	0x3ab879e5	0.0014074413
85	0xbc6ec95c	-0.014574375
86	0x3ba87262	0.0051405886
87	0xbb7aef3a	-0.0038289563
88	0x3cb8eed8	0.022574827
89	0xbd099dfb	-0.033597928
90	0x3bc3dfee	0.0059776222
91	0xbc91f128	-0.017815188
92	0x3bfe395e	0.0077583035
93	0x3ca3c85c	0.019993
94	0xbce17712	-0.027522597
95	0x3c9e316e	0.01931068
96	0xbab7beb5	-0.0014018627
97	0x3c37eff4	0.011226643
98	0x3c609a3e	0.013708649
99	0xbba73fba	-0.0051040323
100	0x3c6969a8	0.014246382
101	0x3d129f52	0.03579647
102	0xbb9564bd	-0.004559128
103	0xbbcc1a44	-0.006228717
104	0xbc9689a9	-0.018376188
105	0xb9a3b495	-0.00031224327
106	0x3c295034	0.010334063
107	0xbb072768	-0.0020622853
108	0xbc185bd8	-0.009299241
109	0xbb2ec7b7	-0.0026669332
110	0x3bde0e9c	0.006776644
111	0xbc5c2584	-0.013436679
112	0xbb78b0a5	-0.0037947085
113	0x3caab8be	0.020840045
114	0x3ceb8df7	0.028754218
115	0x3bfd7339	0.007734683
116	0x3c4ce948	0.01250679
117	0x3bf60c4d	0.0075087906
118	0xbbe3cceb	-0.0069519184
119	0xbd12b948	-0.03582123
120	0xbd4df0f0	-0.050278604
121	0xbc5208e4	-0.0128195025
122	0x3d69eb6c	0.05710928
123	0xbc9bc645	-0.01901544
124	0xbd614d17	-0.05500516
125	0xbce8f0ee	-0.028435197
126	0x3d975d3c	0.0739083
127	0x3d8bb2b1	0.06821192
128	0x3bc79c23	0.006091611
129	0xbd5ab2f0	-0.053393304
130	0xbc9abec6	-0.018889796
131	0xbd1d3c92	-0.038387842
132	0xbc83ced3	-0.016089832
133	0xbc826659	-0.015917944
134	0xbc5ceeb0	-0.013484642
135	0xbc36f43c	-0.011166628

weight f4 [8, 5]
0	0xbb40dfec	-0.0029430343
1	0xbaf86ee4	-0.0018953946
2	0xbbab8bc7	-0.0052351686
3	0x3c492ef9	0.012279266
4	0x3a1d7a06	0.00060072576
5	0xbd3fc70f	-0.046820696
6	0xbc8f9748	-0.017528191
7	0x3d885320	0.0665648
8	0x3da81b5c	0.082083434
9	0x3cba1844	0.022716649
10	0x3d915757	0.07096737
11	0xbc897945	-0.016781459
12	0xbd248edd	-0.040175308
13	0xbd70bd83	-0.058774482
14	0xbd9ac99a	-0.07557984
15	0x3d6277c5	0.055290002
16	0x3c495a1e	0.012289552
17	0xbd996ccf	-0.07491457
18	0xbd937f4b	-0.072020136
19	0xbd54aeee	-0.05192464
20	0xbd22dce5	-0.039761443
21	0x3c219830	0.0098629445
22	0x3d422c4e	0.047405533
23	0x3d6a3adb	0.057185035
24	0x3d58ba24	0.052911893
25	0xbd76247c	-0.060093388
26	0x3d424423	0.04742826
27	0x3d6b1d09	0.057400737
28	0x3d683347	0.056689527
29	0x3d55b1e3	0.0521716
30	0xbd6692da	-0.056292392
31	0xbd2a14e9	-0.041523848
32	0x3d3b6397	0.045749273
33	0x3c8fbeea	0.01754709
34	0x3d26e9b8	0.040750235
35	0x3c63e570	0.013909683
36	0x3c2fbef2	0.010726677
37	0x3bc53ac9	0.0060189706
38	0x3d0722dd	0.032992233
39	0x3cbb6ec7	0.022879971

weight f4 [16, 8]
0	0xbb49ece1	-0.0030811357
1	0x3ab67ea7	0.0013923243
2	0x3be37b8a	0.0069422172
3	0xbb76d4f6	-0.0037663556
4	0x3bb829c6	0.005620214
5	0xbbcb3ff4	-0.006202692
6	0x3a33a02f	0.00068521773
7	0xbbae2182	-0.005314053
8	0x3d37dc87	0.044888046
9	0x3d0e1bc5	0.03469445
10	0xbd07a9ff	-0.033121105
11	0x3cf10d2a	0.029425222
12	0x3c8447a7	0.016147448
13	0xbc3ff582	-0.0117162485
14	0xbce86c94	-0.028372087
15	0xbc0d7200	-0.008633137
16	0x3cd5e3e6	0.026109647
17	0x3b80c437	0.0039296406
18	0x3bc0f007	0.0058879885
19	0x3b5904ff	0.003311455
20	0xbd5b7b92	-0.053584643
21	0xbc5fe6b0	-0.01366584
22	0xbc922ebd	-0.017844552
23	0xbc0f5788	-0.008748896
24	0x3c33e885	0.01098073
25	0x3cc782eb	0.024354419
26	0x3a2ea322	0.0006661882
27	0x3c326533	0.010888386
28	0x3cbf4a29	0.023350792
29	0xbabbb7a9	-0.0014321703
30	0xbaea61b4	-0.0017881901
31	0xbc9b28b8	-0.018940315
32	0xbc6d2104	-0.014473204
33	0x3d1a5c4e	0.037685685
34	0xbbf2a08c	-0.0074043926
35	0x3a563214	0.00081709144
36	0xbc451cb9	-0.012030774
37	0xbc4b6e6a	-0.0124164615
38	0xbca4bbe3	-0.020109123
39	0xbcc93569	-0.0245616
40	0xbd3b2991	-0.045693938
41	0xbd3be384	-0.045871273
42	0x3d658bf9	0.05604169
43	0xbd42e98b	-0.047586005
44	0x3ce15de6	0.027510595
45	0x3d3f5cb9	0.046719287
46	0x3d45552e	0.048176937
47	0xbba52a44	-0.005040439
48	0x3d8f3e92	0.06994356
49	0x3d3fbd27	0.04681125
50	0xbd9c33ca	-0.076270655
51	0x3d8a3597	0.06748503
52	0xbc80845c	-0.015688114
53	0xbd9d2d19	-0.07674617
54	0xbcb094f0	-0.021555394
55	0xbd566f14	-0.052352026
56	0x3d722159	0.059113834
57	0x3d500be7	0.0507926
58	0xbd8dac04	-0.06917575
59	0x3d21abca	0.03947047
60	0x3d253626	0.040334843
61	0xbd8f0070	-0.06982505
62	0xbd744ec3	-0.059645426
63	0xbbe1d419	-0.006891739
64	0x3d233173	0.03984208
65	0x3d08922e	0.033342533
66	0xbd302b4d	-0.043010045
67	0x3d42cfca	0.047561444
68	0xbcf34848	-0.029697552
69	0xbd38809d	-0.04504453
70	0xb9afa368	-0.00033500348
71	0xbc9c0f98	-0.019050404
72	0x3d86633a	0.06561895
73	0x3d80e9f5	0.06294624
74	0xbdd8057e	-0.105479226
75	0x3d886f98	0.0666191
76	0x3d1da1da	0.03848443
77	0xbd6b95f3	-0.05751605
78	0xbd15240a	-0.036411323
79	0x3cf78e05	0.030219087
80	0x3cf7425b	0.030183008
81	0x3d8c5e00	0.068538666
82	0xbd6dd872	-0.058067746
83	0x3d443e9d	0.047911275
84	0x3c7c7ca3	0.015410575
85	0xbca5ef89	-0.02025582
86	0xbd0ad663	-0.03389586
87	0xbc782d95	-0.015147586
88	0xbd4cc2b6	-0.04999038
89	0xbd256cdd	-0.040387023
90	0x3c8ccae0	0.017186582
91	0xbd3506a5	-0.04419579
92	0xbbd907dd	-0.006623252
93	0x3d2918fd	0.041283596
94	0xbc9f5e42	-0.019454125
95	0x3d85ddf0	0.06536472
96	0xbd4cca80	-0.049997807
97	0xbd4e25b2	-0.050328918
98	0x3d0f0cb5	0.034924228
99	0xbce853ac	-0.02836021
100	0x3cb6a08a	0.022293348
101	0x3d0fc02e	0.035095386
102	0x3d17d7f5	0.037071187
103	0xbcb505ba	-0.022097457
104	0xbc738058	-0.0148621425
105	0xbc6e7a2b	-0.014555494
106	0x3c50011d	0.012695578
107	0xbc12de81	-0.008964182
108	0x3c477c6a	0.012175659
109	0x3c2c1bc7	0.0105046695
110	0x3d1367a0	0.035987496
111	0xbc14e040	-0.0090866685
112	0xbcb67669	-0.02227326
113	0xbd1e85c4	-0.038701788
114	0x3d2d2657	0.04227289
115	0xbd469f1c	-0.048491582
116	0x3bd1b8a9	0.006400187
117	0x3d40da23	0.04708303
118	0x3cb4d12b	0.022072395
119	0x3d48eb03	0.04905225
120	0x3c17e3fa	0.009270662
121	0x3d0d5e21	0.034513596
122	0xbd0b2cd1	-0.033978287
123	0x3c2ee3e5	0.0106744515
124	0xbcbda415	-0.02314953
125	0xbcb3dec3	-0.021956807
126	0xbc5c4441	-0.013444007
127	0xbc7d1ffa	-0.015449518

weight f4 [7, 5]
0	0x3ae40f33	0.0017399549
1	0xbbeea3a3	-0.0072826906
2	0xbbc63f50	-0.006050028
3	0x3c90929a	0.01764803
4	0x3c6889af	0.014192983
5	0xbc6f8a12	-0.014620321
6	0x3cc4df40	0.024032235
7	0x3d17e06b	0.037079256
8	0x3b700244	0.0036622444
9	0x3cd11ae0	0.02552551
10	0x3d3973f3	0.045276593
11	0xbd159240	-0.036516428
12	0xbd2fd8e3	-0.04293145
13	0x3ccefe03	0.025267607
14	0xbcfd8df1	-0.030951472
15	0x3d1824ae	0.037144355
16	0xbd3fc48e	-0.04681831
17	0xbd6b789a	-0.05748806
18	0x3c007eca	0.007842729
19	0xbd2ce799	-0.042213056
20	0x3d86299d	0.06550906
21	0xbd916877	-0.07100003
22	0xbd54300c	-0.051803634
23	0xbbb0b48a	-0.0053926157
24	0xbd78e1ef	-0.060762342
25	0x3d9332eb	0.07187446
26	0xbd699308	-0.057024986
27	0xbd423616	-0.04741486
28	0x3c8c90bd	0.01715886
29	0xbd877f6f	-0.06616103
30	0xbdfd32e9	-0.12363226
31	0x3dd1c85e	0.10243295
32	0x3dc63fa7	0.096801095
33	0xbd71feb9	-0.059080813
34	0x3dd7d0bb	0.10537859

weight f4 [6, 4]
0	0x3a9431e2	0.001130637
1	0x3c7bc0bc	0.015365776
2	0xb917d0e3	-0.00014478299
3	0xbb8af347	-0.0042404267
4	0xbd445a85	-0.04793789
5	0xbd187d32	-0.03722877
6	0x3d4b41f3	0.04962344
7	0x3db3d46a	0.08780749
8	0xbc9e3ccd	-0.019316101
9	0xbc56cbd6	-0.013110122
10	0xbcd3e85f	-0.02586764
11	0x3c12bcd1	0.00895615
12	0xbc43678c	-0.011926543
13	0x3a85700c	0.0010180487
14	0xbca25aa2	-0.019818608
15	0x3d22cb1c	0.03974448
16	0xbd49796e	-0.04918807
17	0xbd8cdb81	-0.068778045
18	0xbd6c4db1	-0.05769128
19	0x3d1ef394	0.038806513
20	0x3d314a85	0.043283958
21	0x3c96c0f2	0.01840255
22	0x3b51b992	0.0032001478
23	0xbc9c81b3	-0.019104814

weight f4 [3, 3]
0	0x3afd0bbf	0.0019305869
1	0xbb23e527	-0.0025008412
2	0xbac75b9c	-0.0015209797
3	0x3dc189f9	0.09450144
4	0xbd272e1d	-0.04081546
5	0xbdadd0b1	-0.0848707
6	0xbd861c63	-0.06548383
7	0x3cfa5ded	0.030562365
8	0x3d7d7319	0.061877344

weight f4 [43, 13]
0	0xbb13b35f	-0.0022537333
1	0xbb3298d1	-0.002725173
2	0x3b905937	0.0044051665
3	0x3ca1e6d6	0.019763391
4	0xbb815432	-0.0039468044
5	0xbc18ed89	-0.009333977
6	0x3bc6c97e	0.0060665
7	0x3b96db68	0.004603792
8	0xb9a32fca	-0.00031125388
9	0x3bb7ce55	0.0056093135
10	0xbb941c45	-0.0045199716
11	0x3c91e1dc	0.017807893
12	0xbbe90f33	-0.0071124076
13	0xbc94b8a6	-0.018154453
14	0xbd7ccfcf	-0.06172162
15	0x3ccd108a	0.0250323
16	0xbc244e5c	-0.010028448
17	0x3c82fcb3	0.015989637
18	0x3d29a052	0.04141266
19	0x3d644bba	0.05573628
20	0x3c80b4ff	0.015711306
21	0x3d243741	0.040091757
22	0x3cf0ab3f	0.029378532
23	0x3bbae904	0.005704047
24	0xbd152637	-0.036413398
25	0xbcbdb2da	-0.023156572
26	0x3c4137a1	0.011793048
27	0xbcfb4207	-0.030671133
28	0x3c240199	0.010010147
29	0xbcd424d8	-0.025896475
30	0xbc0ee79e	-0.008722214
31	0x3cb50500	0.02209711
32	0xbc9e192b	-0.01929911
33	0x3bc083a8	0.0058750696
34	0x3d11cc6b	0.03559534
35	0xbcdd93d3	-0.027048027
36	0x3cbaee2c	0.022818647
37	0x3c6bddf5	0.01439618
38	0xbd492c96	-0.049114786
39	0xbcc53ec7	-0.024077786
40	0x3c28b153	0.010296184
41	0x3cad5022	0.021156374
42	0x3bdedfa6	0.0068015633
43	0xbcfed2e7	-0.031106425
44	0xbc4070b5	-0.011745621
45	0xbc5b015d	-0.013367024
46	0xbcc4021f	-0.023926793
47	0xbbaa92fb	-0.0052055097
48	0xbd327523	-0.04356874
49	0x3cd96501	0.02653742
50	0x3d1fd392	0.03902013
51	0xbcb470c5	-0.022026429
52	0x3be8a799	0.0071000573
53	0xbcc1f346	-0.023675572
54	0xbc2ba89e	-0.010477213
55	0x3ca1066a	0.019656379
56	0x3cb7f285	0.02245451
57	0x3ca8c1a4	0.020600148
58	0x3cd77f0c	0.026305698
59	0xbd02fbe7	-0.031978514
60	0x3d238e81	0.039930824
61	0x3c506aac	0.012720745
62	0x3c357222	0.011074575
63	0xbc12b605	-0.00895453
64	0xbc03ecbf	-0.00805205
65	0x3b621357	0.003449639
66	0xbd869c73	-0.06572809
67	0xbc240304	-0.010010485
68	0xbd32b715	-0.043631632
69	0x3ce5857e	0.028017756
70	0x3d83a046	0.06427054
71	0x3d825822	0.06364466
72	0xbcf5559f	-0.029948054
73	0x3d38b3f6	0.0450935
74	0x3d509502	0.050923355
75	0xbd220ee6	-0.03956499
76	0xbd36c5a6	-0.044622086
77	0xbd8113b7	-0.063025884
78	0x3be42286	0.0069621233
79	0xba4c6a0e	-0.0007797786
80	0x3d8a8cb0	0.06765115
81	0x3cbda935	0.023151973
82	0xbd33f4f7	-0.04393479
83	0x3b76c688	0.0037654955
84	0xbc497903	-0.012296918
85	0x3d44178b	0.047874015
86	0x3ce7d9cf	0.028302101
87	0xbcf2056f	-0.029543607
88	0x3ce1f35f	0.027581869
89	0x3d185ebd	0.037199724
90	0xbd2e2c0d	-0.04252248
91	0x3b3367d7	0.0027375126
92	0xbd11a49c	-0.035557374
93	0xbc6603dd	-0.014039007
94	0xbc955ba5	-0.018232176
95	0x3c5c4e11	0.013446347
96	0x3d46c33e	0.04852604
97	0x3d36a54e	0.04459124
98	0xbd021690	-0.0317598
99	0x3d261962	0.04055155
100	0x3c8ab047	0.016929759
101	0xbcf6762d	-0.030085647
102	0xbd2f9a4e	-0.042871766
103	0xbd08e638	-0.03342268
104	0xbd389fef	-0.0450744
105	0xbd49bd4d	-0.049252797
106	0xbc82cb1d	-0.015965993
107	0x3a39f821	0.0007094164
108	0x3d54ae8d	0.051924277
109	0x3d2f899e	0.04285585
110	0x3d3475be	0.0440576
111	0xbc06071e	-0.008180408
112	0x3d271cac	0.040798828
113	0x3d34b184	0.044114605
114	0xbca1a082	-0.019729856
115	0xbce722eb	-0.028214892
116	0xbd0e81fe	-0.03479194
117	0x3cf0b452	0.029382858
118	0xbd5d028c	-0.053957507
119	0xbcfece1d	-0.031104142
120	0xbc546654	-0.01296385
121	0x3c38205d	0.011238185
122	0x3d45ab24	0.048258916
123	0x3d318b5f	0.043345805
124	0xbca43852	-0.020046387
125	0x3cfed868	0.03110905
126	0x3d03c5aa	0.03217093
127	0xbc1149ee	-0.008867724
128	0xbd7d6de9	-0.061872397
129	0xbc660263	-0.014038655
130	0xbc8a164b	-0.016856333
131	0xbbe86314	-0.007091889
132	0x3c56e3de	0.013115851
133	0xbd29e5c8	-0.041478902
134	0xbce630a6	-0.02809937
135	0xbb1ee998	-0.002424812
136	0xbc5238ff	-0.012830972
137	0x3ce1c665	0.027560422
138	0x3c55ebe4	0.013056729
139	0xbcc24a11	-0.023716958
140	0x3cc0431f	0.023469506
141	0x3d82d92c	0.063890785
142	0xbcc97719	-0.024592923
143	0xbc713cbe	-0.014723955
144	0x3c4820a4	0.012214813
145	0x3cbec329	0.023286419
146	0x3c55f9c9	0.013060042
147	0xbc3eab48	-0.011637516
148	0xbc004960	-0.007829994
149	0xbbba1a4c	-0.0056794044
150	0xbc2dd389	-0.010609516
151	0xbc4662fe	-0.0121085625
152	0x3cb62f87	0.02223946
153	0x3bc0bcb1	0.005881869
154	0x3bca9143	0.0061818673
155	0x3b54ff81	0.0032500925
156	0xbd5fc939	-0.05463526
157	0x3d007bdc	0.03136812
158	0x3cc657a3	0.02421171
159	0x3c09b70f	0.008405461
160	0xba2714a4	-0.000637362
161	0xbc92c8fa	-0.017918099
162	0xbc16ef1a	-0.00921228
163	0x3d561ab6	0.052271567
164	0x3a57db7c	0.0008234305
165	0xbd224a62	-0.03962172
166	0x3d8316f6	0.06400864
167	0x3cb6ca88	0.022313371
168	0xbc800f56	-0.015632313
169	0xbb385175	-0.0028124724
170	0xbcd46854	-0.025928654
171	0x3ab4e48b	0.0013801021
172	0xbce03920	-0.02737099
173	0x3ce9a45d	0.028520757
174	0x3d12563e	0.03572678
175	0x3d78aa39	0.060709212
176	0xbd041539	-0.032246802
177	0x3d2c2055	0.04202302
178	0x3bdfd82b	0.006831189
179	0xbce0ca0b	-0.027440092
180	0xbce7351a	-0.028223563
181	0xbbbb36e8	-0.0057133324
182	0x3d6fcc1b	0.05854426
183	0xbce0d523	-0.027445382
184	0xbcfe6f59	-0.031058954
185	0xbbd08f0a	-0.006364708
186	0x3d2a096a	0.041512884
187	0x3c530842	0.012880387
188	0x3c2bb590	0.0104803
189	0xbbaaa713	-0.005207905
190	0x3c3b7d27	0.011443413
191	0x3d0f6b0d	0.0350142
192	0xbd18ff9f	-0.037353154
193	0xbce08bfc	-0.0274105
194	0xbce3074c	-0.02771344
195	0xbc8c2eb0	-0.017112106
196	0xbb2445c3	-0.0025065995
197	0xbcbb271e	-0.022845801
198	0xbcc11040	-0.023567319
199	0xbc99b01d	-0.018760735
200	0x3b9366c0	0.0044983327
201	0x3d4e2200	0.050325394
202	0xbcf32faa	-0.029685814
203	0x3c8252b8	0.015908584
204	0xbbff7dff	-0.0077970023
205	0x3ab454f0	0.0013758224
206	0xbcf12329	-0.029435711
207	0x3bef8766	0.007309842
208	0xbd169f39	-0.03677294
209	0xbcaa3fa0	-0.020782292
210	0xbbb027c1	-0.005375833
211	0xbc30a766	-0.010782098
212	0xbb82026e	-0.003967575
213	0xbac3e7af	-0.0014946366
214	0x3ca55a53	0.020184672
215	0x3b6150dc	0.0034380471
216	0xbb7b130f	-0.003831092
217	0x3cc160a7	0.023605658
218	0x3bab8ce5	0.005235302
219	0xbcc9bc2d	-0.024625862
220	0xbb58ad1f	-0.0033062173
221	0x3c113eff	0.008865117
222	0xbc27790d	-0.010221732
223	0xbbb303f2	-0.005463117
224	0xbad42082	-0.0016184004
225	0x3c55bd82	0.01304567
226	0x3c1ccba7	0.009570039
227	0x3c28122a	0.010258237
228	0xbc0a9ffe	-0.008460997
229	0x3c55fbf4	0.013060559
230	0x3cc273b9	0.023736821
231	0xbbc25a58	-0.00593118
232	0x3be9aee0	0.0071314424
233	0x38ec0937	0.00011255073
234	0x3d5399ed	0.051660467
235	0xbb53a0f7	-0.0032291987
236	0x3d35a5d1	0.044347588
237	0xbd0e1a9e	-0.034693353
238	0xbd246775	-0.040137727
239	0xbc5435bf	-0.012952267
240	0xbd4704bb	-0.048588496
241	0x3d44145b	0.047870975
242	0x3cfb62c8	0.030686751
243	0xbc2fada2	-0.01072255
244	0xbc9f6cf7	-0.019461138
245	0x3cd3d28a	0.025857229
246	0x3c8333c7	0.0160159
247	0x3c5d110f	0.013492837
248	0xbc828e0b	-0.015936872
249	0xbcc941fb	-0.024567595
250	0xbd6e339c	-0.058154687
251	0xbb77d824	-0.003781804
252	0xbb6ab2c6	-0.0035812124
253	0xbb803f42	-0.003913791
254	0xbc2006e2	-0.009767266
255	0xbc694fd0	-0.01424022

weight f4 [6]
0	0x3f80697e	1.0032194
1	0x3f6b5806	0.9193119
2	0x3f7173e9	0.9431749
3	0x3f88f0a1	1.0698434
4	0x3f7c9e8c	0.98679423
5	0x3f722144	0.9458201

bias f4 [6]
0	0xbd0f5cd5	-0.03500064
1	0xbc3dbdc7	-0.011580891
2	0xbd1a082e	-0.037605457
3	0xbd3f943f	-0.046772238
4	0xbc4be1cc	-0.012443971
5	0xbb7dd706	-0.00387329

running_mean f4 [6]
0	0xbcab10a2	-0.020881955
1	0xbbd02e7c	-0.0063531976
2	0xbc3b263a	-0.011422688
3	0x3ce6d862	0.028179351
4	0xbd38824f	-0.045046147
5	0xbcea8dca	-0.028632063

running_var f4 [6]
0	0x3f83d42b	1.0299124
1	0x3f85392e	1.0408075
2	0x3f7b74d9	0.9822517
3	0x3fa2e67b	1.2726587
4	0x3f471997	0.7777342
5	0x3f804353	1.0020546

weight f4 [200, 58]
0	0xbd179cf5	-0.03701492
1	0x3cce7cca	0.025205988
2	0xbd3a2f64	-0.04545535
3	0xbd61f8db	-0.055168968
4	0x3dcee802	0.10102846
5	0x3b94328f	0.0045226286
6	0x3e01c074	0.12671071
7	0xbd917cdb	-0.071038924
8	0xbdd95d60	-0.10613513
9	0xbc010c1a	-0.00787642
10	0x3d7bd57e	0.0614829
11	0x3d834437	0.06409495
12	0x3e042817	0.12905918
13	0x3d5deb21	0.054179315
14	0xbc95b090	-0.018272668
15	0xbd5cb651	-0.053884808
16	0xbcfed2dc	-0.031106405
17	0xbda73643	-0.081646465
18	0xbc8d89ce	-0.017277624
19	0x3d874e8f	0.06606781
20	0x3d7fcd60	0.06245172
21	0xbd5e47db	-0.054267745
22	0x3c26198c	0.010137927
23	0xbdb1e694	-0.086865574
24	0xbe08ac8a	-0.13347068
25	0x3dfab031	0.12240637
26	0xbc595ec2	-0.013267221
27	0x3d94a44e	0.07257901
28	0xbda1c95c	-0.078997344
29	0xbd059236	-0.03261014
30	0xbd0665e8	-0.03281203
31	0xbe074027	-0.13208066
32	0x3d0a33bd	0.033740748
33	0x3d816bf2	0.06319417
34	0x3d6f466e	0.058416776
35	0x3d250261	0.04028547
36	0xbe3814fd	-0.17976756
37	0x3e1351da	0.14386693
38	0xbd228069	-0.039673243
39	0xbd8a05bd	-0.06739376
40	0xbe02ee34	-0.1278618
41	0xbc59df9b	-0.013297941
42	0xbcb40b45	-0.02197803
43	0x3cb7c18a	0.022431154
44	0x3d22a8b1	0.039711658
45	0x3cd4de66	0.025984954
46	0xbccd5a73	-0.025067544
47	0xbde1ddde	-0.11028646
48	0x3d685336	0.05671998
49	0x3ddf6779	0.10908408
50	0xbdc5c57e	-0.09656809
51	0x3dc9ac5b	0.09847327
52	0xbdd20840	-0.1025548
53	0x3e0e2b0f	0.13883613
54	0xbd6b3ddd	-0.057432044
55	0x3dc08e6f	0.09402167
56	0xbde1fe36	-0.11034815
57	0xbe022d8e	-0.1271269
58	0xbd33d7a6	-0.04390683
59	0xbde21e0f	-0.110408895
60	0xbd8f53c1	-0.06998397
61	0x3d94ab78	0.072592676
62	0x3acfa5e6	0.0015842288
63	0x3cd41d15	0.025892774
64	0xbc04c2eb	-0.008103113
65	0x3d9d6725	0.07685689
66	0x3c3cd360	0.011525005
67	0xbcccc1fd	-0.024994845
68	0xbde2d6b8	-0.110761106
69	0x3cdb4123	0.026764458
70	0x3da319c2	0.07963897
71	0xbe0f5c79	-0.1400012
72	0xbd4f5250	-0.05061561
73	0xbcd4e6b4	-0.025988914
74	0xbe117345	-0.14204128
75	0xbda0888a	-0.07838543
76	0x3da796ab	0.081830345
77	0xbd9f3639	-0.07774014
78	0xbc895d6d	-0.016768182
79	0x3e0b3a05	0.13596351
80	0xbdb3e2ee	-0.08783518
81	0xbd03fe8c	-0.032225177
82	0x3c04127b	0.008061047
83	0x3d87de99	0.06634254
84	0xbe0d73e6	-0.13813743
85	0xbd5684cb	-0.052372735
86	0x3ddb4032	0.10705604
87	0x3deae04b	0.11468562
88	0x3d3257cc	0.04354076
89	0xbda77678	-0.08176893
90	0xbdac4364	-0.08411291
91	0xbdf728fa	-0.120683625
92	0x3ddf4d40	0.10903406
93	0xb9ed5e82	-0.00045274576
94	0xbd0d5cb0	-0.03451222
95	0x3dcae8ca	0.09907682
96	0xbc8e5c53	-0.017378008
97	0x3c6722be	0.014107404
98	0x3dc32d16	0.09530084
99	0xbd920d81	-0.07131482
100	0xbcc72e34	-0.024314024
101	0xbd9a39a8	-0.07530528
102	0x3d9141bf	0.07092618
103	0x3d917262	0.07101895
104	0xbddd5e5e	-0.10809015
105	0xbd65d7df	-0.056114074
106	0xbdc309ff	-0.09523391
107	0x3e17ebaa	0.14835992
108	0xbe0c1016	-0.13678011
109	0x3d968cee	0.07351099
110	0xbd808f61	-0.06277347
111	0xbc0ec4aa	-0.008713881
112	0xbdce2e5e	-0.100674376
113	0x3db43c5e	0.088005766
114	0xbd47e610	-0.04880339
115	0xbdb53267	-0.08847504
116	0xbd51e23c	-0.051241145
117	0x3d87cb21	0.06630541
118	0xbd949b65	-0.07256202
119	0xbdf53f41	-0.11974955
120	0x3dbc8543	0.09205105
121	0xbdb3cb81	-0.0877905
122	0xbda50fc6	-0.08059649
123	0x3d8809f6	0.06642525
124	0x3d1bbd94	0.038022593
125	0xbdd2c5df	-0.10291647
126	0xbc156ddc	-0.009120431
127	0x3dce2e72	0.100674525
128	0xbd351d9e	-0.0442177
129	0x3dd45951	0.10368598
130	0xbc9d98f1	-0.019237967
131	0x3d949645	0.07255224
132	0x3e2483b3	0.16065864
133	0x3d2e8fd1	0.042617623
134	0x3d8a14fb	0.06742283
135	0xbd9dc2c8	-0.07703167
136	0xbdb91b8e	-0.09038459
137	0x3d876b59	0.06612272
138	0xbdb46844	-0.088089496
139	0x3d4d87a0	0.05017817
140	0x3cc53fe1	0.024078311
141	0x3d113190	0.035447657
142	0x3d4ef411	0.05052573
143	0x3dd64fd3	0.10464444
144	0xbe3451d4	-0.1760934
145	0xbdce8dee	-0.10085665
146	0xbdaa98b2	-0.083299056
147	0xbdf197eb	-0.11796554
148	0xbd9db8aa	-0.077012375
149	0xbd99691d	-0.07490752
150	0x3dee3176	0.11630528
151	0x3df72f0b	0.120695196
152	0xbe02f783	-0.1278973
153	0xbcd93201	-0.026513102
154	0x3dd17bfd	0.10228727
155	0x3d9a09e3	0.07521417
156	0x3dba6fe7	0.09103375
157	0xbcf9e8e2	-0.030506555
158	0x3dcf0cf6	0.10109894
159	0x3d07a17e	0.033112995
160	0x3dbfb248	0.09360176
161	0x3d80e2de	0.062932715
162	0x3d0a29f7	0.033731427
163	0xbd3b5b6d	-0.045741487
164	0x3d8bb8c7	0.06822353
165	0xbd9a2bc4	-0.07527879
166	0xbdb68e09	-0.0891381
167	0x3dcd4cef	0.100244395
168	0x3d1f226f	0.038851198
169	0xbda2524d	-0.07925854
170	0x3df09083	0.117463134
171	0x3a4b888a	0.00077641814
172	0x3d7c0759	0.061530445
173	0xbd6afe1d	-0.057371248
174	0xbd88ebfb	-0.06685635
175	0xbbd47d91	-0.0064846952
176	0x3cb551f8	0.022133812
177	0xbdc4e9cd	-0.096149065
178	0x3bbc5cc4	0.005748363
179	0xbdf3b365	-0.11899451
180	0x3d260d17	0.040539827
181	0xbdbe07f1	-0.092788585
182	0xbdb582ce	-0.0886284
183	0xbd5752d0	-0.05256921
184	0x3d5e985d	0.054344524
185	0x3dc0c011	0.09411634
186	0x3d9c9e94	0.07647434
187	0x3d94e9b2	0.07271136
188	0x3e2368ee	0.15957996
189	0xbbdb13cb	-0.006685709
190	0xbdc8ca03	-0.09804156
191	0xbd176216	-0.036958776
192	0xbe23f89a	-0.16012803
193	0xbc665819	-0.01405909
194	0x3c2a7344	0.010403458
195	0xbd6bd373	-0.0575747
196	0x3d7c6422	0.06161893
197	0x3e0245f3	0.12721996
198	0x3d9b7600	0.07590866
199	0xbd5c8ef6	-0.053847276
200	0xbdd38162	-0.10327412
201	0xbd122033	-0.03567524
202	0xbd3023e3	-0.043002974
203	0x3d39033e	0.045169108
204	0xbc36c7b9	-0.011156016
205	0xbd9e20a5	-0.0772107
206	0xbdc527d1	-0.09626735
207	0x3d5f8ef8	0.054579705
208	0xbda6a449	-0.08136804
209	0x3c2b8cb1	0.010470555
210	0x3de64160	0.11242938
211	0xbe0ab20d	-0.13544483
212	0xbd9eb385	-0.077490844
213	0xbc16f4d0	-0.009213641
214	0x3cd1203a	0.025528062
215	0xbd63b489	-0.055592094
216	0xbd9eae35	-0.07748071
217	0xbc998600	-0.018740654
218	0xbcb8b3ae	-0.022546615
219	0xbe0249f2	-0.1272352
220	0xbd8435ee	-0.06455599
221	0x3df35a35	0.1188244
222	0xbd1e7345	-0.03868415
223	0x3d00c4ad	0.031437565
224	0xbdddf43e	-0.10837601
225	0xbd11e501	-0.035618786
226	0x3d4127cb	0.04715709
227	0xbdd69014	-0.104766995
228	0x3cd29012	0.025703464
229	0x3d99b4b1	0.07505167
230	0xbdf46d74	-0.11934939
231	0x3d98f75f	0.07469057
232	0xbdcccf4c	-0.10000476
233	0x3d63bd98	0.055600733
234	0xbcbb9be2	-0.02290148
235	0x3d7bb07c	0.061447605
236	0xbd5c1572	-0.05373139
237	0xbd92d2c3	-0.07169106
238	0xbe088d92	-0.13335255
239	0x3dfee108	0.12445265
240	0xbc300e7c	-0.010745641
241	0xbd28e07c	-0.04122971
242	0xbd1e6ac7	-0.03867605
243	0xbb9c9c47	-0.004779372
244	0x3d50896d	0.05091231
245	0x3decaf8d	0.11556921
246	0x3e19e695	0.15029366
247	0x3e0dd8f1	0.13852288
248	0xbd288936	-0.04114648
249	0xbdfb58e6	-0.122728154
250	0xbd628c2c	-0.05530946
251	0x3dd3e76d	0.10346875
252	0x3d5813b5	0.05275317
253	0xbb4bc7a9	-0.0031094349
254	0xbde6f9b2	-0.11278094
255	0x3d9308da	0.07179423

weight f4 [200]
0	0x3f7a63f5	0.9780877
1	0x3f80e13a	1.0068734
2	0x3f76f2c8	0.96464205
3	0x3f7c50cd	0.9856079
4	0x3f80301b	1.0014681
5	0x3f7b4735	0.9815553
6	0x3f79facf	0.9764833
7	0x3f8152c8	1.0103388
8	0x3f8012cf	1.000574
9	0x3f8087f7	1.0041493
10	0x3f7efa6e	0.99600875
11	0x3f81d3ac	1.0142722
12	0x3f7fa7c1	0.9986535
13	0x3f7de15a	0.99171984
14	0x3f80e480	1.0069733
15	0x3f7d2bfe	0.9889525
16	0x3f7ec19d	0.9951418
17	0x3f800798	1.0002317
18	0x3f82c9a0	1.0217781
19	0x3f8060ff	1.0029601
20	0x3f81fb51	1.0154821
21	0x3f85b4e9	1.0445834
22	0x3f806597	1.0031003
23	0x3f7c2f83	0.9851
24	0x3f86f344	1.0542989
25	0x3f7e15ff	0.99252313
26	0x3f7ef2db	0.9958932
27	0x3f7d9c27	0.99066395
28	0x3f81b5ef	1.0133647
29	0x3f7e9b8b	0.9945609
30	0x3f80a402	1.0050051
31	0x3f8255d3	1.0182441
32	0x3f7a5a81	0.9779435
33	0x3f808611	1.0040914
34	0x3f7dd04c	0.9914596
35	0x3f7fdb1b	0.99943703
36	0x3f7f4faa	0.9973093
37	0x3f7dff9b	0.9921815
38	0x3f7ce915	0.98793155
39	0x3f8255ab	1.0182394
40	0x3f7bcab3	0.9835617
41	0x3f78549e	0.97004116
42	0x3f83c72f	1.0295161
43	0x3f85f9a7	1.0466813
44	0x3f818051	1.0117284
45	0x3f811788	1.0085306
46	0x3f7d34be	0.98908603
47	0x3f823a42	1.0174029
48	0x3f84531f	1.0337867
49	0x3f8091af	1.0044459
50	0x3f811e0b	1.0087293
51	0x3f82e401	1.0225831
52	0x3f804bb1	1.0023099
53	0x3f81823f	1.0117873
54	0x3f86a5b4	1.0519319
55	0x3f80ec7d	1.007217
56	0x3f826c9a	1.0189393
57	0x3f81cb8c	1.0140243
58	0x3f7cd030	0.9875517
59	0x3f813484	1.0094151
60	0x3f7c40ea	0.9853655
61	0x3f7aa1e2	0.97903264
62	0x3f7f7b4f	0.9979753
63	0x3f83f383	1.0308689
64	0x3f7b1e2e	0.98092926
65	0x3f7872c2	0.97050107
66	0x3f7a753b	0.9783513
67	0x3f7cdd46	0.98775136
68	0x3f780955	0.9688924
69	0x3f8107fc	1.0080562
70	0x3f7e813d	0.9941595
71	0x3f7dcbb2	0.9913894
72	0x3f81a71f	1.0129126
73	0x3f82735d	1.0191456
74	0x3f7afeed	0.98045236
75	0x3f7f77a6	0.99791944
76	0x3f820677	1.0158223
77	0x3f821ce4	1.0165067
78	0x3f7eeb8e	0.9957818
79	0x3f820a0a	1.0159314
80	0x3f7ded5e	0.9919032
81	0x3f78743a	0.9705235
82	0x3f81de3f	1.0145949
83	0x3f8018f4	1.0007615
84	0x3f79fe28	0.97653437
85	0x3f7adc38	0.9799228
86	0x3f80e48e	1.0069749
87	0x3f8268e8	1.0188265
88	0x3f8184f0	1.0118694
89	0x3f805238	1.0025091
90	0x3f8000cf	1.0000247
91	0x3f8088ca	1.0041745
92	0x3f7df3de	0.99200237
93	0x3f7c92d0	0.9866152
94	0x3f804fc0	1.0024338
95	0x3f80a37f	1.0049895
96	0x3f7e5ee9	0.9936357
97	0x3f817494	1.0113702
98	0x3f81d159	1.0142013
99	0x3f7d5e1a	0.9897171
100	0x3f7f8847	0.9981732
101	0x3f7d07ad	0.9883984
102	0x3f8077c9	1.0036556
103	0x3f838243	1.0274128
104	0x3f80dd29	1.0067493
105	0x3f803080	1.0014801
106	0x3f832da2	1.0248301
107	0x3f7fa8f6	0.9986719
108	0x3f807499	1.0035583
109	0x3f8266d6	1.0187633
110	0x3f7f95d5	0.99838
111	0x3f771c1c	0.96527267
112	0x3f80650f	1.0030841
113	0x3f7a4af9	0.9777065
114	0x3f7daff7	0.99096626
115	0x3f7a830c	0.9785621
116	0x3f80cb23	1.0061992
117	0x3f817cc2	1.0116198
118	0x3f82d4a0	1.0221138
119	0x3f80a662	1.0050776
120	0x3f7f2644	0.99667764
121	0x3f814a81	1.0100862
122	0x3f7bd82e	0.9837674
123	0x3f8225d4	1.0167794
124	0x3f73eb1c	0.95280623
125	0x3f834984	1.025681
126	0x3f8041b1	1.0020047
127	0x3f796851	0.974248
128	0x3f838b19	1.0276824
129	0x3f807118	1.0034513
130	0x3f794206	0.9736637
131	0x3f7ca2b1	0.9868575
132	0x3f80d1c3	1.0064014
133	0x3f8359a1	1.0261728
134	0x3f812d1b	1.009189
135	0x3f80b1ea	1.0054295
136	0x3f82a231	1.0205747
137	0x3f76dbfd	0.96429425
138	0x3f8066fa	1.0031426
139	0x3f81ee4d	1.0150849
140	0x3f7fcebe	0.9992484
141	0x3f7d162e	0.9886197
142	0x3f7ee440	0.9956703
143	0x3f78c2dd	0.9717234
144	0x3f812243	1.0088581
145	0x3f7acbde	0.97967327
146	0x3f80e02d	1.0068413
147	0x3f7a6ee6	0.9782547
148	0x3f79c0d9	0.9755989
149	0x3f7e05ab	0.992274
150	0x3f7ed047	0.99536556
151	0x3f7d183d	0.9886511
152	0x3f831006	1.0239265
153	0x3f7e9fb8	0.9946246
154	0x3f7d4571	0.98934084
155	0x3f84bb04	1.0369573
156	0x3f87a833	1.0598205
157	0x3f80da95	1.0066706
158	0x3f8266dd	1.0187641
159	0x3f7fce18	0.9992385
160	0x3f81e09c	1.014667
161	0x3f809853	1.0046486
162	0x3f7ca69a	0.98691714
163	0x3f80291b	1.0012544
164	0x3f7eb90c	0.9950111
165	0x3f7b8c20	0.9826069
166	0x3f81e22a	1.0147145
167	0x3f835b9d	1.0262333
168	0x3f8068a6	1.0031936
169	0x3f82d3d3	1.0220894
170	0x3f80a7e4	1.0051236
171	0x3f7cd942	0.9876901
172	0x3f7e3948	0.99306154
173	0x3f790643	0.9727518
174	0x3f7a12b5	0.97684795
175	0x3f7e3077	0.992927
176	0x3f7b7712	0.9822856
177	0x3f805a36	1.002753
178	0x3f807f54	1.0038857
179	0x3f7d74b2	0.9900619
180	0x3f7a47ed	0.97766
181	0x3f80b0b5	1.0053927
182	0x3f77bae4	0.9676955
183	0x3f8135d9	1.0094558
184	0x3f801104	1.0005193
185	0x3f7ed265	0.99539787
186	0x3f805aa2	1.0027659
187	0x3f80dfaf	1.0068263
188	0x3f80e892	1.0070975
189	0x3f7c9f2d	0.9868038
190	0x3f80f8bb	1.0075907
191	0x3f7c65d1	0.9859286
192	0x3f7bfe73	0.98435134
193	0x3f7e94e7	0.99445957
194	0x3f7fd459	0.9993339
195	0x3f808c38	1.0042791
196	0x3f834810	1.0256367
197	0x3f7a4405	0.9776004
198	0x3f8460d4	1.034205
199	0x3f7c0a60	0.9845333

bias f4 [200]
0	0x3c655d4b	0.013999294
1	0xbb2747c0	-0.0025524944
2	0xbd4422f7	-0.047884908
3	0x3cc1f5b0	0.023676723
4	0xbc2b4b28	-0.01045493
5	0xbb99ffb1	-0.0046996702
6	0xbcf03bd9	-0.029325413
7	0xbbe92111	-0.0071145375
8	0xbba68c0c	-0.005082613
9	0xbb9cc371	-0.0047840406
10	0x3c90c75a	0.017673183
11	0xbb467ed5	-0.0030288
12	0xbb1a2aa3	-0.0023523949
13	0x3cefec8a	0.029287595
14	0x3a9c8652	0.0011941886
15	0xbb359fa0	-0.0027713552
16	0x388b63ee	6.64665e-05
17	0x3c8b1656	0.016978424
18	0xbc2951c9	-0.0103344405
19	0x3b9d0c3f	0.0047927196
20	0x3d1a0062	0.03759802
21	0xbc46ee94	-0.012141842
22	0x3b3b6891	0.0028596262
23	0xbb87c006	-0.004142764
24	0x3c37a398	0.011208437
25	0xbb93b626	-0.004507798
26	0x3c276cdb	0.010218824
27	0xbb0789f2	-0.0020681587
28	0x3cafd694	0.021464624
29	0xbb52f8bf	-0.0032191721
30	0xbba73408	-0.005102638
31	0xbd3f873a	-0.04675982
32	0xbca1b654	-0.019740261
33	0xbc7bff99	-0.015380763
34	0xbbed5b45	-0.007243546
35	0xbb977b44	-0.0046228487
36	0x3c245340	0.010029614
37	0xbcd1cd8f	-0.025610713
38	0x3c0b0ae6	0.008486485
39	0x3ccd636c	0.025071822
40	0xbc73c55a	-0.014878595
41	0x3d34a1ff	0.044099804
42	0x3bbbf325	0.005735772
43	0x3d02c95a	0.031930305
44	0x3cdb7139	0.026787387
45	0x3c0f1452	0.008732872
46	0xbcaa5abc	-0.020795219
47	0xbcc0fa6e	-0.023556914
48	0xbc9c5c8d	-0.0190871
49	0x3c18e28e	0.009331359
50	0xbd0c4b31	-0.034251396
51	0xbcc58307	-0.02411033
52	0x3d16ca04	0.03681375
53	0xbcc258f5	-0.023724059
54	0x3d20899f	0.039193746
55	0x3c96ab42	0.018392209
56	0xbd388eb8	-0.045057982
57	0xbc580673	-0.013185131
58	0x3c13055e	0.008973448
59	0xbd1c4d3f	-0.038159605
60	0xbc51abde	-0.012797324
61	0x3a50629d	0.0007949265
62	0x3c6836b2	0.014173197
63	0xbbb533a5	-0.005529838
64	0x3b43943b	0.002984299
65	0x3d083539	0.033253882
66	0x3ca77934	0.020443536
67	0xbc880c31	-0.016607376
68	0xbc9778ce	-0.018490221
69	0x3bd5ffa5	0.0065307193
70	0x3bbe0540	0.0057989657
71	0x3c016b52	0.007899122
72	0xbcb86e2b	-0.02251347
73	0x3c73175e	0.014837114
74	0x3d371253	0.04469521
75	0x3cece40e	0.028917339
76	0xbc115a09	-0.008871564
77	0x3cf613f6	0.030038815
78	0x3c86085a	0.016361404
79	0xbcd4fe82	-0.026000265
80	0x3cabb369	0.020959573
81	0x3b84f396	0.004057358
82	0xbc060863	-0.0081807105
83	0xbc3f557b	-0.011678095
84	0x3c792f7d	0.015209076
85	0x3cd8a8c3	0.02644766
86	0x3d12e991	0.035867278
87	0x3d38b2f3	0.045092534
88	0x3b0aa55d	0.0021155693
89	0x3d45bff9	0.048278783
90	0xbca22403	-0.019792562
91	0xbb1c30b2	-0.0023832736
92	0xbc420bb2	-0.011843609
93	0x3d1b5df3	0.037931394
94	0xbc92c005	-0.017913828
95	0x3c5df135	0.013546278
96	0xbbded765	-0.0068005794
97	0xbb697d88	-0.00356278
98	0x3c1a0db1	0.009402678
99	0xbb2ac546	-0.0026057526
100	0x3c810b0e	0.015752342
101	0x3d28a2db	0.041170936
102	0xbc5e0bb4	-0.013552595
103	0xbc6c6963	-0.014429423
104	0xbc2c5da5	-0.0105203735
105	0xbd0f4679	-0.034979317
106	0x3c2b4332	0.010453032
107	0x3d04d13d	0.032426108
108	0x3d1f7741	0.03893209
109	0x3b2af974	0.0026088627
110	0xbcbb0cd9	-0.022833275
111	0xbc8acdd4	-0.01694385
112	0x3b635658	0.0034688916
113	0x3c05f5b3	0.008176255
114	0xbc10c5d2	-0.008836227
115	0x3ce96030	0.028488249
116	0xbaa4912e	-0.0012555474
117	0x3b5c01f0	0.003357049
118	0x3b9a7768	0.0047139414
119	0xbc3df0cf	-0.011593058
120	0xbb1dd0a3	-0.0024080656
121	0xbc8f3235	-0.017479995
122	0xbba88438	-0.005142715
123	0x3cc68b6c	0.024236403
124	0xbbea64f7	-0.007153149
125	0x3a1a0a7d	0.00058761967
126	0xbd0ae601	-0.033910755
127	0x3cb2cf33	0.021827316
128	0x3bfe07ca	0.0077523934
129	0xbc165703	-0.009176019
130	0x3c10ed65	0.008845662
131	0xbbef08bd	-0.007294743
132	0xbc29a558	-0.010354362
133	0xbbbf6ef3	-0.0058420836
134	0xb96b9c07	-0.00022469471
135	0xbc73f652	-0.01489027
136	0xbcdc7525	-0.026911328
137	0x3d1ec06d	0.03875773
138	0x3c4877d8	0.012235604
139	0xbb89baeb	-0.0042031906
140	0xbc53f0a1	-0.012935788
141	0x3d11fb83	0.03564025
142	0xbbef15b3	-0.007296288
143	0x3c65d7e7	0.014028526
144	0x3c213284	0.009838704
145	0xb9dce9f8	-0.0004213599
146	0xbac0b201	-0.0014701487
147	0xbc0893b8	-0.008336
148	0xbc29f9df	-0.010374515
149	0x3c8c15b4	0.017100193
150	0x3d104ba6	0.035228394
151	0x3d1a1a3a	0.037622668
152	0xb8a8b3ee	-8.044379e-05
153	0x3c3793f3	0.011204707
154	0xbcbac4b2	-0.02279887
155	0x3b10afcc	0.002207744
156	0xbd039a42	-0.032129534
157	0x3ca03208	0.019555107
158	0x3cf5b087	0.029991401
159	0x3c14254d	0.009042096
160	0x3c8bd63e	0.017069932
161	0x3cf46f5d	0.029838258
162	0x3ca042b1	0.019563051
163	0xbb81b783	-0.003958644
164	0x3c608ad2	0.013704972
165	0x3c322ce3	0.01087496
166	0xbbdf1a9a	-0.006808591
167	0xbc2c0ca1	-0.010501058
168	0x3a2699ac	0.00063552964
169	0xbc21d33b	-0.009877021
170	0x3c214abe	0.00984448
171	0xbba61018	-0.0050678365
172	0xbd197218	-0.037462324
173	0xbb122c6b	-0.0022304307
174	0x3bbc22a6	0.005741435
175	0xbb728458	-0.0037005153
176	0x3c87e6f3	0.016589617
177	0x3c8a103b	0.016853442
178	0xbc1b40a9	-0.009475865
179	0x3bab2bc1	0.0052237217
180	0xbc178624	-0.00924829
181	0x3d0c453c	0.034245715
182	0x3b889082	0.0041676173
183	0x3c805981	0.015667679
184	0x39df51b8	0.0004259476
185	0x3ce65849	0.02811827
186	0xbc7fe5c2	-0.015618743
187	0x3c86ac01	0.01643944
188	0x3c114201	0.008865834
189	0xbc0f4c83	-0.008746269
190	0xbb93da47	-0.0045121047
191	0x3d275219	0.04084978
192	0xbd2c8dd9	-0.042127464
193	0xbb40a7e9	-0.0029396957
194	0x3c923d9f	0.017851649
195	0x3c508a90	0.012728348
196	0xba5c7b31	-0.0008410691
197	0xbc111bcc	-0.008856725
198	0xbc9074e2	-0.017633859
199	0xbbc278b0	-0.005934797

running_mean f4 [200]
0	0x3dce1c37	0.10063975
1	0x3d724db8	0.05915615
2	0x3d787454	0.060657814
3	0x3d822acb	0.06355818
4	0x3d9113e5	0.07083873
5	0x3d397144	0.045274034
6	0x3d917a32	0.07103385
7	0x3d9e0bda	0.07717104
8	0x3d9e0c8d	0.077172376
9	0x3d8b2000	0.06793213
10	0x3d86e2bc	0.06586215
11	0x3dc6a5c6	0.096995875
12	0x3d9511eb	0.07278808
13	0x3db52c0f	0.08846294
14	0x3da737bf	0.081649296
15	0x3d84174f	0.06449758
16	0x3d828062	0.06372143
17	0x3d3ac3b8	0.04559681
18	0x3d8292c9	0.06375653
19	0x3da4b612	0.0804254
20	0x3d7dd49c	0.06197034
21	0x3d9d5ff3	0.076843165
22	0x3da4c753	0.080458306
23	0x3d99e505	0.07514385
24	0x3da257d0	0.07926905
25	0x3da5d448	0.0809713
26	0x3dc1d24b	0.09463938
27	0x3da966e0	0.08271575
28	0x3d5fc79e	0.05463373
29	0x3d8c2e78	0.06844801
30	0x3d858169	0.06518824
31	0x3d8c3a9b	0.068471156
32	0x3d8e6286	0.069523856
33	0x3db44897	0.08802908
34	0x3d51a21a	0.051179983
35	0x3d54be7a	0.051939465
36	0x3d74f3d2	0.059802838
37	0x3d875ddf	0.06609701
38	0x3d55aed6	0.05216869
39	0x3d6a6b75	0.057231385
40	0x3d8dd76f	0.06925856
41	0x3d5c225c	0.053743705
42	0x3d3be6a8	0.045874268
43	0x3d8d4a92	0.06898989
44	0x3d87eee8	0.066373646
45	0x3d96840c	0.07349405
46	0x3da2abec	0.07942948
47	0x3d69a059	0.057037685
48	0x3d5956d8	0.053061336
49	0x3dcf3278	0.10117048
50	0x3d7e015e	0.062013023
51	0x3d87ba30	0.06627309
52	0x3da0db23	0.07854297
53	0x3d91ae75	0.07113353
54	0x3da1098e	0.078631505
55	0x3d8514ec	0.06498131
56	0x3da0239e	0.078192934
57	0x3d66b2b6	0.056322776
58	0x3d722ec2	0.059126623
59	0x3d6e1883	0.058128845
60	0x3dbdba9d	0.09264109
61	0x3d841b4b	0.06450518
62	0x3d8b837a	0.068121865
63	0x3db7dce9	0.08977682
64	0x3d588fe5	0.052871604
65	0x3d986e17	0.07442873
66	0x3dd41278	0.10355085
67	0x3d846f01	0.06466485
68	0x3db8271d	0.08991835
69	0x3d6f0b10	0.05836016
70	0x3d39344e	0.045215897
71	0x3d9dd58e	0.07706748
72	0x3d7f4ee2	0.062331088
73	0x3d54ee6d	0.051985193
74	0x3d9e8d83	0.07741835
75	0x3da76f1a	0.08175488
76	0x3d4db163	0.050217997
77	0x3d8ef04a	0.06979425
78	0x3da13a08	0.07872397
79	0x3d7613c5	0.060077447
80	0x3d8e8441	0.06958819
81	0x3d2f7e55	0.04284509
82	0x3dab3d26	0.083612725
83	0x3d8e8941	0.06959773
84	0x3d909d14	0.0706121
85	0x3d903a2b	0.07042345
86	0x3db3a76f	0.0877217
87	0x3d9077f7	0.070541315
88	0x3db04dd3	0.08608594
89	0x3da8f963	0.08250692
90	0x3d978189	0.07397754
91	0x3dab599c	0.08366701
92	0x3d9096a6	0.07059984
93	0x3d972500	0.07380104
94	0x3d83b975	0.064318575
95	0x3dc7fa17	0.09764498
96	0x3d8e1d0b	0.06939133
97	0x3d2e899a	0.042611696
98	0x3d6b0e54	0.05738671
99	0x3d999eda	0.07501002
100	0x3d6cea66	0.057840727
101	0x3d80697b	0.06270119
102	0x3d90416d	0.07043729
103	0x3d8e6306	0.06952481
104	0x3dce24a7	0.10065585
105	0x3d662661	0.056188945
106	0x3d2dda33	0.04244442
107	0x3d53b794	0.051688746
108	0x3dbf35c8	0.0933643
109	0x3d517e24	0.051145688
110	0x3d7d903c	0.06190513
111	0x3d75f550	0.0600484
112	0x3d890070	0.066895366
113	0x3dbef8d9	0.09324808
114	0x3d6737c1	0.056449655
115	0x3d742ad7	0.059611168
116	0x3d8c0ee4	0.06838778
117	0x3d7baedd	0.06144606
118	0x3d6feff0	0.05857843
119	0x3d9fe815	0.07807938
120	0x3d44976d	0.047995973
121	0x3d47c65b	0.04877315
122	0x3d6ef67f	0.058340546
123	0x3d593bdd	0.053035606
124	0x3d443957	0.047906246
125	0x3d7a7357	0.061145153
126	0x3d6a7fda	0.057250835
127	0x3d59136b	0.052997034
128	0x3dbddc17	0.092704944
129	0x3d8155c1	0.063151844
130	0x3da97600	0.0827446
131	0x3d8da854	0.06916872
132	0x3da5bed0	0.08093035
133	0x3d821af5	0.06352798
134	0x3d4d6b4c	0.050151154
135	0x3cca9e4e	0.024733689
136	0x3d9ce6e1	0.07661224
137	0x3db3310c	0.08749589
138	0x3d8bef2e	0.06832729
139	0x3d76677f	0.060157295
140	0x3d943153	0.0723597
141	0x3d329fbc	0.043609366
142	0x3d64d5ff	0.055868145
143	0x3d786362	0.060641654
144	0x3d71669a	0.05893574
145	0x3d34ba87	0.0441232
146	0x3da07529	0.078348465
147	0x3d95d35d	0.07315705
148	0x3daca9eb	0.08430847
149	0x3dc20684	0.09473899
150	0x3d4fbdfc	0.050718293
151	0x3d760f2b	0.06007306
152	0x3d0761c7	0.033052232
153	0x3d79742a	0.0609018
154	0x3d37edec	0.044904634
155	0x3d83a09c	0.06427118
156	0x3d428dfe	0.047498696
157	0x3d91b5d8	0.07114762
158	0x3d9b0168	0.075686276
159	0x3d7ad436	0.061237536
160	0x3db08997	0.08619993
161	0x3d9065cd	0.07050667
162	0x3d5b88f2	0.053597398
163	0x3d76d503	0.060261738
164	0x3d97977e	0.07401942
165	0x3dd56847	0.1042028
166	0x3d9b8441	0.07593585
167	0x3dbcbd51	0.09215797
168	0x3d8d9a93	0.06914248
169	0x3d973149	0.07382447
170	0x3d4b64fd	0.049656857
171	0x3d8f1b2c	0.069876045
172	0x3daca3f7	0.08429711
173	0x3d7e09f1	0.0620212
174	0x3d5e5bea	0.054286875
175	0x3d89514f	0.067049615
176	0x3d91779d	0.071028925
177	0x3d229b26	0.039698742
178	0x3d726072	0.05917401
179	0x3d618ca2	0.05506576
180	0x3d8a6dd3	0.067592286
181	0x3d746d6b	0.05967466
182	0x3da9feec	0.083005756
183	0x3d85a1f7	0.06525033
184	0x3d915329	0.0709594
185	0x3d991a9c	0.074757785
186	0x3d8d73ce	0.069068536
187	0x3d835cb5	0.06414167
188	0x3d6e6d5a	0.058209755
189	0x3da2873f	0.079359524
190	0x3da9c70d	0.08289919
191	0x3d6f9190	0.05848843
192	0x3da4ba6b	0.08043369
193	0x3d907c08	0.07054907
194	0x3dbe27e2	0.09284951
195	0x3d86b33a	0.065771535
196	0x3d9a1be2	0.075248495
197	0x3d760d43	0.06007124
198	0x3d571c5f	0.05251729
199	0x3dac6e7c	0.08419511

running_var f4 [200]
0	0x3ccb8ec5	0.024848351
1	0x3c307d58	0.010772072
2	0x3c16f4e4	0.00921366
3	0x3c4f9b11	0.012671248
4	0x3bf4102b	0.0074482164
5	0x3be9f3f2	0.0071396763
6	0x3c58247c	0.013192292
7	0x3c00086e	0.00781451
8	0x3c691ff6	0.0142288115
9	0x3c3e3b68	0.011610843
10	0x3bf0db43	0.007350357
11	0x3ce5f7c9	0.028072255
12	0x3c2d7fbc	0.010589536
13	0x3cf39693	0.029734885
14	0x3cb70916	0.0223432
15	0x3c7a6e90	0.015285149
16	0x3bda3306	0.0066589145
17	0x3b76a351	0.0037633965
18	0x3cc60ce9	0.024176078
19	0x3cc4f229	0.024041252
20	0x3c3799f5	0.01120614
21	0x3c74e354	0.014946777
22	0x3c29af3b	0.01035672
23	0x3c2139c3	0.009840432
24	0x3c78e7f0	0.015192017
25	0x3c62c363	0.013840529
26	0x3c43957d	0.011937496
27	0x3cb61a75	0.022229413
28	0x3c7ec1e7	0.01554916
29	0x3ce22ba8	0.027608708
30	0x3cc57e02	0.024107937
31	0x3cb76e26	0.02239139
32	0x3cc63f8e	0.024200227
33	0x3cd5d212	0.026101146
34	0x3bee041f	0.007263675
35	0x3bab39b7	0.005225386
36	0x3c76cda9	0.015063682
37	0x3c174e60	0.009234995
38	0x3c87e559	0.016588854
39	0x3b3f2f8f	0.0029172634
40	0x3becc2ac	0.007225355
41	0x3bbff043	0.005857499
42	0x3c344737	0.011003307
43	0x3c57af15	0.013164301
44	0x3c08ad05	0.008342032
45	0x3c43d0a3	0.011951598
46	0x3c313409	0.010815629
47	0x3c892023	0.016738957
48	0x3c4993c0	0.012303293
49	0x3cd35c08	0.02580072
50	0x3c8cb572	0.017176364
51	0x3ca01b96	0.019544404
52	0x3c596f59	0.013271176
53	0x3cd694af	0.026193945
54	0x3c9d9a0d	0.019238496
55	0x3c6285b6	0.0138258245
56	0x3c8b5b4b	0.017011305
57	0x3bdb0938	0.0066844486
58	0x3c410c3c	0.011782702
59	0x3bf8556d	0.007578543
60	0x3c75a560	0.014993042
61	0x3c2745f0	0.0102095455
62	0x3c80dfea	0.01573177
63	0x3ca4579b	0.020061305
64	0x3c1f6bef	0.009730323
65	0x3c7dc7f6	0.015489569
66	0x3ca64a4b	0.020299098
67	0x3bb3f986	0.005492392
68	0x3ca85b48	0.020551339
69	0x3c06fbf8	0.008238785
70	0x3bb0cfb2	0.005395853
71	0x3c53819c	0.012909319
72	0x3c109380	0.008824229
73	0x3ca7f937	0.020504577
74	0x3c1197da	0.008886302
75	0x3c869e95	0.01643304
76	0x3be87810	0.0070943907
77	0x3c97cdc8	0.018530741
78	0x3c6b60bc	0.014366325
79	0x3c808504	0.015688427
80	0x3c1d7e74	0.009612668
81	0x3b6af4ea	0.0035851547
82	0x3c71c1db	0.014755691
83	0x3c355028	0.011066474
84	0x3c823338	0.015893564
85	0x3c93c83a	0.018039811
86	0x3c9193b0	0.017770618
87	0x3c38d732	0.011281775
88	0x3c84aab2	0.016194675
89	0x3bfae041	0.0076561277
90	0x3c307de9	0.010772207
91	0x3ce17f42	0.027526502
92	0x3c2291d2	0.009922462
93	0x3c1323dc	0.0089807175
94	0x3c0eb527	0.008710182
95	0x3ccf5f96	0.025314134
96	0x3c6c11c3	0.014408532
97	0x3beffcd1	0.0073238392
98	0x3c91774f	0.017757086
99	0x3c7ff91d	0.015623358
100	0x3bb6383e	0.005560904
101	0x3be9cdd9	0.0071351347
102	0x3ca8678e	0.020557191
103	0x3d00c4ef	0.03143781
104	0x3c8e69f4	0.017384507
105	0x3c873508	0.01650478
106	0x3bf031ad	0.0073301406
107	0x3bcccc0b	0.0062499098
108	0x3cd7d7b5	0.026347974
109	0x3c028195	0.007965465
110	0x3c800735	0.015628437
111	0x3bb1c294	0.005424807
112	0x3c22c155	0.009933789
113	0x3c7131d7	0.014721355
114	0x3c082328	0.008309163
115	0x3c0fcf14	0.008777399
116	0x3c1781a9	0.009247222
117	0x3c1be8ac	0.0095159225
118	0x3c79c6b2	0.015245127
119	0x3c87cec6	0.01657809
120	0x3c15c51c	0.009141233
121	0x3c5faa04	0.013651375
122	0x3bd886e5	0.0066078776
123	0x3cea05ee	0.02856728
124	0x3b8e5162	0.0043431977
125	0x3bc3ac64	0.0059714783
126	0x3bf611db	0.0075094528
127	0x3c9c9495	0.019113818
128	0x3c46dcd1	0.012137608
129	0x3cba22f3	0.022721743
130	0x3c52e150	0.0128711015
131	0x3c02d604	0.007985596
132	0x3ccb6b44	0.024831422
133	0x3bef3697	0.007300209
134	0x3c69432e	0.014237208
135	0x3ad6fe04	0.0016402607
136	0x3c727316	0.014797946
137	0x3c7a1fe3	0.015266391
138	0x3ca27587	0.019831432
139	0x3ba15459	0.004923385
140	0x3c890e5a	0.016730476
141	0x3c1d4a34	0.009600211
142	0x3c0feef6	0.008785
143	0x3c1f7ede	0.009734837
144	0x3bd50bda	0.006501657
145	0x3bcd804d	0.006271398
146	0x3c969627	0.018382145
147	0x3c080e17	0.0083041405
148	0x3c740ed9	0.014896118
149	0x3cb54807	0.022129072
150	0x3bcb9d50	0.0062138215
151	0x3c0207de	0.007936446
152	0x3b24082c	0.0025029285
153	0x3c952e6c	0.018210612
154	0x3bb17182	0.0054151425
155	0x3cb0fe8b	0.02160575
156	0x3c50ff54	0.0127561875
157	0x3c23e454	0.010003168
158	0x3cc0f8e0	0.023556173
159	0x3b8b5ace	0.004252768
160	0x3c6bbf21	0.01438883
161	0x3c048585	0.008088474
162	0x3bcbd8da	0.006220919
163	0x3c15c263	0.009140584
164	0x3c156930	0.009119317
165	0x3cb6895d	0.022282297
166	0x3c6b9855	0.0143795805
167	0x3cde778e	0.027156617
168	0x3c7948fb	0.015215154
169	0x3c244f35	0.01002865
170	0x3bbc9711	0.005755313
171	0x3bdf8cdb	0.006822211
172	0x3c69a8bc	0.014261421
173	0x3bdecbda	0.0067992033
174	0x3c0d92fe	0.008641003
175	0x3c5743cf	0.013138725
176	0x3c333b86	0.010939484
177	0x3c0240ed	0.00795005
178	0x3bd93190	0.0066282228
179	0x3c094094	0.008377213
180	0x3c347195	0.011013408
181	0x3bcea8d6	0.006306748
182	0x3cf785b8	0.03021513
183	0x3c2b556b	0.010457377
184	0x3bdd5493	0.006754467
185	0x3c8f4fb7	0.017494066
186	0x3c4bdfce	0.012443496
187	0x3bd72629	0.0065658283
188	0x3c7ae971	0.015314446
189	0x3c6c3c2e	0.014418645
190	0x3cbeab9a	0.023275185
191	0x3c5aa89c	0.013345864
192	0x3c29f66a	0.010373691
193	0x3c6d8cab	0.01449887
194	0x3c380a36	0.011232903
195	0x3c2bc237	0.010483316
196	0x3c1b5515	0.009480734
197	0x3c6828d9	0.014169895
198	0x3c804691	0.015658649
199	0x3c6758b4	0.01412027
