models/trained_model2.pth (torch, 420590 bytes, 57 tensors)

embeds.0.weight f4 [10, 6]
00000000: 63d9 173c 042f 173c f400 8dbb 91bf 0fbc
00000010: 1f06 9fbb 67f0 e03b d675 5d3c 5d21 ecbc
00000020: 95be aebc e5ce 163d cdba 11bd cfb9 8e3c
00000030: b768 89bd 2176 a43d 4908 bd3c ef4c 103d
00000040: d96c dfbc d260 87bd 84ea 41bc cce7 f0bc
00000050: f4dd ffbc 26b9 0cbd 321c 70bb e648 14bc
00000060: f316 07bd e881 943c b149 443c c1af c03c
00000070: 1108 e73b ea89 9ebc 8748 0f3d 0664 ed3c
00000080: 4b78 243c 5c72 683d 904c 4ebc 4fe4 18bb
00000090: 7f9a 28bd 7846 493d 4fb2 2c3d fb64 1bbb
000000a0: ed6e fa3c c45a 87bd ac55 e83c f53f 95bd
000000b0: 2e24 5fbd 56dc 51bd 59f7 293d 2dad 0d3d
000000c0: 7bfc 073d 52f9 2dbd 8ba1 e3bc 832d 8aba
000000d0: 187b 7c3c 7796 063d 2afd 333c 2720 d3bc
000000e0: fab1 6ebc 61f6 a5bc f610 e03c a38e 1c3d
0.009268138 0.009227518 -0.004303092 -0.0087737 -0.0048530246 0.0068645957 0.013516864 -0.028824503
-0.021331111 0.036818404 -0.035578538 0.017422585 -0.06709426 0.08030344 0.02307524 0.03522962
-0.027273582 -0.06610264 -0.011835698 -0.029407404 -0.031233765 -0.03435626 -0.00366379 -0.0090505835
-0.03298087 0.01812835 0.01198046 0.023521306 0.007050522 -0.019352872 0.034981277 0.028978359
0.010038446 0.056749687 -0.012591496 -0.0023329442 -0.041162964 0.04913947 0.042162236 -0.0023711312
0.030570472 -0.06609109 0.028361164 -0.072875895 -0.054477863 -0.05123552 0.041495655 0.03458898
0.03319977 -0.0424741 -0.02778699 -0.0010542128 0.015410207 0.03285834 0.010985652 -0.025772167
-0.0145688 -0.020259084 0.027351838 0.038221966

embeds.1.weight f4 [17, 8]
00000000: 3bec 4f3b 2f0e 6b3c 27a5 203c 70df e539
00000010: db8d 2ebc 1313 8dbb 48e3 723a 8377 173c
00000020: 33df d2bc f9e1 84bd 38c1 2a3b c58d 55bd
00000030: 9550 c1bc ab0d 27bc 35d7 613d 1b55 343b
00000040: ee2f 10bc 40f6 713c 7dfb 54bb 5afe 82bb
00000050: 97c1 00bd d283 cb39 91f3 983b 5d4f 553c
00000060: 3fd4 f6bc d337 1bba d51e 92bb 7aa6 50bc
00000070: a237 a8bc 7a87 06bd 4cc3 3c3c 3df4 143d
00000080: e368 593c 71de 56bb 238b 09bd 276e cf3b
00000090: c1ce 00bd d711 a23c 8dcd 113d d1c5 30bc
000000a0: 6e07 fa3b 9994 0e3d ccba 423c 84a9 b93c
000000b0: fe94 583c 6abc de3c 2096 073c c5ca 95bc
000000c0: d162 ed3c b856 1c3d 027a 80bc 2d0d 5a3d
000000d0: 0b11 3a3c bf29 e63c 8aeb f7bc a94a 64bc
000000e0: 99f1 c8ba c3d8 103d 34d7 833c f6e6 f93b
000000f0: 8a5b cd3c 666c 73bc 03ba 573c 86df fc3c
00000100: ca2f 6a3d 1879 053d 36d2 77bc 2ec3 773d
00000110: ee84 bf3c b6fb 5f3c 1f9c 0ebd 6d04 c9bd
00000120: ac74 013d be66 8f3c a62b c0bc 5341 803c
00000130: f17e b13b 8878 9f3c 66e2 7cbc 7215 9bbc
00000140: ff04 253c b2df 213a f2ef 57bc 45f3 76bb
00000150: fa68 303c bd9f 7bbc d3e3 20bb df18 6ebb
00000160: d9c1 0a3c db45 82bc 6bc5 2c3d ca12 17bd
00000170: f570 4dbc 1274 f8bc d4a1 b03c fd11 f63c
00000180: 13d3 ee3b 2ffc 943b 9b77 f53c b0bc 5b3c
00000190: 631d 88bb 674a 0e3b 494b 9d3b dea7 013b
000001a0: a59b 0bbc 51af 6cbc bfd7 603b 10be fe3b
000001b0: 0a49 f1bc 7904 613c 5218 693a ab8b c4bc
000001c0: da0f 63bc e6fa 303c 252a ac3c 9d4c 09bc
000001d0: b0dc 8fbc fc85 7fba 308a ea3c 07bc a6bc
000001e0: 867b 36bd 255d cabc 3895 753d e790 1ebd
000001f0: 99de 2fbc 9f75 35bd 9eb4 793d 2466 943d
00000200: bd58 8cbb 8b8c 24bd a746 3bbc 027d 65bc
00000210: ab95 563c 0d4d f73c 223e 01bd 8863 80bc
0.0031726498 0.014346643 0.009805 0.00043844758 -0.010653938 -0.0043052523 0.0009265435 0.009244802
-0.025741195 -0.06488413 0.0026055109 -0.052137155 -0.023597995 -0.01019613 0.055136878 0.0027516547
-0.00880049 0.014768183 -0.0032498532 -0.003997606 -0.03143462 0.0003881739 0.0046677073 0.01301941
-0.030130504 -0.0005921099 -0.004459242 -0.012735004 -0.02053434 -0.032844044 0.011521172 0.036365736
0.013269636 -0.0032786394 -0.033579957 0.00633027 -0.031447176 0.019783897 0.03559642 -0.010789351
0.00763028 0.034809683 0.011885356 0.02266384 0.013219116 0.027189452 0.008275539 -0.018285165
0.028977783 0.03816864 -0.015683178 0.05323522 0.011356602 0.028096078 -0.030263681 -0.013933816
-0.0015330791 0.03536297 0.016093828 0.0076264096 0.025068063 -0.014857387 0.013166907 0.030868303
0.05717448 0.032586187 -0.015125802 0.060488872 0.023378816 0.013670852 -0.034816857 -0.09815297
0.031605408 0.017505046 -0.023458313 0.015656149 0.005416744 0.019466653 -0.015434837 -0.018931124
0.010071992 0.0006174996 -0.013179766 -0.003768162 0.010767216 -0.015357909 -0.0024549856 -0.0036330742
0.008469068 -0.01590245 0.04218046 -0.036883153 -0.012539138 -0.030328784 0.02156154 0.030037874
0.0072883456 0.004546664 0.029964259 0.013411686 -0.004153894 0.0021711828 0.0048002345 0.0019783895
-0.008520995 -0.014446096 0.0034308282 0.007774122 -0.029453773 0.0137339765 0.00088918686 -0.02399238
-0.01385876 0.010802006 0.02101619 -0.008380082 -0.017561287 -0.0009747443 0.028630346 -0.02035333
-0.044551395 -0.024702618 0.05995676 -0.03871241 -0.010734224 -0.044301625 0.060963266 0.07246044
-0.0042830394 -0.040173095 -0.011430419 -0.014006855 0.013097207 0.030188108 -0.031553395 -0.01567246

embeds.2.weight f4 [8, 5]
00000000: ecdf 40bb e46e f8ba c78b abbb f92e 493c
00000010: 067a 1d3a 226a 39bd dee9 6bbb 15b4 853d
00000020: 27fa a63d 3648 0b3d 185d 873d 1d5f 0fbd
00000030: f12f 1bbd 4490 83bd 910c 92bd 6407 5b3d
00000040: 978f aa3b fadd 97bd 8eb2 9bbd 6aa7 56bd
00000050: 7464 c3bc 8a57 d33c 9a83 1a3d 3d0c 2a3d
00000060: a333 113d dc75 70bd faf1 273d f751 723d
00000070: b29a 733d 156d 6f3d 68a8 60bd 77b6 05bd
00000080: ed89 413d cf9b 093d e582 093d 7cec d53b
00000090: 222c b93b 6052 753b 7c23 ab3c aa8d bd3c
-0.0029430343 -0.0018953946 -0.0052351686 0.012279266 0.00060072576 -0.04526723 -0.003599755 0.065284885
0.081531815 0.034004413 0.06609553 -0.035002816 -0.037887517 -0.06424001 -0.07131303 0.053473845
0.0052051055 -0.074153855 -0.07602416 -0.052405752 -0.02385161 0.025798578 0.03772316 0.041515578
0.035449635 -0.05870615 0.04100225 0.0591602 0.0594737 0.058453638 -0.054848105 -0.032644715
0.047250677 0.033595856 0.033572096 0.0065284353 0.005651013 0.0037433133 0.020890944 0.02313884

embeds.3.weight f4 [16, 8]
00000000: e1ec 49bb a77e b63a 8a7b e33b f6d4 76bb
00000010: c629 b83b f43f cbbb 2fa0 333a 8221 aebb
00000020: 35af 043d 4799 2a3d 9ceb 1ebd 5c99 0a3d
00000030: d55a c03c 9b9f 3ebc 9d1a 1ebd fce7 0b3c
00000040: 3205 d73c d73b c73b cec6 b8bb 01e9 933c
00000050: c390 a6bc ffc3 9fbc a466 8dbc 349c 543c
00000060: e7a0 783b d667 aa3c 9e1f 95ba 3a4b db3b
00000070: 982d 263d 35f2 c9bb 7f3f 423c 1e21 0ebd
00000080: 07c3 6abb 412c 0b3d 6d08 61bb d4ae 40ba
00000090: d126 b53c 7a8d a7bc fc75 02bc 7269 ddbc
000000a0: 9a5f 56bd fcb8 29bd 6c77 743d 6ffd 3ebd
000000b0: 368a 863c a446 503d 4811 443d b209 153a
000000c0: 03a0 853d 806f 693d 1625 a6bd 0a9b 833d
000000d0: f133 fc3c faf6 a1bd 45ec 49bd f6b1 51bd
000000e0: 1432 653d 8b6e 753d 589b 59bd dcdd e23c
000000f0: 24fa 3e3d 69f8 a3bd e8ff 7cbd a2d3 0a3c
00000100: 3482 4c3d 8ada e33c c6e2 3fbd 5942 373d
00000110: 0d56 ecbb ff33 2bbd 0ab1 bfbb 48ca 1cbc
00000120: dce4 7a3d f3c2 5e3d 1ba4 d6bd 392a 793d
00000130: e8a0 883c cc05 4bbd dac8 66bd 3c8f bd3c
00000140: ce22 5c3d 2d79 493d 89bd 01bd da29 263d
00000150: 47e3 9e3c 5aa4 90bc f7e7 acb9 311c 88bc
00000160: c163 cabc 35dd 09bd e111 5e3c d531 58bd
00000170: 9feb 37bd 7702 2d3d 67a9 00bc 13d9 383d
00000180: eda9 74bd 5bcf 39bd d783 003d 53b8 bfbc
00000190: 9364 6e3b 8a9e 313d ed9b 073d d947 88bc
000001a0: 8b5d d2bc f157 86bc 90f8 8a3c 3691 44bb
000001b0: 0b8e 8bbb a8b9 5b3c 470e 833c deb5 9fbc
000001c0: 00f8 da39 8ad8 35bd 4425 223d 99d9 52bd
000001d0: a386 31bd cc3b 183d eeaf bb3c 153f 363d
000001e0: 69d8 ae3c 7ceb fe3c bb67 debc 6b73 333c
000001f0: 279d 043d d98e a6bc f052 93bc 3d7f 99bc
-0.0030811357 0.0013923243 0.0069422172 -0.0037663556 0.005620214 -0.006202692 0.00068521773 -0.005314053
0.032393653 0.041650083 -0.038798913 0.03383766 0.023480812 -0.011634733 -0.0385996 0.008539196
0.026247595 0.0060801315 -0.0056389337 0.01805544 -0.0203327 -0.019502638 -0.017260857 0.012976695
0.0037937702 0.020801466 -0.001137722 0.0066923173 0.040570825 -0.0061629065 0.011855959 -0.03469955
-0.0035821812 0.03397775 -0.0034337298 -0.000735027 0.022113236 -0.020453203 -0.0079627 -0.02702782
-0.052337267 -0.04143618 0.059684202 -0.04662841 0.016423326 0.05084862 0.047868043 0.00056853436
0.065246604 0.0569911 -0.08112542 0.06426056 0.030786486 -0.07908435 -0.04929759 -0.051195107
0.05595596 0.059919875 -0.053126663 0.027693681 0.04662527 -0.08006365 -0.06176749 0.008473309
0.04992886 0.027814168 -0.046847127 0.04474101 -0.0072124065 -0.041797634 -0.005849962 -0.009569712
0.061253414 0.054385137 -0.104805194 0.060831282 0.016678289 -0.049566075 -0.05634389 0.023139589
0.05374413 0.049187828 -0.031674895 0.040567257 0.019395484 -0.017656494 -0.00032979224 -0.016615005
-0.02470577 -0.033658225 0.013554067 -0.0527819 -0.04490244 0.04223868 -0.007852889 0.045128893
-0.059732366 -0.045363765 0.031375732 -0.023403322 0.0036375865 0.043364085 0.033107687 -0.016635822
-0.02567937 -0.016399356 0.016964227 -0.002999378 -0.004258876 0.013410963 0.015998019 -0.0194959
0.00041764975 -0.04439596 0.03958632 -0.05147705 -0.04334129 0.0371664 0.022911038 0.044493753
0.021343427 0.031118147 -0.027149072 0.010952811 0.032376435 -0.020331787 -0.017983884 -0.01873743

embeds.4.weight f4 [7, 5]
00000000: 330f e43a a3a3 eebb 503f c6bb 9a92 903c
00000010: af89 683c 4479 68bc 3667 cb3c f568 043d
00000020: 3dfe 0bbd e764 0c3d 42b0 143d 20d5 0fbd
00000030: 9935 31bd 02ba a33c 1adc 02bd f13d 693d
00000040: 1803 82bd 05c7 5dbd e1a9 10bc 02ad 82bd
00000050: 8c0a 863d e601 77bd b832 43bd c24a 883c
00000060: efc6 77bd fe52 a23d f44a 17bd 85e0 33bd
00000070: fd0b d1bc 614c 8ebd 300c 06be 5df8 b93d
00000080: 0358 c43d ebf5 593d dd05 c83d
0.0017399549 -0.0072826906 -0.006050028 0.01764803 0.014192983 -0.014189068 0.024829488 0.032326657
-0.034178007 0.034275915 0.036300905 -0.03511536 -0.043264005 0.019986156 -0.031948186 0.056943838
-0.06348246 -0.054144878 -0.008829565 -0.06380655 0.065449804 -0.060304545 -0.04765579 0.01663721
-0.060492452 0.07925986 -0.036936715 -0.04391529 -0.025518412 -0.06948162 -0.13090587 0.09080575
0.095870994 0.05321304 0.09766743

embeds.5.weight f4 [6, 4]
00000000: e231 943a bcc0 7b3c e3d0 17b9 47f3 8abb
00000010: b6a5 2bbd 12d9 3abd 39df a6bc ed1c a73d
00000020: e3b8 9abb 8756 faba 9c9a 733b f498 3d3c
00000030: 7500 37bc a1c0 dfbc 4eaa 4ebd a39a 283c
00000040: 5818 5fbc 9e29 82bd fe94 18bd 07a4 423d
00000050: 36ae 403d 1155 eb3c 6b1b 433d b05a eebc
0.001130637 0.015365776 -0.00014478299 -0.0042404267 -0.04190608 -0.04561717 -0.020370113 0.08159814
-0.0047217472 -0.0019099273 0.0037171012 0.011572111 -0.011169543 -0.027313532 -0.050455384 0.0102907745
-0.013616644 -0.06355594 -0.037251465 0.04751971 0.04704114 0.028727086 0.04763357 -0.029095978

embeds.6.weight f4 [3, 3]
00000000: bf0b fd3a 27e5 23bb 9c5b c7ba d127 a93d
00000010: 73d5 853d 884f 85bd 9ab2 79bd 30f2 14bc
00000020: 3fcf 863d
0.0019305869 -0.0025008412 -0.0015209797 0.082595475 0.06534853 -0.0650931 -0.060961343 -0.009090945
0.06582498

embeds.7.weight f4 [43, 13]
00000000: 5fb3 13bb d198 32bb 3759 903b d6e6 a13c
00000010: 3254 81bb 89ed 18bc 7ec9 c63b 68db 963b
00000020: ca2f a3b9 55ce b73b 451c 94bb dce1 913c
00000030: 330f e9bb e564 8abc e9d1 48bd 198b 353b
00000040: d07a 013d 9dac e83c 144e 113d 1d08 503d
00000050: 92ac e73c 89eb ad3b 6f4e 1b3d a3bd afbb
00000060: 9d83 dfbb 803f 4dba 5e7a d83c 346d 00bb
00000070: b5c0 bf3c 2ebc 5abd 2ac0 81bc 0485 67bc
00000080: 55dc 06bd a630 063c 04f9 bc3c 79d9 a8bc
00000090: b556 be3c 1e07 243c c635 84bc 9ef9 b8bc
000000a0: 5de5 8fb9 7658 3b3d db7b f53c aa5f 83bc
000000b0: fad8 003c d9ad 0fbc 9650 13bd b171 b3bc
000000c0: e2e6 e7bc 96b4 2d3c fcce d03c 5b6b 1fbd
000000d0: 9f88 4c3a f58c bcbc 2107 6ebc e8ab 99bb
000000e0: 30a5 133d 44e9 cf3c 3231 423d bd2f 0bbd
000000f0: 2cf6 1c3d 311e 133d 6ec4 30bd 98df 32bb
00000100: 5528 b4bc 060f 153c ae35 a3bd 5286 34bc
00000110: 385e cabc c240 793d 237a 6a3d 556b 4e3d
00000120: aeaf d43a 5f5a 5d3d e918 8f3d dd1b 46bd
00000130: b543 4cbd 9bb0 82bd 27e0 6ebc d52d 1bbc
00000140: 65f8 643d 0133 da3c a80a 17bc fb0c 293c
00000150: e94c 44bc 4a71 973c 8aa3 de3c e135 debc
00000160: 8cac 053d 08ce 3f3d 1f86 73bd 8048 8eba
00000170: e1bf 0cbd 57ec db3a a4da 06bc e287 8f3c
00000180: e25c 233d 6c74 283d 57d3 99bb b0b1 233c
00000190: 00e7 ad3c 5e02 b2bc 38d6 edbc f865 e3bc
000001a0: b932 ecbb 403f 34bd 0efe 2fbc e13d 8a3b
000001b0: 3ebb 1d3d 4a3d 253d aefc ec3c d92f 66bc
000001c0: e2d6 803d 7cf3 683d 6b0a 26bd 06ce 25bd
000001d0: 9e3a 0bbd fb14 073d 6791 22bd 0591 36bd
000001e0: 0084 63bd 79d1 f43c 475c 463d baf5 3e3d
000001f0: 98a8 bbbc c1f9 c13c 5655 523c 61ec 59bc
00000200: 24d9 47bd ddd7 51bc e5d9 bbbc aa4a 8fbb
00000210: dd95 313d 6c69 43bd fdaf 47bd 5db3 a9bc
00000220: 61c2 a2bc 8ada ed3b f947 d93b 0c6b 18bd
00000230: 837d 633d 4937 6d3d c810 3eba 50d1 74bb
00000240: 24bb 693c 2668 133c f764 913c 0cd2 babc
00000250: fd60 c4bc 2c7a 20bc 40f1 193c 0a04 8fbc
00000260: 5074 f6bb be0d f53c c334 7d3c 292f 8cbc
00000270: 51b7 5ebd abf0 4c3c 5af8 603c 21bb 253d
00000280: 3df5 06bd 6dba 0bbc d871 ad3b 7cfa 543d
00000290: b192 dfbc af60 20bd d0d2 803c f80a 013d
000002a0: 29aa 4cbc dbdf 7f3c 351f 6abc d2e2 083d
000002b0: ee2e 37bc 2016 ac3c 00ca b93c 787e 213d
000002c0: 640a 73bc 0284 fa3c ecd4 203c d25d a33b
000002d0: 0783 243c 16ce 9cbb 0313 2d3d 5269 90bc
000002e0: d194 06bd ae55 19bd 236f 803c 5c21 ca3c
000002f0: ed75 2dbc e74c 68bc 9fc4 c93c 5f29 943c
00000300: 73e7 31bc 844b 0cbd 602f dd3c 469b 8e3c
00000310: c566 283c 4793 b3bc 76d6 83bc fb75 ccbb
00000320: 6379 7a3a d1b1 fa3c ff37 54bc f57e 0bbc
00000330: b7d7 73b9 5c2d 183c 0120 3dbd a011 41bc
00000340: e1c2 3dbb ab45 95ba eda6 56ba dfa3 e1b9
00000350: a35d ccbb b8fd 92bb a824 9a3c 6e2d fa3c
00000360: 470e cfbc 6e27 dd3c 6319 ffba bf39 72bb
00000370: 803a 80bb e13b fe3b b58c a6bb 117d 2bbc
00000380: 5af3 f3bb aafa 743b 8cfa 75bc 849e 383c
00000390: f736 643c f622 1d3c 139d 6b3c c680 c53c
000003a0: 0589 42bc e34a 043c f767 7a3d 1a53 d5bb
000003b0: bdf2 373d 20ed 41bd ff77 0ebd 41b8 adbc
000003c0: f2e4 52bd 2409 f53c fc49 3c3d 8d23 acbc
000003d0: aa69 e93b 8e82 ccb8 2f19 863c 13bc 3b3c
000003e0: e030 dfbb 311c 5abd 59cf 7ebd db19 ab3b
000003f0: eacc 65bc 58fa 6b3c 8a3c 5ebc 9c1c 853c
-0.0022537333 -0.002725173 0.0044051665 0.019763391 -0.0039468044 -0.009333977 0.0060665 0.004603792
-0.00031125388 0.0056093135 -0.0045199716 0.017807893 -0.0071124076 -0.016893813 -0.04902831 0.0027701317
0.031611264 0.02840262 0.03547485 0.050788987 0.02828053 0.005307619 0.037916597 -0.0053631826
-0.0068211094 -0.00078295916 0.026425537 -0.001959634 0.02340732 -0.05340212 -0.015838701 -0.0141308345
-0.03292497 0.00819031 0.023067959 -0.020611512 0.023234705 0.0100114625 -0.016138922 -0.022579964
-0.00027445974 0.04573866 0.029966285 -0.016036827 0.007864231 -0.008769476 -0.035965525 -0.021904798
-0.028308336 0.010602137 0.025489323 -0.03892074 0.00078023406 -0.023016432 -0.014528067 -0.0046896823
0.036046207 0.025379784 0.047410198 -0.033981074 0.038320705 0.035917465 -0.04315608 -0.0027293917
-0.021991888 0.00909782 -0.07969223 -0.011018353 -0.02470313 0.060852773 0.057245385 0.05039533
0.0016226673 0.054041263 0.06987173 -0.048366416 -0.049869258 -0.06381341 -0.014579809 -0.009471376
0.05590095 0.026635649 -0.009218849 0.010318036 -0.011981227 0.018486638 0.02717759 -0.0271253
0.032635257 0.046827346 -0.05945408 -0.0010855347 -0.034362677 0.0016778809 -0.008230839 0.017520849
0.0398835 0.041126654 -0.004694383 0.0099910945 0.021228313 -0.021729644 -0.029032812 -0.027758583
-0.007208195 -0.044005632 -0.010741724 0.0042188023 0.038508646 0.040341653 0.02892908 -0.014049494
0.06290986 0.05687283 -0.04053728 -0.040479682 -0.03399145 0.032978993 -0.039689448 -0.044571895
-0.055545807 0.02988504 0.048427846 0.04662106 -0.02290754 0.023678662 0.0128377285 -0.013300986
-0.048791066 -0.0128078135 -0.022931049 -0.0043729143 0.04335581 -0.04770796 -0.04875182 -0.02071541
-0.019868078 0.007258718 0.0066308943 -0.037211463 0.05553962 0.057914052 -0.00072504254 -0.0037356205
0.014265809 0.008996999 0.01774834 -0.022805236 -0.023972029 -0.009794753 0.009395897 -0.01745798
-0.0075211897 0.02991378 0.015454474 -0.017112331 -0.054374043 0.012508552 0.013731087 0.040461663
-0.03294872 -0.008528334 0.0052931122 0.051996693 -0.027291628 -0.039154705 0.015725523 0.0315046
-0.012491741 0.015617336 -0.014289667 0.033419438 -0.0111806225 0.021006644 0.022679329 0.03942725
-0.01483402 0.030580524 0.0098163895 0.0049855495 0.010041005 -0.0047853095 0.04225446 -0.017628346
-0.032856766 -0.037435226 0.015677994 0.02467411 -0.010587198 -0.014178491 0.024629889 0.018086134
-0.010858404 -0.034251705 0.02700013 0.017408025 0.010278408 -0.021920813 -0.016093474 -0.0062396503
0.0009554831 0.030602368 -0.012952804 -0.008514156 -0.00023254646 0.009288158 -0.0461731 -0.011783987
-0.0028955268 -0.001138856 -0.0008188326 -0.00043037438 -0.0062367483 -0.004485812 0.018816307 0.03053924
-0.025275363 0.02699634 -0.0019462522 -0.003696069 -0.0039132237 0.007758603 -0.0050826916 -0.01046683
-0.0074447813 0.0037380853 -0.015013348 0.011268262 0.01392912 0.009590855 0.014380711 0.024109256
-0.011873488 0.008074495 0.061134305 -0.0065101506 0.044909228 -0.04734528 -0.034782406 -0.021206023
-0.05148787 0.029911585 0.045968994 -0.021013046 0.007123192 -9.751796e-05 0.01636943 0.011458415
-0.0068112463 -0.05324954 -0.06220946 0.005221588 -0.014025906 0.014402948 -0.013564238 0.016248994

bn_cont.weight f4 [6]
00000000: e559 7d3f affe 663f b0db 763f aea6 883f
00000010: e223 813f 9de1 713f
0.98965293 0.90232366 0.96428967 1.0675867 1.0089076 0.94484884

bn_cont.bias f4 [6]
00000000: 7b84 5fbd dded 9dbc 5013 c4bc 4759 4fbd
00000010: afc8 adbc ea7b a1bb
-0.054569703 -0.019278461 -0.02393499 -0.05062225 -0.021213857 -0.004928102

bn_cont.running_mean f4 [6]
00000000: 8ec9 7c3c 85d1 d8bc bdba 1b3d 26b2 213d
00000010: a26c 583c 9797 77bb
0.015428914 -0.026467094 0.038019884 0.039476536 0.013209494 -0.0037779564

bn_cont.running_var f4 [6]
00000000: 5e26 853f 6fc9 6e3f 1894 7d3f f725 b33f
00000010: 16a7 843f 8e55 893f
1.0402334 0.93276113 0.990541 1.3995961 1.036349 1.0729234

layers.0.0.weight f4 [200, 58]
00000000: 4433 09bd 9292 d83c fa84 acbd fe09 9cbd
00000010: 62f8 953d a68e 8f3b 6b71 123e b2ae a1bd
00000020: 0349 00be 547f 883c f55e 8e3d 888e 9e3d
00000030: f232 d03d 56aa 483d 15c6 fbbc f9aa a9bd
00000040: f298 51bc a8f3 82bd 3f65 3cbb ec26 a53d
00000050: aaf2 923d 35f9 8dbd 72f5 073d c696 39bd
00000060: 523b 26be 3e9a b73d c36c 1bbd 9e91 9d3d
00000070: efd0 b6bd fc59 2abd 09fb c0bd 1b8d 0fbe
00000080: d76d 133d 394a 253d 278f 863d a148 ad3c
00000090: e8dc 1dbe ac96 623d 35f4 a2bd 2ab5 01bd
000000a0: e390 0ebe 892a 17bd 0f68 29bd 7c83 1b3d
000000b0: 0591 533d 2be4 003d b61e e0bc 3df0 a0bd
000000c0: 27eb 963d 40cb a13d dd4f c6bd 92f5 f23d
000000d0: 8e6e e8bd d325 003e a07a 53bd 0cd7 c13d
000000e0: d356 e2bd 30fd 09be fff9 2ebd a6c3 f8bd
000000f0: 9fda b5bd bb8c 753d 7587 b13b 3263 053d
00000100: 540c 5ebc 571d 7f3d 5efb 97bc 139f 00bd
00000110: 35e0 d0bd 160b d63d 7da5 543d fe4f 34be
00000120: 6051 84bd 234e 12bd a968 01be 4974 75bd
00000130: 0ae7 cc3d 0b6f b6bd 5b0f 40bc a941 223e
00000140: 166b c7bd 77d6 d33c 5ce9 1d3c 4456 893d
00000150: b9d1 0dbe ef33 35bd 05eb c33d ce67 c53d
00000160: 5981 813d 28f1 c7bd 6091 c4bd b48a 14be
00000170: 6348 ba3d 6ce2 5f3c 5de3 89bb f52d 953d
00000180: 2ae4 fdbc 91ad 363d 4d7c 923d 50fc d8bd
00000190: e442 fcbb 24e0 7dbd e7eb 943d 34cf c33d
000001a0: 695f d0bd bd80 8ebd c024 88bd f0aa bb3d
000001b0: 0554 2fbe 9155 803d 4210 44bd 208e b43b
000001c0: 702b c9bd ce5b a83d 57f0 96bd 7f49 debd
000001d0: ce10 b5bd b86e cd3d dcf3 69bd 354e f4bd
000001e0: eb77 d13d 00d0 ffbd 596c c2bd daf4 573d
000001f0: a00c 7e3d 1135 f7bd 8c14 a9bc 2b15 cc3d
00000200: c647 d7bc df31 113e abec 02bc 5c7c c33d
00000210: 499e 1a3e 2ca9 163d 3024 813d 4f5c 96bd
00000220: 0512 cbbd 0e62 a03d a04c a2bd 91e6 563d
00000230: 6c5c 7e3c 2f22 c73c 1f92 6c3d 174a 9e3d
00000240: 6c14 20be aead cdbd 1114 f2bd b6a4 c8bd
00000250: f80a 2fbd e85e 53bd be43 033e 6df4 c73d
00000260: 2e2e f8bd f38d 4fbd c169 c93d d6ea 4a3d
00000270: 7beb f13d f7c0 08bd 1950 8b3d b7a3 de3c
00000280: 86c3 a33d 3d98 733d 63bb c63c 642f 5fbc
00000290: 4dd0 0b3d d8d0 20bd 54cc d3bd 5bd7 cf3d
000002a0: 7ea1 573d f86c cfbd b47b f43d 464f 843c
000002b0: 38a3 303d 7b9f 47bd e306 9abd c918 62bd
000002c0: b0e9 c1bc c418 06be cca8 073d b012 98bd
000002d0: e9e6 a33d 74e1 3ebd 0c02 bcbd 4978 bb3b
000002e0: 9cd5 843d 0be9 b33d bbf2 8d3d b8b6 413d
000002f0: 75b0 ce3d f317 4a3c a4c5 14bd 7b7c 8f3c
00000300: d763 c7bd 76d9 9bbc 2d80 87bc d8c6 78bd
00000310: 13ed 8c3d ba0b 893d 63fa 8f3d 97f9 22bd
00000320: 26ed d0bd 23af 893c f5b7 ddbd d800 10bc
00000330: a50d a03d 20f9 0cbe 32fa 05be c07f ba3c
00000340: f8fe eabd 7ffa 063d 176d 083e 5474 bebd
00000350: a454 dbbd 6c2f e53c 3095 de3c 593e d0bd
00000360: d5db bebd 74ba d2bc 1257 ddbc 8125 0ebe
00000370: 6913 d7bd e2a3 f03d fe6c 65bd 4c85 8cbc
00000380: bc64 dabd fc4d 683b ee79 163d 1c8b ddbd
00000390: cd78 973c 77a2 b93d 6541 57bd e0c7 a93d
000003a0: 3b38 9dbd 96de 783d 9705 c4bc e6d1 d13d
000003b0: 39a6 8cbd c6dc 83bd 501f d6bd 5090 eb3d
000003c0: 8193 babc 02d1 c7bc fbbd 87bc 4faf 09bc
000003d0: 2fd0 2d3d 6de0 ee3d 953e 0d3e 42c1 f93d
000003e0: 8dc1 e7bc 8edd e1bd a09e 2bbd bb18 af3d
000003f0: 70ca 5e3d 4f6e 8f3a 0306 f0bd 9507 e83d
-0.033496156 0.026437078 -0.08423801 -0.07619093 0.07322766 0.0043810187 0.14301078 -0.078946486
-0.12527852 0.016662277 0.06951705 0.077420294 0.10165967 0.04899057 -0.030734101 -0.082845636
-0.012792813 -0.0639413 -0.002874687 0.080640644 0.07175191 -0.06932298 0.03319306 -0.045309804
-0.16233566 0.08964966 -0.03794552 0.0769379 -0.0892657 -0.041589722 -0.09422881 -0.14018671
0.035993423 0.040353987 0.06570273 0.021152796 -0.154163 0.055319473 -0.07956735 -0.031666912
-0.13922457 -0.0369058 -0.041359004 0.03796719 0.051651973 0.031467598 -0.027358394 -0.07858322
0.073690705 0.07900095 -0.096832015 0.11863245 -0.11349212 0.12514429 -0.051630616 0.09464845
-0.11051717 -0.1347549 -0.042718884 -0.12146692 -0.08879589 0.059948664 0.005417759 0.032565303
-0.013552744 0.06228384 -0.018552478 -0.031401705 -0.10199014 0.10451333 0.051915634 -0.1760864
-0.064608335 -0.03571905 -0.12637581 -0.05992535 0.10005005 -0.089078985 -0.011722411 0.1584536
-0.09737222 0.0258591 0.009638157 0.06705907 -0.13849534 -0.04423898 0.09566311 0.0963894
0.06323499 -0.09762794 -0.095980406 -0.14506036 0.09095838 0.013664823 -0.004208012 0.07284156
-0.030992586 0.04459912 0.07152615 -0.10595 -0.0076984037 -0.061981335 0.07271557 0.09561005
-0.10174448 -0.06958149 -0.066476345 0.09163463 -0.17121895 0.062663205 -0.047867067 0.0055101067
-0.09822738 0.08220635 -0.0737006 -0.10853862 -0.08841096 0.100308836 -0.057117328 -0.11928979
0.10227951 -0.12490845 -0.09493322 0.052723743 0.06202376 -0.120706685 -0.02063968 0.09964975
-0.026279341 0.1417918 -0.007990996 0.09545204 0.15099443 0.03678243 0.0630573 -0.07341825
-0.09915546 0.078312024 -0.07924771 0.05246598 0.015524965 0.024308292 0.05775654 0.07728975
-0.1563279 -0.100428924 -0.118202336 -0.09797041 -0.04273507 -0.05160418 0.1281881 0.097634174
-0.12118183 -0.050672483 0.09834624 0.049540363 0.118124925 -0.03338715 0.06802387 0.027177675
0.079962775 0.059471358 0.024259275 -0.013622139 0.034134198 -0.03926167 -0.10341707 0.10148498
0.052644245 -0.10128206 0.11937657 0.016151082 0.043124408 -0.048736077 -0.07520845 -0.05519942
-0.023671001 -0.13095385 0.03311996 -0.07425439 0.08003027 -0.046601728 -0.09180078 0.005721126
0.06486055 0.08784684 0.06931063 0.047293395 0.1009225 0.0123348115 -0.036321297 0.017515412
-0.0973584 -0.019024592 -0.016540611 -0.060736507 0.06881156 0.0669169 0.07030179 -0.03978881
-0.102014825 0.016807145 -0.10826103 -0.008789264 0.078151025 -0.13766909 -0.13083723 0.022765994
-0.11474413 0.032953735 0.13322864 -0.092995316 -0.10709503 0.027976714 0.027170748 -0.10168142
-0.093192734 -0.025723673 -0.027019057 -0.13881494 -0.10501749 0.11750008 -0.056012146 -0.017153405
-0.10663745 0.0035446873 0.036737375 -0.10817549 0.01849022 0.09064191 -0.0525526 0.08290076
-0.07676741 0.06075915 -0.023928447 0.10245113 -0.06867642 -0.064385936 -0.10455191 0.11502135
-0.022775413 -0.024391655 -0.016570082 -0.008403613 0.042434867 0.116638996 0.13793404 0.12195064
-0.028290534 -0.11028586 -0.041899323 0.08549639 0.05439228 0.0010942909 -0.11719897 0.11329571

layers.0.2.weight f4 [200]
00000000: ccaa 773f 9e1d 823f c18b 7a3f 0bf9 793f
00000010: 6415 7f3f 1a9d 803f 7691 783f a092 803f
00000020: 911f 803f 707d 813f c70f 803f e68a 803f
00000030: 894d 7b3f 1ea5 803f 05e8 803f 0c01 7d3f
00000040: 13a3 7f3f d262 7f3f 1e79 823f 1929 813f
00000050: 2c04 813f 0cb6 833f b7e9 803f 3d88 7c3f
00000060: 1a40 863f 7214 803f 1351 803f e2ed 7c3f
00000070: 96cc 823f 5fcc 7e3f b4a4 7d3f b072 823f
00000080: c211 783f 8a6c 7e3f da26 7b3f ebfc 7c3f
00000090: b72b 7c3f fcbc 803f 46ba 7e3f 24d6 803f
000000a0: a047 803f eb27 733f 8c93 853f ee48 833f
000000b0: b6e5 833f 9db2 7f3f a375 7c3f 5249 813f
000000c0: 3657 833f 0429 823f b44c 7c3f 07ba 823f
000000d0: 55f2 823f b89d 813f 6ae9 843f 15f4 7f3f
000000e0: 67b2 833f 68f8 7e3f 265e 7d3f 2d77 823f
000000f0: f284 7d3f fa36 803f 9236 7a3f 2a4b 853f
00000100: 415d 7b3f e318 7e3f dd3e 803f 4b70 7e3f
00000110: 2054 7c3f af09 823f c013 7f3f a0c7 7d3f
00000120: 7a3b 7d3f 76cc 843f 04f0 7a3f 48a5 7f3f
00000130: 7fa9 7d3f 622d 813f 031e 7a3f c6fe 833f
00000140: 51a1 7c3f 3005 7a3f 7d96 803f 320c 803f
00000150: 441e 7e3f e1ed 793f 0c56 833f 8329 823f
00000160: 90e7 803f 480d 803f 9715 803f 7ce3 803f
00000170: e903 7e3f c81d 803f e306 7f3f 1761 823f
00000180: 3e77 7d3f c0c0 803f 30bc 823f b7fd 7d3f
00000190: c05c 803f 8175 7b3f f9bf 7f3f c706 823f
000001a0: 366a 7f3f ec5a 7e3f 6da6 823f 96fc 7f3f
000001b0: 705a 803f 5593 813f d8c7 7b3f 8660 793f
000001c0: b5e2 803f 0259 7a3f 20f0 7d3f 68c6 7a3f
000001d0: 26e7 7f3f 76e8 813f da1a 833f efe0 813f
000001e0: b10d 803f 2475 823f 2273 773f 4593 823f
000001f0: 7bdc 6f3f 9e70 823f c61d 7f3f 6d76 7b3f
00000200: 837b 813f ec88 7e3f 7ddc 7f3f d2b7 7e3f
00000210: ba45 813f 2e46 823f 95e1 803f 6cc0 823f
00000220: 8717 803f b30a 7e3f 661c 7e3f 1d14 813f
00000230: 56ab 813f c176 7e3f 7b4f 7c3f e9c6 7b3f
00000240: e54f 813f 881a 7d3f bdb8 7f3f 5708 773f
00000250: cdbc 7a3f dcb8 7f3f c8cd 7d3f c234 7e3f
00000260: cfef 833f ae47 803f 415f 803f de76 853f
00000270: 356c 873f b7a8 7f3f 4f63 813f 92fe 7f3f
00000280: 6920 813f b209 803f 6764 7d3f ecf1 7f3f
00000290: 628a 803f ad7f 7b3f 67e0 813f 61b1 823f
000002a0: bd65 803f 4a1a 7e3f 8674 7b3f 6093 7d3f
000002b0: a897 7e3f 3c2b 7a3f 10ce 7d3f 6932 803f
000002c0: ab2f 7b3f d348 833f 1096 7c3f 6528 7c3f
000002d0: 158b 783f 2ea1 803f aee4 783f 837c 823f
000002e0: 397f 803f a025 7f3f 509f 813f 1c5c 843f
000002f0: c1aa 7e3f b901 813f 52d3 803f f875 7d3f
00000300: 37ae 7d3f 9674 7d3f 2d01 813f 817f 7d3f
00000310: 6e7e 823f 0e72 793f df36 853f fdb3 753f
0.9674499 1.0165288 0.978695 0.97645634 0.99642015 1.0047944 0.97096956 1.0044746
1.0009633 1.0116405 1.0004815 1.0042388 0.98165184 1.005039 1.0070807 0.9882972
0.99858207 0.9976016 1.0193212 1.0090667 1.0079398 1.0289931 1.0071324 0.98645383
1.0488312 1.000624 1.0024742 0.9880048 1.0218685 0.99530596 0.9907944 1.019125
0.96902096 0.9938437 0.9810616 0.9882342 0.98504204 1.0057673 0.9950298 1.006535
1.0021858 0.94982785 1.0435653 1.0256631 1.0304477 0.9988192 0.98617 1.01005
1.026099 1.0168767 0.9855454 1.0213021 1.0230204 1.0126257 1.0383732 0.99981815
1.0288819 0.9959779 0.98971784 1.019262 0.99030983 1.0016778 0.9773952 1.0413563
0.9818917 0.99256724 1.0019184 0.99390095 0.98565865 1.0159205 0.9963951 0.9913273
0.9891888 1.0374897 0.98022485 0.99861574 0.99086756 1.0091975 0.97702044 1.0312126
0.9868365 0.97664165 1.0045925 1.0003722 0.9926493 0.976286 1.0260634 1.0168918
1.0070667 1.0004053 1.0006589 1.0069423 0.99224716 1.0009089 0.99619883 1.018588
0.99010074 1.0058823 1.021368 0.99215263 1.0028305 0.9822617 0.999023 1.0158318
0.9977144 0.99357486 1.0207039 0.9999479 1.0027599 1.0123087 0.9835181 0.9741291
1.0069185 0.97792065 0.99194527 0.97958994 0.9996208 1.0149066 1.024257 1.0146769
1.0004178 1.0191998 0.96660054 1.0201193 0.936958 1.0190618 0.99654806 0.9822758
1.0115818 0.99427676 0.99945813 0.9949924 1.0099404 1.0177667 1.0068842 1.0214972
1.000718 0.99235076 0.9926208 1.0084263 1.0130413 0.99399954 0.9855878 0.9835039
1.0102507 0.9886861 0.99891263 0.964971 0.9794434 0.9989145 0.9914212 0.9929925
1.0307559 1.0021875 1.0029069 1.04269 1.0579897 0.99866813 1.0108432 0.9999782
1.0088016 1.0002959 0.98981327 0.9997852 1.0042231 0.9824169 1.0146607 1.0210382
1.0031048 0.99258864 0.98224676 0.99053 0.9945016 0.9772222 0.9914255 1.0015384
0.9811961 1.0256599 0.9866648 0.9849914 0.9708722 1.0049188 0.9722394 1.0194248
1.0038825 0.99666786 1.0126743 1.034061 0.994793 1.0078651 1.006449 0.9900813
0.99093956 0.9900602 1.0078484 0.9902268 1.0194833 0.9743966 1.040737 0.95977765

layers.0.2.bias f4 [200]
00000000: 6347 423c 53cd b6bb 0baf 74bb 4dc7 f63c
00000010: 1ee8 d2bc a285 4bbc ced1 abbb e7bd 23bc
00000020: 8695 c7bc 8fe6 113b aa9b 6b3b 19c5 c23c
00000030: 17c0 c4bb 891e b3bb 41e4 02bc 792f 39bc
00000040: b2ca c63b 398a 1a3d 2aef cabb b6ef b83b
00000050: 53a6 bc3c 35f5 023c 7098 16bc f8e9 ebbc
00000060: 8947 913c 88a5 60bc 97d8 803b 8319 b03b
00000070: 28f9 a63b 6b87 d4bc eb4f 773b 4790 5fbc
00000080: c6c4 113d 7406 73bc f34b ef3c 9de1 9e3c
00000090: 6d39 dabc f615 deba 8f30 c63b a5d9 343c
000000a0: 6845 c93b 6ca0 fabb 2367 ccbb a32a e03c
000000b0: 6e18 ab3c 36cd ab3c c2ef 09bc 69ce e63b
000000c0: 36ee 8dbc 91c1 d8bb 78d6 943c eb6c b7bb
000000d0: 40ac 1f3c 6458 fdbb f62e be3c d655 833b
000000e0: 89f6 d2bc 9556 8c3c da5d 81b9 6fb1 4bbc
000000f0: cfdc 6ebb e376 583c 59ee 363b bcaa ec3b
00000100: b481 25bc dd12 09bc 86e8 8d3b c972 79bb
00000110: 6635 933a a925 85bb a297 6d3c 7051 003c
00000120: f8af acb7 3956 753c 3f84 21bc 80c1 da3c
00000130: e2bc 583c ecfc ae3c aa6d ca3c 2152 be3b
00000140: 07c2 733c 71c1 bdba ce08 e2bb 8e25 1abc
00000150: 1807 b03c b5bb cd3c c350 443c e4ed a23c
00000160: fc6a 913c 932d e1ba 97e3 e4bc 8fcc 84bc
00000170: 9028 953b 3f5a a83c 0932 ebbb 2cae 1cbc
00000180: 86b6 3fbc 0e22 2d3c abbb 243c a11f 473c
00000190: 2dc9 903b 8294 d9bb 0532 bfb9 67c8 103b
000001a0: 3878 1b3c fba3 1bbc 2e70 973b 1329 9c3c
000001b0: 80fb b73c 7357 893c faab 873a 5505 d4bc
000001c0: 3e41 8bbc 29dd f93c 916e 3abc 0898 9f3b
000001d0: bcf7 c03a b9bc 733c c22c 96bb 61a0 c33a
000001e0: 27dd 363c 888e 673b 456b b3ba 9760 c63c
000001f0: 067b 743b 8643 453b cb42 34bc 10d4 87bb
00000200: 1b28 423c b368 053c 042b 35b9 e348 b43b
00000210: edcd 6dbc 822e 4d3b d27a 3b3b 9150 b8bc
00000220: 433e 89bc 1dfc 203d 41a4 d9bc 56d8 8ebb
00000230: 6bda 9dbc 69bb 77bc e14a af3b 74a8 5c3b
00000240: e893 e8bb dadf d53b d494 1e3c baa0 72bc
00000250: d513 9abc 82f9 2e3c 9ce6 0b3d fc37 c03c
00000260: 3c76 faba 47ee be3c 7166 89bc bb51 0bbd
00000270: 3e34 cdbc e495 ffba 6181 243c 5ce5 df3b
00000280: 5429 dd3c 8e6c a53c 087b a73c 0585 6dbc
00000290: 3658 a73c 4f79 33bc 5978 833c 07c9 8abb
000002a0: 33bf 023c 54ff 92bc 2d7d 17bb 1280 163c
000002b0: 42db 913a a4d5 763c 567b 9ab9 73c9 dd3b
000002c0: f5d1 303c c964 0a3b 4a9d 053d 35e1 bd3a
000002d0: 9b5e eb3b e5af 7d3a 4176 40bc 9313 043c
000002e0: 27f5 4ebb a70c ea3c 2f40 68bc 86de b8bb
000002f0: abd0 543c 0ad0 17bb c2c1 d9bc 4afa ca3c
00000300: 1a89 0dbc 983a be3c e006 31bb e6e0 88bc
00000310: b08f 12bc 00b7 9dbc a142 8abb 12b9 eabc
0.01185784 -0.005578676 -0.003733578 0.03012433 -0.025745448 -0.012421997 -0.0052435165 -0.009994007
-0.02436329 0.0022262668 0.0035950937 0.023775624 -0.006004344 -0.0054662866 -0.00798899 -0.011302822
0.0060666436 0.037729476 -0.0061930614 0.00564381 0.023028528 0.007993032 -0.009191617 -0.028798088
0.017734306 -0.013711341 0.0039320695 0.005374135 0.0050956197 -0.025943479 0.0037736844 -0.013645238
0.03558805 -0.0148330815 0.02921102 0.01939469 -0.02663871 -0.0016943801 0.006048269 0.011038219
0.006142307 -0.0076485183 -0.006237881 0.02736408 0.020885672 0.020971876 -0.008418979 0.007043649
-0.017325502 -0.006614872 0.018168673 -0.005597701 0.009745657 -0.0077314842 0.023215752 0.004008035
-0.025752323 0.01713113 -0.00024674722 -0.01243244 -0.003644753 0.013211939 0.0027913062 0.0072225016
-0.010101724 -0.008366314 0.0043306975 -0.0038062802 0.0011231124 -0.0040633273 0.014501484 0.007831916
-2.058594e-05 0.01497417 -0.00985819 0.026703596 0.013228627 0.021360837 0.024710495 0.0058081304
0.014877803 -0.0014477206 -0.0068980223 -0.009408368 0.021487758 0.02511392 0.011982146 0.019888826
0.01775121 -0.001717972 -0.027940555 -0.016210822 0.0045519546 0.020550845 -0.0071775955 -0.00956301
-0.011701232 0.010567201 0.010054509 0.012153537 0.0044185133 -0.006640018 -0.00036467626 0.0022092105
0.009489112 -0.009499545 0.004621527 0.019062554 0.022458792 0.016765332 0.0010350936 -0.025881449
-0.016998883 0.030500965 -0.0113789 0.0048704185 0.0014722268 0.014876538 -0.0045829723 0.0014925116
0.011161125 0.0035332758 -0.0013688585 0.02421598 0.0037304773 0.0030100062 -0.011002253 -0.004145153
0.011850382 0.008142638 -0.0001727753 0.005501853 -0.014514429 0.0031308238 0.0028607142 -0.022499355
-0.016753322 0.039302934 -0.02656758 -0.0043592853 -0.019269189 -0.015120366 0.0053495024 0.0033669742
-0.00709771 0.0065269293 0.009679038 -0.014808828 -0.018808285 0.0106796045 0.034155473 0.023464195
-0.0019108723 0.023306979 -0.01677248 -0.03401349 -0.025049325 -0.0019499627 0.010040612 0.0068327617
0.026997246 0.020193364 0.020444408 -0.014497046 0.020427804 -0.010954215 0.016048597 -0.00423539
0.007980156 -0.017944016 -0.0023115382 0.009185808 0.0011127966 0.015065584 -0.0002946506 0.0067683994
0.010792245 0.0021117202 0.032620706 0.0014486673 0.0071829087 0.00096773944 -0.011746944 0.0080613075
-0.0031579228 0.028570486 -0.014175459 -0.0056417612 0.012989203 -0.0023164772 -0.026581649 0.02477755
-0.008638645 0.023221299 -0.0027012154 -0.016708802 -0.008945391 -0.0192523 -0.0042193686 -0.028652702

layers.0.2.running_mean f4 [200]
00000000: f747 d53d 56c9 823d 705f 853d a7e7 613d
00000010: f927 ac3d d82f 553d 7b01 893d 4116 8d3d
00000020: 43df 9b3d c322 953d 7680 8d3d 1526 c03d
00000030: 6356 893d f817 a33d e2d9 a33d df26 803d
00000040: 445c 833d 46ec 323d c39d 983d adf7 b53d
00000050: de9a 673d 1118 a83d d7b7 b03d 2757 983d
00000060: af1b b63d be18 b13d 9350 d13d 0d43 a73d
00000070: 479d 3f3d 7f41 8a3d c456 783d 0e68 8f3d
00000080: 28cb 913d 1662 ad3d 9dcf 6b3d 2a50 6f3d
00000090: 5d0c 703d 107e 8d3d 48b5 523d ac3f 5f3d
000000a0: 27f6 933d a479 433d 3f71 323d c2db 903d
000000b0: d439 7a3d 209d 963d 5da8 9d3d fd05 5c3d
000000c0: e022 4b3d f030 b83d 727c 883d 4f88 843d
000000d0: bfe1 973d a9f6 8b3d 5c20 a43d aa5f 873d
000000e0: a78b aa3d 2bb1 573d 4c52 7b3d 2988 603d
000000f0: 5d5c c23d 7650 6f3d 91fa 983d 557c c73d
00000100: 6aae 613d 2dfb 823d edd2 d23d e6c5 953d
00000110: 0049 af3d 0d0b 5f3d 79ae 4a3d a57a 8a3d
00000120: 1770 8d3d c7c2 473d 4ea3 9b3d dede a43d
00000130: afca 593d 70bc 893d 56e7 8f3d de47 6e3d
00000140: 8d87 943d aefc 513d dec0 b03d 570d 8a3d
00000150: 1d9c 8c3d 73dc 913d 4791 aa3d 6fda 993d
00000160: d995 b23d 8b4a ae3d 1b02 a13d dbf2 ad3d
00000170: 81d4 923d 6b52 493d e97b 8c3d a30d c03d
00000180: 1914 983d 5d2b 453d fbae 653d 8133 873d
00000190: 32f9 823d 0c9f 9a3d 29df 8d3d 15c7 903d
000001a0: e654 d13d da69 833d 6282 433d 49c2 5d3d
000001b0: 988d b23d 7d4c 523d eb99 903d 1668 833d
000001c0: e012 963d 49e1 ba3d 3634 843d 8b64 4f3d
000001d0: daff a13d 908b 723d 0d12 473d cdf9 8e3d
000001e0: 06e0 593d d304 3c3d 6a1f 893d 3db9 593d
000001f0: e220 5e3d f21d 8e3d 8026 6b3d 3a8c 5d3d
00000200: 61b4 b33d 56d1 793d e3dd 9c3d 7ad1 843d
00000210: daa7 ad3d a86a 823d 0f26 713d 4acd ef3c
00000220: 1644 6e3d 614f 9a3d c462 943d 7d33 543d
00000230: dc49 873d 8161 263d 3826 5a3d d553 633d
00000240: 9ec3 6c3d a4ec 483d 3e05 a03d f218 913d
00000250: c4e1 bd3d a886 c73d e0eb 3a3d 00b7 903d
00000260: ab89 1d3d bff4 8b3d 4a26 343d 42a2 8c3d
00000270: 3065 553d e49e 8a3d c5de aa3d 989e 803d
00000280: 2dda b13d 6357 993d f3c3 1c3d 1839 853d
00000290: ebd4 913d 52d2 d33d 8d25 983d fc2c b83d
000002a0: e2a6 8d3d f35d 903d 587a 783d 06fb ac3d
000002b0: 00ab a93d 9859 693d 5296 563d 5786 933d
000002c0: d191 9a3d 744e 4c3d d504 4e3d e2ec 4c3d
000002d0: 6864 8c3d b556 6b3d 4d59 b53d 2f08 7c3d
000002e0: 0a3b 933d dfd0 8a3d dc3d 8a3d 2348 4e3d
000002f0: 7db6 6e3d 7c57 9b3d 75e8 9a3d 3640 773d
00000300: 31fb a53d 3ee9 9e3d 7a50 bf3d 413b a13d
00000310: 44c4 a43d c828 753d a26d 5e3d 49a7 a03d
0.10414117 0.06386058 0.06512344 0.05515256 0.08406062 0.05204758 0.066897355 0.0688901
0.07610943 0.07282021 0.069092676 0.093822636 0.0670593 0.07963556 0.08000542 0.06257414
0.06414083 0.04368236 0.07451966 0.08885131 0.056544177 0.08207715 0.08628815 0.07438498
0.08891999 0.08647297 0.102204464 0.08167086 0.04678085 0.06750774 0.06062962 0.07002269
0.07118827 0.08465974 0.057571042 0.05842606 0.05860554 0.0690881 0.051442415 0.05450408
0.07224684 0.047723427 0.04356503 0.070731655 0.061090305 0.07354188 0.07698128 0.05371665
0.049593806 0.08993709 0.06664361 0.06471311 0.074161045 0.06834156 0.080139846 0.06610043
0.08327418 0.052659195 0.06135778 0.054817352 0.09490273 0.058426343 0.07469667 0.09740511
0.055097975 0.06395564 0.10294137 0.07313137 0.085588455 0.0544539 0.049482796 0.06761674
0.06906145 0.04876974 0.07599507 0.08050321 0.05317181 0.06725395 0.07026546 0.058174007
0.07252417 0.051266365 0.086305365 0.067408256 0.06865714 0.071221255 0.08328491 0.07512366
0.087199874 0.08510312 0.0786173 0.08493587 0.07169438 0.049150866 0.068595715 0.09377601
0.07425708 0.048137058 0.056075078 0.066016205 0.063951865 0.07549867 0.0692733 0.07069222
0.10221271 0.06416674 0.047731765 0.054140363 0.08718413 0.051342476 0.070606075 0.06416337
0.07327819 0.09125001 0.06455271 0.050632995 0.07910128 0.05921513 0.0486012 0.069812395
0.05319216 0.04590304 0.06695445 0.053155173 0.05423058 0.06939305 0.057409763 0.05408881
0.08774639 0.060990654 0.07659509 0.06485267 0.08479281 0.06367999 0.058874186 0.029272694
0.0581704 0.075346716 0.072454005 0.051806916 0.066058844 0.04062033 0.053259104 0.05549987
0.057803743 0.049053803 0.078135 0.07084836 0.09271577 0.097424805 0.045635104 0.070661545
0.03846137 0.06833791 0.043981828 0.06866886 0.052098453 0.06768587 0.08343271 0.06280249
0.08684192 0.07487371 0.03827281 0.065050304 0.07120689 0.1034285 0.07429037 0.08992955
0.06916596 0.070491694 0.06066355 0.084463164 0.08284569 0.05697021 0.05238945 0.07203358
0.075473435 0.049879506 0.050297577 0.050030597 0.068550885 0.057455737 0.088549234 0.061531242
0.07188995 0.0677812 0.0675008 0.050361764 0.058279503 0.07585046 0.07563869 0.06036397
0.081045516 0.07759331 0.093415216 0.0787263 0.08045247 0.059853345 0.054303773 0.07844407

layers.0.2.running_var f4 [200]
00000000: d75e c43c a7a2 363c 0c7e 2c3c 4a6d 6d3c
00000010: e486 0f3c f97a 083c 91aa 383c eee3 f73b
00000020: c749 5a3c 3634 4c3c 5ce6 103c 286a e43c
00000030: fd09 433c 042d e83c 2b0b b63c 0af3 8d3c
00000040: de61 e23b e497 893b f025 db3c eb67 f53c
00000050: b654 1e3c 7aae 8b3c c28b 373c 1a9b 333c
00000060: b3a9 8c3c b19a 863c 7923 483c c461 ba3c
00000070: 9a75 853c ec0a ad3c 92ac a83c e92a b83c
00000080: be80 b43c 7d90 e13c a2fe 053c 92bc c83b
00000090: b5af 643c dbd2 2c3c 04ba 953c 26b8 4c3b
000000a0: fca3 e33b 115d b33b ed75 3c3c 533e 593c
000000b0: 4577 f03b 7589 3c3c cb3a 243c 93f1 843c
000000c0: 81ec 353c 4eda a83c 3c28 9e3c 1fd0 a13c
000000d0: 169b 473c 721d e73c 47cf a73c 56aa 713c
000000e0: f1f4 9c3c 71c8 d93b 472b 553c 3216 003c
000000f0: 2d48 4c3c b57a 373c 909b a03c 2cd8 b93c
00000100: a418 313c 58a3 833c 31aa a33c 1137 af3b
00000110: a594 af3c 97a7 0e3c df76 b83b 63cc 203c
00000120: 6f71 173c eabc 943c 7234 013c 0264 813c
00000130: 9128 083c f2ad 933c 367b 613c 3b79 823c
00000140: 4ee5 2b3c 98aa 7f3b 4a7f 763c c1c0 493c
00000150: 8a11 853c fd5e bf3c b72f 8d3c 4901 2c3c
00000160: 75a6 843c d47b 0d3c 6ef4 4a3c 7d3b e53c
00000170: bc29 433c 00db 0e3c 031b fd3b 827f d23c
00000180: 9c1c 583c 44ec db3b 3bad 983c 8903 783c
00000190: 3f7b bd3b 94c5 073c 96ff 9c3c 3e3c f23c
000001a0: 57fe 8d3c 2d67 913c 06f3 fc3b a623 ea3b
000001b0: a3ef ce3c cb50 f03b 1e51 8f3c e62b ad3b
000001c0: 83f9 253c 5e35 713c bd00 193c ff1a f63b
000001d0: 7fca 303c 6aed 1f3c fc8b 7f3c 6ebf 553c
000001e0: 4e09 1b3c c672 443c 6a31 cd3b 4671 fb3c
000001f0: 209d a93b a265 a83b 3ede 0c3c 42a5 8f3c
00000200: d30c 393c 54b5 c53c ea7c 483c a569 f13b
00000210: 3922 d73c 4816 0a3c ede5 633c d6cd 3d3b
00000220: 71bb b53c b998 573c 6baa a13c 6aa3 b13b
00000230: cb16 8c3c 8458 183c ebfd 093c 2e08 3d3c
00000240: a646 bd3b a78f e03b c85d 943c eddc f73b
00000250: dc95 7c3c 842a b23c bdc5 a83b e06e 2d3c
00000260: 3cd8 2a3b 26e9 a03c 9b53 d03b 4408 c23c
00000270: 24bb 593c 8523 2d3c 0b32 d63c 08a9 953b
00000280: 9953 803c 3435 193c dc47 a63b d02f 273c
00000290: 843e 1f3c f915 b73c 8f6d 723c fc39 d03c
000002a0: 6e86 903c ee6d 1d3c a912 093c 4116 ef3b
000002b0: 2e67 623c 268d dd3b 7e27 f03b 036a 513c
000002c0: eeb5 313c 5131 0d3c f600 a53b cc8f f03b
000002d0: 1bbe 3c3c b954 da3b 4ff6 f43c 56ff 1f3c
000002e0: 47ad bc3b d7ab 7b3c 1273 573c e028 903b
000002f0: f642 823c 305a 723c c282 c83c da3b 5b3c
00000300: 5248 313c 49c9 933c 4098 443c b7eb 323c
00000310: b290 293c 16bd 693c 3adf 853c 9a3f 5c3c
0.023971004 0.011147178 0.010528099 0.014491389 0.008760188 0.0083301 0.011271135 0.007565013
0.013323254 0.01246362 0.008843984 0.02788265 0.011904237 0.028341778 0.022222122 0.017327804
0.0069086393 0.004199015 0.026751488 0.029956779 0.009663751 0.01705097 0.011202754 0.010962272
0.017170763 0.016431184 0.012215489 0.022751696 0.016291428 0.021123372 0.0205901 0.022481399
0.022034045 0.027534718 0.008178385 0.006125995 0.013957907 0.010548319 0.018277176 0.003123769
0.0069470387 0.005473741 0.011502725 0.013259488 0.007338437 0.011507382 0.010023783 0.016228473
0.01110375 0.020611908 0.019306295 0.01975256 0.012182971 0.028212283 0.02048458 0.014750084
0.019159766 0.006646209 0.013010806 0.007817792 0.01246838 0.011198689 0.019605428 0.022686087
0.010809097 0.0160691 0.019978615 0.0053471406 0.021433184 0.008706949 0.005629405 0.009814355
0.009243353 0.018156487 0.007886039 0.015794758 0.008310453 0.01802728 0.013762286 0.015926948
0.010491682 0.0039011594 0.0150449965 0.0123140225 0.016243715 0.023360724 0.017234666 0.010498353
0.016192654 0.00863548 0.012387378 0.027982468 0.011911806 0.008719206 0.0077241673 0.025695566
0.013190415 0.0067115147 0.01863729 0.015137562 0.0057825143 0.008286852 0.019164842 0.029569741
0.017333193 0.017749393 0.0077194003 0.007145363 0.025260752 0.00733385 0.017494734 0.005284774
0.010130289 0.014722196 0.009338555 0.0075105424 0.010790466 0.009761194 0.01559734 0.013046129
0.009462668 0.011990255 0.006261994 0.030693661 0.0051762015 0.0051390687 0.008597909 0.017534856
0.011294561 0.024134316 0.012236813 0.00736733 0.026261436 0.008428164 0.013909799 0.00289618
0.022184106 0.0131589705 0.019734582 0.005421092 0.017100712 0.0092984475 0.008422355 0.011537595
0.005776244 0.006853062 0.018111125 0.007564178 0.015416589 0.021748789 0.0051505254 0.010585517
0.0026068827 0.019642424 0.006357623 0.023685582 0.013289247 0.010567551 0.02614691 0.0045672692
0.015664862 0.0093510635 0.0050744843 0.0102042705 0.009719495 0.022349345 0.014796629 0.025418274
0.017642226 0.009608729 0.008366265 0.007296354 0.013818545 0.006761211 0.0073289266 0.012781623
0.010846598 0.008617715 0.005035515 0.0073413607 0.011519934 0.0066629318 0.029902605 0.009765467
0.005757961 0.015360794 0.0131499935 0.004399404 0.01590107 0.01479201 0.024476413 0.013380969
0.010820465 0.018040316 0.01199919 0.010920457 0.010349439 0.014266273 0.016341794 0.013442898

layers.1.0.weight f4 [100, 200]
00000000: 2c6d 353d 8891 643d cd0c f3bc 41a5 0f3d
00000010: cef6 a4bd c52b d3bb e4d8 02bd fd8b ae3c
00000020: bbfc 203d 0b28 cbbc e916 cbbb 32e8 383d
00000030: 1f4e b2bc d769 683d 0c54 153d 05d1 d7bc
00000040: a65d 963d d4df 6e3c 7855 5bbd 7055 bfbc
00000050: ac6a 06bd d40f 893d f074 553c bb51 9bbd
00000060: 9ab3 d4b9 5cde 33bd bcb4 253c 4629 823d
00000070: e3d6 d03b e4a3 5abd 7175 603d e3da b5bc
00000080: 5d93 843b 1e1a 11bd fb5c f5bc d16b 833d
00000090: 9a27 243d bda7 023d bf38 8d3d e6c4 073d
000000a0: f317 063c f483 90bb f611 12bd d29f 23bd
000000b0: a3ff 463d 3154 133c 8717 883d a84f 073d
000000c0: e3d7 283d 59cd 533d af14 24bd f2ec c2bc
000000d0: 4f7a c13d 77f5 3c3c c3cd c2bc db95 0c3d
000000e0: 5bc1 46bd a0e3 96bc b5e0 9abd 516c ba3c
000000f0: f8f9 e33c c31a e73c b89d 1e3d 4528 893d
00000100: c0d2 493d 12f1 4c3c 37ee 1c3d f07b 8fbd
00000110: 66d6 80bd 28ec 273d 72d7 d63c 6572 1cbd
00000120: 54b5 8cbc 3111 683d 9a72 933d a04a 643b
00000130: 06b8 e43c 7d73 8cbd 135a 24bc de31 01bb
00000140: 747d bbbc 92eb 023d 324f be3d b2dc 1a3d
00000150: f962 e93c fbb7 6e3c bdb5 cd3d 7488 64bd
00000160: fedd a43c fdaf 5a3d cbca 4b3b 7ee8 88bd
00000170: ab63 92bc 7711 ac3d 24d3 223d acc0 9f3d
00000180: b4ac 8b3d 07ca 9d3d 11ab 1c3d f662 33bd
00000190: a581 8d3c d18e e0bc 3794 b43a 5763 913c
000001a0: 8c9d e53c 435e 833d 927a 603d 155f 1d3a
000001b0: 6356 15bd e42f 333c e188 a93d 3756 273b
000001c0: 7b18 1f3d 9c4d 4ebd 077c 2a3d 97da d4bc
000001d0: caf9 713d 07f4 85bd d335 073d 59b2 70bd
000001e0: 6bb0 d53c 3de7 843d b860 c83c dfcd 9f3c
000001f0: ad64 3e3d 850c 273b f5b5 d03c 9839 113d
00000200: 43aa 63bd 8f64 743d 9175 76bd 5e76 a2bd
00000210: 3b79 63bc 69f4 7cbd c9ae 153d 77c6 6abd
00000220: 95f5 963c 1be1 443a bf28 983c 6f17 b93d
00000230: e3cf 5dbd f534 41bd 50bb 1b3d 20b2 84bc
00000240: 038c b9bd b6a0 853d 3dcd 253d 093b 10bd
00000250: f42b 193d 3d4f 883d 08f6 cf3c d755 7b3b
00000260: b55d fdbb 781c 943d e439 0b3b 4476 e23c
00000270: e0a4 6cbd bf65 4abc 3ce1 6b3d 47fa b7bd
00000280: 0aab b9bc ea5b 483d d509 943c 5443 7abd
00000290: 27ab 6a3b 3be7 0a3d 13d6 1f3c 023f 343d
000002a0: a4d3 b03d 4531 f43c 8bbd 3b3d fa6e 59bd
000002b0: 281f 243d 485e b5bd 3fd4 dfbc 38b6 813d
000002c0: 99a3 aaba 4dea 173d 6415 503d fc4c 673d
000002d0: f56f 28bd 28ef 94bd 5685 85bc 64f9 eabc
000002e0: 5428 37bc 1079 ba3c 96fe 633d a8ee 683d
000002f0: babd 503d 86d6 bd3c 4bf3 4fbc 3b66 f6bc
00000300: 722b a3bc a7de 403d 15c4 3ebc 6a27 7d3d
00000310: 2d07 563d 26fb c1bc 3b84 213d 26c3 323d
00000320: 1d89 2d3d e901 993d 8d73 84bd 9442 213d
00000330: f50e 4d3d a0c5 86bc c8c2 4ebd f3ee 57bd
00000340: ce2e fbbc ea67 c33d 0709 0c3d fd3d 1c3c
00000350: 4960 033d 5b87 45bd 8e00 213d 59b1 893c
00000360: abf3 43bc 03b5 9bbd 93e2 803c 00b8 8cbc
00000370: 8a10 bdbc 6328 7dbd 8b16 073d b993 eb3c
00000380: 36e1 2aba 121c 13bc 2120 043c 0bf0 ac3c
00000390: d3d5 91bd 31e3 f13c 182e 7cbc cfe2 97bd
000003a0: a063 26bd 5cb0 19bd 5a98 b3bc 1e32 8cbc
000003b0: 6ff6 24bd 7caa 99bd 6663 e63c da5d d93b
000003c0: 5d07 a13c 5369 fd3c 8132 4fbd eb1e a1bb
000003d0: c07b 833d 306e f93c 7778 203c 4a93 97bd
000003e0: 24e3 963c e582 8b3d d1f5 efbc 9830 9e3c
000003f0: c0ae a33d 8ae0 1bbd 74c2 013d d07f 44bd
0.044293568 0.055802852 -0.02966919 0.035069708 -0.08054887 -0.0064444267 -0.031945124 0.021306986
0.039303523 -0.024799367 -0.0061977995 0.045143314 -0.021765767 0.05674156 0.036457106 -0.026344785
0.07342081 0.014579732 -0.053548306 -0.02335617 -0.032816574 0.06692472 0.013028368 -0.07583948
-0.00040569605 -0.04391323 0.010113891 0.063555285 0.0063732727 -0.053378955 0.0547995 -0.0221991
0.0040458874 -0.035425298 -0.029951563 0.06417049 0.04007683 0.03189825 0.06895589 0.03314676
0.008184421 -0.0044102613 -0.03566166 -0.03994734 0.048583638 0.008992241 0.066451125 0.03303495
0.04122151 0.051709507 -0.040058788 -0.023794625 0.09447157 0.011533133 -0.023779755 0.0343226
-0.048524242 -0.018419087 -0.07562391 0.022756727 0.027829155 0.028211003 0.03872463 0.06697134
0.049273252 0.0125086475 0.038313117 -0.07006061 -0.06290893 0.0409967 0.02622578 -0.038195033
-0.017176308 0.05665702 0.07199593 0.003483452 0.02791978 -0.06857965 -0.010031241 -0.001971356
-0.02288697 0.03196294 0.09292449 0.037808128 0.028489577 0.014570232 0.100444295 -0.055794194
0.020125385 0.05339049 0.0031096216 -0.06684969 -0.017869791 0.08401769 0.03975214 0.07800421
0.0682005 0.07704549 0.03824908 -0.04379555 0.017273733 -0.02741185 0.0013777082 0.017747564
0.028029226 0.06414463 0.054804392 0.0006003243 -0.036459338 0.010936711 0.08278061 0.0025533566
0.038841706 -0.050366983 0.041622188 -0.025983138 0.059076108 -0.06540685 0.033010315 -0.058763836
0.0260851 0.06489418 0.024460182 0.019507347 0.04648273 0.002548964 0.025477389 0.035455316
-0.055582296 0.059666213 -0.060170714 -0.07932733 -0.013883884 -0.061756525 0.03654364 -0.057318177
0.01842765 0.000751035 0.018574117 0.09037673 -0.054153334 -0.047169644 0.038020432 -0.016198218
-0.09059908 0.06524794 0.040478934 -0.03521255 0.037395433 0.066557385 0.025385872 0.0038350725
-0.007732118 0.072319925 0.0021244222 0.027644284 -0.057774425 -0.01235336 0.057587847 -0.089832835
-0.022664566 0.04891578 0.018071095 -0.061099365 0.003580758 0.033911925 0.009755629 0.0440054
0.08634117 0.02980865 0.04583506 -0.05308435 0.040068775 -0.08855873 -0.027322887 0.063335836
-0.0013018727 0.03708868 0.05080165 0.056469902 -0.041122396 -0.07272178 -0.016298931 -0.028683372
-0.011179049 0.022762805 0.055662714 0.056868225 0.050962187 0.023173582 -0.012692283 -0.030078044
-0.019918177 0.047087338 -0.011643429 0.061805166 0.052252937 -0.023679327 0.039432745 0.04364314
0.04236709 0.074710675 -0.06467352 0.039370134 0.050063092 -0.016451657 -0.050478727 -0.052718114
-0.030661967 0.095413044 0.034188297 0.0095362635 0.032074247 -0.04822479 0.03930717 0.016808199
-0.01195995 -0.076028846 0.015733039 -0.017177582 -0.023079176 -0.061806094 0.032980483 0.028756963
-0.00065185444 -0.00897886 0.008064301 0.021110555 -0.07120862 0.029527279 -0.015391849 -0.07416307
-0.040622354 -0.037521705 -0.021923233 -0.017113741 -0.04027408 -0.075032204 0.028123569 0.0066335024
0.019656831 0.030934012 -0.050585274 -0.004917016 0.06420088 0.03044805 0.009794346 -0.0740114
0.018418856 0.068120755 -0.02929202 0.01931028 0.07992315 -0.038055934 0.031679586 -0.047973454
