models/trained_model2.pth (torch, 420590 bytes, 57 tensors)

embeds.0.weight f4 [10, 6]
0	0x3c17d961	0.009268136
1	0x3c172f07	0.009227521
2	0xbb8d00f4	-0.004303092
3	0xbc0fbf91	-0.0087737
4	0xbb9f061e	-0.004853024
5	0x3be0f067	0.0068645957
6	0x3bd697a7	0.00654884
7	0x3a469515	0.00075753155
8	0x3ca2d2c1	0.019875886
9	0x3d4e038f	0.050296362
10	0x3cae725e	0.021294769
11	0x3caa5b5e	0.02079552
12	0xbd689ae7	-0.05678835
13	0x3d7c38f9	0.06157777
14	0x3c24a406	0.010048872
15	0xbb52eab2	-0.0032183346
16	0xbd3cfc79	-0.046139214
17	0xbd614f9f	-0.055007573
18	0xbc488bf0	-0.012240395
19	0xbc7a9148	-0.015293427
20	0xbd225718	-0.03963384
21	0xbd2da91e	-0.04239761
22	0xb9766a8b	-0.00023500079
23	0x3b2a6200	0.0025998354
24	0xbcd04389	-0.025422828
25	0x3ccadd9f	0.02476388
26	0x3cd4a272	0.025956366
27	0x3c4a0d86	0.012332326
28	0x3c7bf554	0.015378315
29	0xbb7b3ea2	-0.0038336893
30	0x3ce4833d	0.02789461
31	0x3d1465c9	0.036229882
32	0xbbb5a473	-0.0055432855
33	0x3d2ab643	0.041677725
34	0x3bf8e73f	0.007595926
35	0xbca76501	-0.020433905
36	0xbd08568d	-0.033285666
37	0x3d2584f8	0.040410012
38	0x3caba30d	0.020951772
39	0xbd1aaf66	-0.03776493
40	0xbb969789	-0.004595701
41	0xbd842c4d	-0.06453762
42	0x3cbdb805	0.023159036
43	0xbd806434	-0.06269112
44	0x3b858765	0.004074978
45	0xbd0c22d9	-0.03421292
46	0x3cb2d16d	0.021828378
47	0x3ccff6f5	0.025386313
48	0x3d1601be	0.036622755
49	0xbc81366d	-0.015773023
50	0xbd0fffb0	-0.035155952
51	0x3d6564ec	0.05600445
52	0x3bc759b7	0.006083693
53	0x3d0448d4	0.032296017
54	0x3cf73cf0	0.030180424
55	0xbd16ecf5	-0.036847074
56	0xbbe9cee3	-0.0071352585
57	0xba893554	-0.0010468164
58	0x3b8689fb	0.004105804
59	0x3d272d77	0.040814843

embeds.1.weight f4 [17, 8]
0	0x3b4fec3b	0.0031726498
1	0x3c6b0e2f	0.014346643
2	0x3c20a524	0.009804998
3	0x39e5dee2	0.00043844344
4	0xbc2e8ddc	-0.010653939
5	0xbb8d1314	-0.004305253
6	0x3a72e348	0.0009265435
7	0x3c177783	0.009244802
8	0x3afa15a1	0.0019079932
9	0xbd203539	-0.039113257
10	0xbcf26e33	-0.029593563
11	0xbd9b38f8	-0.07579225
12	0x3cbca35a	0.02302711
13	0x3d162a4e	0.03666144
14	0x3ba6e5ff	0.0050933356
15	0x3b81bd0e	0.0039593047
16	0x3bfd3ab9	0.0077279476
17	0x3d098522	0.03357423
18	0x3cbb7901	0.022884848
19	0xbc7e47e2	-0.015520068
20	0xbcee5d5d	-0.029097253
21	0xbd24f713	-0.04027469
22	0x3c9b84e2	0.018984262
23	0xbd0c56eb	-0.03426258
24	0xbcb52247	-0.022111071
25	0xbc0347eb	-0.008012752
26	0x3cf11a18	0.029431388
27	0xbc96738b	-0.018365642
28	0x39f984f5	0.00047592042
29	0xbd353fb1	-0.044250194
30	0x3c57df76	0.013175836
31	0x3cee5f0b	0.029098054
32	0x3c2c250d	0.0105068805
33	0x3cb099f4	0.021557786
34	0x3af297d0	0.0018508378
35	0x3d11955f	0.035542842
36	0xbca0057c	-0.019533865
37	0x3d403fc5	0.046935815
38	0x3c76c6cb	0.015062044
39	0xbd03891d	-0.032113183
40	0xbbb3639d	-0.0054745213
41	0x3c43f893	0.01196112
42	0x3b0e7a96	0.0021740547
43	0x3c75b0c2	0.014995756
44	0xbd1241e3	-0.035707366
45	0x3cb4547e	0.022012945
46	0x3d3ef819	0.046623323
47	0x3ab75289	0.0013986389
48	0x3cb91e2e	0.022597399
49	0x3c8b6307	0.017014993
50	0xbd2c05de	-0.041997783
51	0xbc03160e	-0.008000864
52	0x3ac6b1e8	0.0015159221
53	0xbc1513c9	-0.009098955
54	0x3c98da01	0.01865864
55	0x3bed5ad7	0.007243495
56	0xbb825593	-0.0039774864
57	0x3d12b20e	0.035814337
58	0xba12a90b	-0.00055946474
59	0xba909819	-0.0011031657
60	0xbc646987	-0.013941175
61	0xbbc200d7	-0.0059205103
62	0x3cc88e30	0.024481863
63	0x3c037c28	0.008025207
64	0x3d699639	0.05702803
65	0x3cacabeb	0.02107807
66	0xbca283e2	-0.019838277
67	0x3c8b7aa4	0.017026253
68	0x3c0a813f	0.008453666
69	0x3d14632c	0.03622739
70	0xbc9aa94f	-0.01887956
71	0xbd87a464	-0.06623152
72	0x3cab9d27	0.02094896
73	0x3b8efa7b	0.0043633557
74	0x3b4ce746	0.003126578
75	0x3c1ebc3e	0.009688435
76	0x3ca18887	0.019718422
77	0x3bad86c1	0.005295605
78	0x3beaf01a	0.0071697356
79	0x38dd0c8a	0.00010540437
80	0x39cfcf16	0.00039636408
81	0x3baa992e	0.0052062487
82	0xbc055bc0	-0.008139551
83	0xbc635f33	-0.013877678
84	0x3c12486d	0.0089284
85	0xbc4b5d3c	-0.0124123655
86	0xbc99a173	-0.018753743
87	0x3c87d764	0.016582198
88	0x3c80c95d	0.015721017
89	0xbc928928	-0.017887667
90	0x3d25a981	0.040444855
91	0xbcfd82af	-0.030946104
92	0x3beac88b	0.00716502
93	0xbbe60f41	-0.0070208614
94	0xbbaa8de5	-0.0052049034
95	0x3c527677	0.012845627
96	0xbb3c8183	-0.0028763718
97	0x3c1972fd	0.009365794
98	0xbc701536	-0.014653495
99	0xbbd1cb59	-0.0064024148
100	0x3ca1899b	0.019718936
101	0xbab3d250	-0.0013719294
102	0xbc71fe11	-0.014770047
103	0xbbfd99a2	-0.0077392617
104	0xbb014097	-0.0019722336
105	0xbbe57adf	-0.0070031728
106	0x3bef19a9	0.00729676
107	0x3d2f9aa5	0.04287209
108	0xbc3b6961	-0.0114386985
109	0x3cfc12d9	0.030770706
110	0x3d0815cb	0.03322391
111	0x3c0c9dbd	0.00858253
112	0x3bbc754a	0.0057512866
113	0x3d28ee7e	0.04124307
114	0xbc5ab72a	-0.013349334
115	0xbc483a33	-0.012220907
116	0x3c65bc4e	0.014021946
117	0xbd329e8d	-0.043608237
118	0x3cb06ac3	0.021535283
119	0xbd302828	-0.043007046
120	0xbd06bbf3	-0.032894086
121	0xbccbd079	-0.024879681
122	0x3d89efcd	0.067351915
123	0xbb990f18	-0.004670989
124	0xbcdb6915	-0.026783505
125	0x3b3c428d	0.002872619
126	0x3cd3f8e0	0.025875509
127	0x3d3850c1	0.044998888
128	0x3c741fd4	0.014900167
129	0xbd12e28a	-0.035860576
130	0xbd2d98bd	-0.04238199
131	0xbce09a28	-0.027417257
132	0x3a2a08ff	0.0006486326
133	0x3beea252	0.0072825337
134	0xbccf4154	-0.025299706
135	0x3ad7ef59	0.0016474529

embeds.2.weight f4 [8, 5]
0	0xbb40dfe5	-0.0029430327
1	0xbaf86ee4	-0.0018953946
2	0xbbab8bc5	-0.0052351677
3	0x3c492ef8	0.012279265
4	0x3a1d7a11	0.0006007264
5	0xbcc06e81	-0.023490192
6	0xbc8fcf71	-0.01755497
7	0x3d1ff826	0.039055012
8	0x3d255773	0.0403666
9	0x3c8fe47d	0.017565006
10	0x3d96f6e6	0.07371311
11	0x3d279b8a	0.040919818
12	0xbd4922e8	-0.049105555
13	0xbd8246ef	-0.06361186
14	0xbd9d0165	-0.076662816
15	0x3d3ba59b	0.04581223
16	0x3d018c12	0.031627722
17	0xbd4831a4	-0.048875466
18	0xbd61f41e	-0.05516445
19	0xbd36c960	-0.04462564
20	0xbcd57714	-0.026057757
21	0xbcca027a	-0.024659384
22	0x3d127bdb	0.03576265
23	0x3d23d4aa	0.039997734
24	0x3d48439f	0.048892614
25	0xbd2b18bc	-0.041771635
26	0x3c9a09bd	0.018803472
27	0x3cc56ceb	0.024099788
28	0x3ce3259c	0.027727894
29	0x3cf7a9f8	0.030232415
30	0xbd0f3d97	-0.034970846
31	0xbcab1491	-0.02088383
32	0x3cabbc50	0.020963818
33	0xbabb4973	-0.0014288857
34	0x3cc6fb3d	0.024289722
35	0x3c7b33a1	0.0153321335
36	0xbc7e9214	-0.015537757
37	0x3bfd1553	0.0077234893
38	0x3d050b21	0.032481316
39	0xbb9bbcf1	-0.004752748

embeds.3.weight f4 [16, 8]
0	0xbb49ece1	-0.0030811357
1	0x3ab67ea7	0.0013923243
2	0x3be37b8a	0.0069422172
3	0xbb76d4f8	-0.003766356
4	0x3bb829c6	0.005620214
5	0xbbcb3ff4	-0.006202692
6	0x3a33a02f	0.00068521773
7	0xbbae2181	-0.0053140526
8	0x3d1666fe	0.036719315
9	0x3c583c70	0.013198003
10	0xbc8fb99c	-0.01754456
11	0x3cdd4f80	0.027015448
12	0x3c7f837f	0.015595316
13	0x3b916753	0.004437366
14	0xbca56e87	-0.020194305
15	0xbc43aeba	-0.0119435135
16	0x3d1aeebe	0.03782534
17	0x3b912b96	0.0044302447
18	0x3c2bd547	0.010487861
19	0x3c533781	0.012891651
20	0xbccf8829	-0.02533348
21	0xbbd7675d	-0.006573601
22	0xbb56280b	-0.0032677676
23	0xba36f90e	-0.0006979861
24	0xbbb80dff	-0.005616903
25	0x3cf1d144	0.029518731
26	0xbc59b8c1	-0.013288678
27	0x3c5bda58	0.013418756
28	0x3d358a8f	0.044321593
29	0xbc9c249c	-0.019060425
30	0xb95b2d45	-0.00020902332
31	0xbcd7188a	-0.026256818
32	0xbca4a3a4	-0.020097561
33	0x3ca95c1e	0.020673808
34	0xbacfa36f	-0.0015841554
35	0x3b69dca3	0.0035684488
36	0x3c31ac43	0.010844293
37	0xbc1f0c42	-0.009707512
38	0xbcccfdb8	-0.025023326
39	0x3c0bc7de	0.008531539
40	0xbd2e7537	-0.042592254
41	0xbd1caff2	-0.038253732
42	0x3d3830c0	0.044968367
43	0xbd113dbc	-0.035459265
44	0x392b7abf	0.00016353557
45	0x3d0033a4	0.03129925
46	0x3d67965c	0.05653988
47	0xbc2d075e	-0.0105608385
48	0x3c9c6a36	0.019093614
49	0x3d458839	0.048225615
50	0xbd3ba6b3	-0.045813274
51	0x3d8ca415	0.06867234
52	0xbb0685d4	-0.0020526545
53	0xbd62fc6a	-0.055416502
54	0xbd1dc62d	-0.038519073
55	0xbd9040c3	-0.07043602
56	0x3d19be81	0.037535194
57	0x3d24ce54	0.040235832
58	0xbd2c6e92	-0.042097636
59	0x3cc93450	0.024561077
60	0x3cd08bbe	0.02545726
61	0xbd7f9c19	-0.062404726
62	0xbd56cd84	-0.05244209
63	0x3c6d3ad4	0.014479358
64	0x3c8d5d20	0.01725632
65	0x3ce95f88	0.028487936
66	0xbce0877b	-0.027408352
67	0x3d06b5b3	0.032888126
68	0xbc306c36	-0.010767987
69	0xbcc842f4	-0.024445988
70	0xbc6c734c	-0.014431786
71	0xbc8c7015	-0.017143289
72	0x3d4a6e01	0.049421314
73	0x3d3f38b7	0.046684947
74	0xbdc57d3f	-0.096430294
75	0x3d1d70bd	0.038437594
76	0x3d114f29	0.035475884
77	0xbd2cec4f	-0.04221755
78	0xbd0cc10b	-0.034363788
79	0xbce02e66	-0.027365874
80	0x3d239757	0.03993925
81	0x3d861feb	0.065490566
82	0xbd590f00	-0.05299282
83	0x3d04147e	0.032246105
84	0x3c780824	0.01513866
85	0xbd0da8b7	-0.034584727
86	0xbbd81791	-0.006594606
87	0xbccefb3b	-0.02526628
88	0xbd04ef95	-0.032455046
89	0xbcdcb62c	-0.026942335
90	0x3ca12423	0.019670552
91	0xbcfbbdeb	-0.030730208
92	0xbcc62ab8	-0.024190292
93	0x3d1f64bb	0.038914423
94	0xbc938c01	-0.018011095
95	0x3d7adf2c	0.06124799
96	0xbd19bc8b	-0.037533324
97	0xbd80cff6	-0.062896654
98	0x3c67c979	0.014147156
99	0xbd0cedc4	-0.03440644
100	0x3d14d527	0.03633609
101	0x3cf2d9b1	0.029644819
102	0x3d176474	0.036961034
103	0xbc5c8ec4	-0.013461772
104	0xbd0427b7	-0.032264438
105	0xbcb93245	-0.022606978
106	0x3c42513c	0.011860188
107	0xbc44b189	-0.012005218
108	0x3c8a6270	0.016892642
109	0x3be774d8	0.0070634894
110	0x3d0312e4	0.032000437
111	0xbc0d42d8	-0.008621894
112	0x3c21c672	0.009873973
113	0xbce2d6ab	-0.027690252
114	0x3cca3000	0.024681091
115	0xbd4199d3	-0.04726584
116	0xbccc3d16	-0.024931472
117	0x3d3d4fe9	0.046218786
118	0x3cd712ce	0.026254084
119	0x3d477ed3	0.048704933
120	0xbc6cb113	-0.014446515
121	0x3c4803f7	0.012207977
122	0xbcc43bb2	-0.023954246
123	0x3aeee495	0.0018226082
124	0xbc859152	-0.016304646
125	0xbc104cff	-0.00880742
126	0xbc69326a	-0.014233211
127	0xbb1e0d06	-0.002411665

embeds.4.weight f4 [7, 5]
0	0x3ae40f32	0.0017399548
1	0xbbeea3a3	-0.0072826906
2	0xbbc63f50	-0.006050028
3	0x3c90929a	0.01764803
4	0x3c6889ab	0.014192979
5	0xbc90d0c1	-0.017677667
6	0x3cac34cf	0.021021275
7	0x3cab5f65	0.020919511
8	0xbcf11cda	-0.029432703
9	0x3c6cc512	0.014451282
10	0x3cd63ec0	0.026152968
11	0xbc86de88	-0.016463533
12	0xbc805b42	-0.015668515
13	0x3cb92615	0.022601167
14	0xbbf10d45	-0.007356318
15	0x3d2d8008	0.04235843
16	0xbd5c7228	-0.053819805
17	0xbd400b6d	-0.046885896
18	0xbd190975	-0.037362535
19	0xbd255e19	-0.04037294
20	0x3d428222	0.047487386
21	0xbd5be328	-0.05368343
22	0xbcc1e270	-0.023667544
23	0xbc149e45	-0.0090709375
24	0xbd5f367c	-0.05449532
25	0x3d64f8cd	0.055901337
26	0xbc56e66c	-0.01311646
27	0xbce97f27	-0.028503014
28	0xbc768f4d	-0.015048814
29	0xbd36ac68	-0.044598013
30	0xbdb80941	-0.0898614
31	0x3d847418	0.064674556
32	0x3d8451ba	0.064609006
33	0x3d0ca104	0.034333244
34	0x3da851d4	0.082187325

embeds.5.weight f4 [6, 4]
0	0x3a9431e2	0.001130637
1	0x3c7bc0bc	0.015365776
2	0xb917d0e3	-0.00014478299
3	0xbb8af345	-0.004240426
4	0xbcdef7a0	-0.027217686
5	0xbd28e1d0	-0.041230977
6	0x3c6e83d8	0.014557801
7	0x3dac77a0	0.08421254
8	0xbc752c79	-0.014964216
9	0x3c588db5	0.013217379
10	0x3c163845	0.009168689
11	0xbc59b7b8	-0.013288431
12	0xbbc076dd	-0.0058735446
13	0xbbe6af28	-0.007039923
14	0xbb9af18c	-0.0047285017
15	0x3c752745	0.014962976
16	0xbd291ee9	-0.041289244
17	0xbd1c2a37	-0.038126197
18	0xbd39d7ac	-0.045371696
19	0x3cce1c55	0.025159994
20	0x3caaabd5	0.020833889
21	0x3c353f46	0.011062449
22	0x3cc970b6	0.024589878
23	0xbbf76326	-0.007549661

embeds.6.weight f4 [3, 3]
0	0x3afd0bbf	0.0019305869
1	0xbb23e527	-0.0025008412
2	0xbac75b9c	-0.0015209797
3	0x3d73a38d	0.059482146
4	0x3cef86b3	0.029239034
5	0xbd158901	-0.03650761
6	0xbd3c2912	-0.045937605
7	0x3c1549f4	0.00911187
8	0x3d01770d	0.031607676

embeds.7.weight f4 [43, 13]
0	0xbb13b360	-0.0022537336
1	0xbb3298cc	-0.0027251719
2	0x3b905937	0.0044051665
3	0x3ca1e6d6	0.019763391
4	0xbb815432	-0.0039468044
5	0xbc18ed8b	-0.009333978
6	0x3bc6c97e	0.0060665
7	0x3b96db6b	0.0046037934
8	0xb9a32fb7	-0.00031125333
9	0x3bb7ce57	0.0056093144
10	0xbb941c45	-0.0045199716
11	0x3c91e1dc	0.017807893
12	0xbbe90f33	-0.0071124076
13	0xbc445b17	-0.011984608
14	0xbd44932d	-0.04799192
15	0xbbe6f8ad	-0.0070486874
16	0x3cefea57	0.029286547
17	0x3d3855ae	0.045003586
18	0x3c4b897c	0.012422916
19	0x3d6727cc	0.056434438
20	0x3d208cf4	0.039196923
21	0xbb9afa91	-0.004729577
22	0x3cb25749	0.021770136
23	0xbd1c327d	-0.038134087
24	0xbb80cfec	-0.003931036
25	0x3c0f0c85	0.008731012
26	0x3d0af224	0.03392233
27	0xbc0127b1	-0.007882998
28	0x3cf7538c	0.030191205
29	0xbd2edccd	-0.04269104
30	0xbc366eba	-0.011134798
31	0x3c941d97	0.018080516
32	0xbcccd7fb	-0.025005331
33	0xbb177c9d	-0.0023115047
34	0x3d007383	0.03136016
35	0xbc3cd364	-0.011525009
36	0x3c5ac44c	0.013352465
37	0x3c8ba536	0.017046552
38	0xbd24a24e	-0.04019385
39	0x3c8f349e	0.017481145
40	0x3c212c4f	0.009837224
41	0x3d38a773	0.045081567
42	0x3c906026	0.017623972
43	0xbc71791a	-0.0147383455
44	0xbb09beba	-0.0021018223
45	0xbd0b6a64	-0.03403701
46	0xbc4be1da	-0.012443984
47	0xbcb4a3e8	-0.022050813
48	0xbd862b07	-0.065511756
49	0x3ca5c7c0	0.02023685
50	0x3d0f6ad7	0.035014
51	0xbd3ac462	-0.04559744
52	0xbaf3d8da	-0.0018604056
53	0xbc8a77e2	-0.016902868
54	0xbbac9b3b	-0.0052675284
55	0x3cae7a43	0.021298533
56	0x3b4b294a	0.0030999952
57	0x3be8446e	0.0070882356
58	0x3b823593	0.0039736717
59	0xbbe2bea9	-0.006919701
60	0x3d578f89	0.05262712
61	0x3cdaeeec	0.026725255
62	0xbce1df8c	-0.027572416
63	0xbcf462a8	-0.0298322
64	0xbc7b1d47	-0.0153268045
65	0xbc2cdb2a	-0.0105503
66	0xbd778c99	-0.06043682
67	0xbd057450	-0.032581627
68	0x3bf50893	0.0074778288
69	0x3d610308	0.05493453
70	0x3d7c7301	0.061633114
71	0x3d6a1b9f	0.057155248
72	0xbcfa1b0a	-0.030530471
73	0x3d9d9c98	0.076958835
74	0x3d43f423	0.04784025
75	0xbd1dbb18	-0.038508505
76	0xbd85820d	-0.06518946
77	0xbd71a77b	-0.058997612
78	0x3a8571b3	0.001018098
79	0xbafc5981	-0.0019252748
80	0x3d4ea3ac	0.05044906
81	0x3d009d30	0.031399906
82	0xbd4a464d	-0.04938345
83	0x3c5c1121	0.013431818
84	0x3b8345f2	0.004006141
85	0x3cf07bb5	0.029355863
86	0x3c8d8b84	0.01727844
87	0xbd0fbfaa	-0.035094894
88	0xbc22d000	-0.009937286
89	0x3c9a906f	0.0188677
90	0xbd352fcb	-0.044235032
91	0x3d2b0b30	0.041758716
92	0xbd0036d2	-0.03130228
93	0xbd271110	-0.040787756
94	0x3c884f34	0.01663933
95	0x3bd3b9b2	0.0064613456
96	0x3d4c4468	0.049869925
97	0x3c131747	0.008977718
98	0xbcc5d613	-0.02414993
99	0x3d213999	0.03936157
100	0x3c9cb3ac	0.019128643
101	0xbc9e7717	-0.019343896
102	0xbd5380fc	-0.05163668
103	0xbcf061a3	-0.029343432
104	0xbc667dcb	-0.014068077
105	0xbd0f1e27	-0.034940865
106	0xbcfb0751	-0.030643137
107	0xbc3c84db	-0.011506285
108	0x3d2b0f31	0.041762535
109	0x3c688c99	0.014193677
110	0x3cad1dfe	0.021132465
111	0xbd1e7857	-0.038688984
112	0x3c8b5ff1	0.017013522
113	0x3cc8274c	0.0244328
114	0xbc9bfe32	-0.019042108
115	0xbd103a6c	-0.035211965
116	0xbc9daf53	-0.01924864
117	0xbca8d0b5	-0.020607332
118	0xbc45b822	-0.012067826
119	0xbdc6f885	-0.0971537
120	0xbc307f2d	-0.010772509
121	0xbb5e75eb	-0.0033944796
122	0x3c08326b	0.008312802
123	0x3d46bbed	0.048519064
124	0xbd302ccd	-0.043011475
125	0x3cd2c5b4	0.025729038
126	0x3d5f9b35	0.054591376
127	0x3c2930cf	0.010326578
128	0xbd3cf0f6	-0.046128236
129	0x3cdf0576	0.027224284
130	0x3cbf6218	0.023362204
131	0xbc01dcff	-0.007926225
132	0x3cb04934	0.021519281
133	0xbcd6fba6	-0.026243042
134	0xbcc87a52	-0.02447239
135	0xbcab5684	-0.020915277
136	0xbc1c7415	-0.0095491605
137	0x3cfd40be	0.03091466
138	0xbc749184	-0.014927272
139	0xbcbff4c9	-0.023432152
140	0x3d4f3099	0.050583456
141	0x3d26f56d	0.0407614
142	0x3cfe65bf	0.031054376
143	0xbd1cdb6c	-0.038295195
144	0x3cc3ee6e	0.023917403
145	0x3c478290	0.012177125
146	0x3d357b54	0.044307068
147	0xbc1a9ad7	-0.009436331
148	0xbd0aa512	-0.03384883
149	0xbc826d51	-0.015921267
150	0x3c7b0526	0.015321052
151	0xbd0fb30f	-0.035082873
152	0x3ba9395a	0.0051643075
153	0x3caa2ee4	0.020774312
154	0x3d111386	0.03541901
155	0xbc6edee2	-0.014579507
156	0xbd032a95	-0.03202303
157	0x3c8597bd	0.016307706
158	0x3cafc459	0.02145593
159	0x3c3af903	0.011411908
160	0x3c3dc1e0	0.011581868
161	0xbc9db6ee	-0.019252267
162	0xbb9fadc8	-0.0048730113
163	0x3d577738	0.05260393
164	0xbd81b54a	-0.06333406
165	0xbbe24c74	-0.0069060866
166	0xbc263b4d	-0.010145974
167	0x3d2486c6	0.040167592
168	0xbc767b48	-0.015044041
169	0xbba7ba9b	-0.0051186807
170	0xbbf0ebd8	-0.0073523335
171	0xbac85ac9	-0.0015285845
172	0xbbeaa25b	-0.0071604676
173	0x3bb90590	0.005646415
174	0x3c782694	0.0151459165
175	0x3cc94338	0.024568185
176	0x3c0f17ba	0.008733684
177	0x3c237457	0.009976468
178	0x3cad4641	0.021151664
179	0x3d15c34b	0.0365632
180	0xbcbccd8b	-0.02304723
181	0x3d0878e9	0.033318434
182	0x3cad2075	0.02113364
183	0xbc76be1e	-0.015059976
184	0xbc6a606e	-0.014305217
185	0x3bc87c16	0.006118308
186	0x3cc3160a	0.02381422
187	0x3c9afd01	0.01891947
188	0xbc912670	-0.017718524
189	0xbd11262a	-0.035436787
190	0x3d14f156	0.03636297
191	0xbb1de7f2	-0.002409455
192	0x3aaba7c2	0.001309626
193	0xbbc97bd6	-0.0061487956
194	0x3c96b2cc	0.018395804
195	0xbc8c5a86	-0.017133009
196	0x3c320f7e	0.010867951
197	0xbd005ee1	-0.031340484
198	0x3bfe15ed	0.0077540786
199	0xbc9f160c	-0.019419692
200	0xba9ba347	-0.0011874222
201	0x3d4abaa0	0.049494386
202	0xb98117b5	-0.0002462246
203	0xb9222a74	-0.00015465339
204	0xbb18b565	-0.002330148
205	0xbb20ee09	-0.0024555943
206	0xbb383bf8	-0.0028111916
207	0x3a835018	0.0010018377
208	0xbc00bdb3	-0.007857728
209	0xbc9f70f4	-0.01946304
210	0x3b31ba73	0.002711919
211	0xbc03f59a	-0.008054161
212	0x3b71b5ff	0.003688216
213	0xba5814bb	-0.0008242835
214	0x3d029c08	0.031887084
215	0x3c178492	0.009247916
216	0xbc8d091f	-0.017216263
217	0xbae6f5c7	-0.0017620855
218	0xbc05e36e	-0.008171899
219	0xbc38e5e1	-0.011285276
220	0x3c201a6b	0.009771924
221	0x3b8c264a	0.0042770253
222	0xbcb15274	-0.021645762
223	0xbcbd2d61	-0.023092927
224	0x3cc13a19	0.023587273
225	0x3c1876b1	0.009305642
226	0x3c110879	0.008852118
227	0x3b23d185	0.002499671
228	0x39e09c10	0.00042840885
229	0x3b748846	0.003731267
230	0x3beafdd9	0.0071713743
231	0xbbfeeb9f	-0.007779553
232	0xbc63a72e	-0.013894839
233	0x3b85abd6	0.0040793223
234	0x3d59f374	0.05321069
235	0x3caeca6e	0.02133676
236	0x3d1530d5	0.036423523
237	0xbd8e1f25	-0.06939534
238	0xbd3eabf9	-0.046550725
239	0xbd260300	-0.040530205
240	0xbd80f9cf	-0.06297647
241	0x3c9d2224	0.019181319
242	0x3d4b23b0	0.04959458
243	0xbd118666	-0.035528563
244	0xbd2daa45	-0.04239871
245	0x3cd89fcd	0.026443386
246	0xbcf03a2b	-0.029324612
247	0x3a20a5e8	0.00061282376
248	0xbc0a0389	-0.008423694
249	0xbcbcd65c	-0.023051433
250	0xbcf4219a	-0.029801179
251	0x3b8ae45c	0.0042386483
252	0x3bb81f26	0.0056189476
253	0x3cd34db3	0.025793886
254	0xbc68c133	-0.0142062185
255	0xbc2fec2f	-0.010737463

bn_cont.weight f4 [6]
0	0x3e15a288	0.14612782
1	0x3ddc5783	0.10758879
2	0x3e14d0a9	0.14532723
3	0x3e0f14bf	0.13972758
4	0x3e10dc55	0.1414655
5	0x3e203c6b	0.15648048

bn_cont.bias f4 [6]
0	0xbf574e10	-0.8410349
1	0xbf60ba92	-0.87784684
2	0xbf345916	-0.70448434
3	0xbf27ef29	-0.65599304
4	0xbf5fdb3e	-0.8744391
5	0xbf475a85	-0.77872497

bn_cont.running_mean f4 [6]
0	0xbd015716	-0.031577192
1	0xbbd4f152	-0.006498494
2	0x3c3dfdf3	0.011596191
3	0xbd32af11	-0.043623988
4	0xbc0670fe	-0.00820565
5	0xbce2437a	-0.027620066

bn_cont.running_var f4 [6]
0	0x3f8060a9	1.0029498
1	0x3f824c03	1.0179447
2	0x3f71573c	0.94273734
3	0x3eb1894f	0.3467507
4	0x3f6d7053	0.9274952
5	0x3f833827	1.0251511

layers.0.0.weight f4 [200, 58]
0	0xbd51a5a4	-0.051183358
1	0x3ce23867	0.027614785
2	0xbd987499	-0.07444114
3	0xbd672a50	-0.056436837
4	0x3df51cf5	0.11968414
5	0xbc6769f8	-0.014124386
6	0x3e08744b	0.13325612
7	0xbdc3c082	-0.09558202
8	0xbdf03e95	-0.117306866
9	0x3c491f0c	0.012275469
10	0x3da0b70b	0.07847413
11	0x3db47142	0.08810665
12	0x3e1d645d	0.15370317
13	0x3d6fad5a	0.05851493
14	0xbccb70d2	-0.02483407
15	0xbd9d1710	-0.076704144
16	0xbc97d65c	-0.018534832
17	0xbd89a363	-0.06720617
18	0xbc010f91	-0.0078772465
19	0x3d6f33b6	0.058398925
20	0x3d554bf6	0.052074395
21	0xbd3a4ed1	-0.04548532
22	0xbc10f722	-0.008847984
23	0xbd3ea429	-0.046543274
24	0xbdfa16fd	-0.12211416
25	0x3df33092	0.118744984
26	0x3bb3cb91	0.0054869135
27	0x3d7c62a8	0.061617523
28	0xbdb229fb	-0.086994134
29	0xbd1e707a	-0.038681485
30	0xbda9e547	-0.08295684
31	0xbe133331	-0.14374997
32	0x3d2c5366	0.042071722
33	0x3d27f8ee	0.041008882
34	0x3d89186d	0.06694112
35	0x3d0a1d7a	0.033719517
36	0xbddbc809	-0.10731513
37	0x3dc48da6	0.0959733
38	0xbded3d20	-0.11583924
39	0xbd8ca51c	-0.068674296
40	0xbde48e3d	-0.11159942
41	0xbd579249	-0.052629743
42	0xbc9253ad	-0.017862165
43	0x3bb43b2f	0.0055002193
44	0x3cc43d6e	0.023955073
45	0x3cb0eb5c	0.021596603
46	0xbcdd8b33	-0.027043914
47	0xbd9e2754	-0.07722345
48	0x3d6cd71a	0.057822324
49	0x3ddbd143	0.10733273
50	0xbda24502	-0.079233184
51	0x3de82f85	0.11337189
52	0xbdcc4275	-0.09973613
53	0x3dfd39cf	0.12364542
54	0xbd5086d7	-0.050909843
55	0x3dcb320b	0.09921654
56	0xbdec47bd	-0.115371205
57	0xbe133f7c	-0.14379686
58	0xbd8f05e9	-0.06983549
59	0xbd9e9e08	-0.07744986
60	0xbd75185e	-0.05983769
61	0x3db1ae38	0.08675808
62	0xbc917b8c	-0.017759107
63	0xbc79d346	-0.015248125
64	0xbd0e9d5c	-0.03481804
65	0x3db23aae	0.087025985
66	0x3d0cb6bd	0.03435396
67	0xbc453983	-0.012037638
68	0xbdc17b6d	-0.0944737
69	0x3d3062db	0.043063026
70	0x3decac4d	0.11556301
71	0xbde38a2b	-0.11110338
72	0xbdae26ab	-0.08503469
73	0xbbc6b3bb	-0.006063906
74	0xbdf23b2e	-0.11827694
75	0xbd676a01	-0.056497578
76	0x3de8320a	0.11337669
77	0xbd60975d	-0.05483185
78	0xbc914204	-0.017731674
79	0x3e1711d7	0.14752899
80	0xbd97a01b	-0.074035846
81	0xbc834288	-0.016022936
82	0xbb85173a	-0.0040616067
83	0x3d53dfee	0.051727228
84	0xbdbc2917	-0.09187525
85	0xbd1d2b30	-0.038371265
86	0x3da76557	0.08173626
87	0x3dc59071	0.09646691
88	0x3d530205	0.051515598
89	0xbddf23ef	-0.10895526
90	0xbdacd1d8	-0.08438462
91	0xbe04427b	-0.12915985
92	0x3dbae02e	0.0912479
93	0xbb86b3df	-0.004110798
94	0xbc881165	-0.016609857
95	0x3da4485f	0.08021616
96	0xbd015a47	-0.031580236
97	0x3cea5c9d	0.028608615
98	0x3e01f89e	0.12692496
99	0xbdb4274c	-0.08796558
100	0xbc3cd0f4	-0.011524428
101	0xbdb82622	-0.08991648
102	0x3d38044e	0.04492598
103	0x3cc30aac	0.0238088
104	0xbdd1c282	-0.102421775
105	0xbd879fb4	-0.06622258
106	0xbdd2ea9d	-0.10298655
107	0x3e210c40	0.15727329
108	0xbe1091c2	-0.14118102
109	0x3d291af8	0.041285485
110	0xbd848f29	-0.06472618
111	0xbc63bd2d	-0.0139000835
112	0xbdd5603e	-0.10418747
113	0x3dbe7669	0.09299929
114	0xbd37448b	-0.044743102
115	0xbdc15912	-0.09440817
116	0xbd8bc95e	-0.06825517
117	0x3dab2a08	0.08357626
118	0xbd86da2f	-0.06584584
119	0xbdef42e9	-0.11682684
120	0x3da04e8f	0.07827484
121	0xbe05d572	-0.13069704
122	0xbd80c84c	-0.062882036
123	0x3cf33eb3	0.029692983
124	0x3acc13f3	0.001556991
125	0xbe0fe902	-0.14053729
126	0xbb6c56b2	-0.0036062417
127	0x3dc06e61	0.09396053
128	0xbdb74e76	-0.08950512
129	0x3d9859b5	0.07438985
130	0xbc3457f3	-0.011007297
131	0x3d724351	0.05914623
132	0x3e1df816	0.15426669
133	0x3d235bfe	0.039882652
134	0x3d90c692	0.07069124
135	0xbd7fa57b	-0.062413674
136	0xbda28c21	-0.07936884
137	0x3d8ca92f	0.06868207
138	0xbdd01a9b	-0.101613246
139	0x3d9bcc37	0.0760731
140	0x3c05ef95	0.008174797
141	0xba73b014	-0.0009295952
142	0x3da11118	0.078645885
143	0x3dc491a3	0.095980905
144	0xbe23a293	-0.15979986
145	0xbdb80597	-0.08985441
146	0xbe029295	-0.12751229
147	0xbdd5ac65	-0.10433272
148	0xbd669112	-0.056290694
149	0xbd9d4829	-0.07679779
150	0x3e0e6570	0.13905883
151	0x3ded80ba	0.11596818
152	0xbdf90de3	-0.12160852
153	0xbcfd8758	-0.030948326
154	0x3dc8c67a	0.098034814
155	0x3d1b3fde	0.037902705
156	0x3dc9b6e4	0.09849337
157	0xbca6d9ff	-0.02036762
158	0x3ded8ec7	0.11599498
159	0x3c6103b6	0.013733795
160	0x3db62a48	0.08894783
161	0x3dc625b0	0.09675157
162	0x3d49499a	0.049142458
163	0x3c096bd6	0.0083875265
164	0x3d139e54	0.036039665
165	0xbc828c73	-0.015936112
166	0xbda4b332	-0.08041991
167	0x3debe253	0.11517777
168	0x3d1a1cf4	0.037625268
169	0xbdd23abb	-0.10265108
170	0x3de24e92	0.11050142
171	0xbc85ed76	-0.016348582
172	0x3d437019	0.047714327
173	0xbd74729a	-0.059679605
174	0xbd6fa672	-0.058508344
175	0xbd66bcfd	-0.056332577
176	0xbc85c5ca	-0.016329665
177	0xbe0a7b86	-0.13523683
178	0x3d0a8194	0.03381498
179	0xbdd12cde	-0.10213636
180	0x3d88be3a	0.06676908
181	0xbde25044	-0.11050466
182	0xbdfedad0	-0.12444079
183	0xbca91439	-0.020639526
184	0x3db2aedd	0.08724759
185	0x3e051712	0.12997082
186	0x3d370251	0.044679943
187	0x3cc24597	0.023714824
188	0x3e1a026f	0.15039991
189	0x3cf52a37	0.029927356
190	0xbdaa64e6	-0.08320026
191	0xbc99f92f	-0.018795578
192	0xbe0f4a87	-0.13993274
193	0xbc4ce5f0	-0.012505993
194	0xbc298f67	-0.010349131
195	0xbd8abdf8	-0.06774515
196	0x3d599ee6	0.053130053
197	0x3e0736da	0.13204518
198	0x3d8a11a0	0.06741643
199	0xbc96823b	-0.018372646
200	0xbdcf37c5	-0.10118059
201	0xbca175a1	-0.01970941
202	0xbd52f2e5	-0.051501174
203	0x3d145ac8	0.03621939
204	0x3cad0941	0.021122577
205	0xbdad6f07	-0.084684424
206	0xbdb367c5	-0.08760027
207	0x3d458330	0.048220813
208	0xbd9b5e97	-0.07586401
209	0x3d17b817	0.037040796
210	0x3df3486e	0.11879049
211	0xbdd5698e	-0.104205236
212	0xbda574e8	-0.08078939
213	0x3ca35254	0.019936718
214	0x3d149744	0.03627707
215	0xbd43621e	-0.047700994
216	0xbdd555bf	-0.104167454
217	0xbd016ae2	-0.031596072
218	0xbcba8d47	-0.022772444
219	0xbe188b26	-0.14896831
220	0xbdbb98d5	-0.0916001
221	0x3e06a6f0	0.13149619
222	0xbd50021a	-0.050783254
223	0x3ba683e1	0.005081639
224	0xbdc7f639	-0.0976376
225	0xbce36194	-0.02775649
226	0x3da63d2c	0.08117136
227	0xbdcae999	-0.099078365
228	0x3c8f56b8	0.017497405
229	0x3d9b117c	0.07571694
230	0xbdab31b8	-0.083590925
231	0x3da030eb	0.0782183
232	0xbdaa7ca7	-0.08324557
233	0x3cd19b50	0.025586754
234	0xbd7f8db9	-0.062391017
235	0x3d16fd2c	0.036862537
236	0xbcfc5e73	-0.030806756
237	0xbced1583	-0.028940922
238	0xbddee95d	-0.10884354
239	0x3dbf64c4	0.093453914
240	0xbd801a9f	-0.062550776
241	0xbd10f2b8	-0.035387725
242	0xbb8933c7	-0.0041870805
243	0xbb4f7d6b	-0.0031660448
244	0x3cba5bc0	0.022748828
245	0x3de16eb5	0.11007444
246	0x3df2acd4	0.118493706
247	0x3dd2ff23	0.1030257
248	0xbbe961e5	-0.0071222656
249	0xbdb8997b	-0.09013649
250	0xbcc893f8	-0.02448462
251	0x3dd76146	0.105166
252	0x3d4a6a3f	0.04941773
253	0xbc76a946	-0.015055006
254	0xbde865c0	-0.11347532
255	0x3db82b6a	0.089926556

layers.0.2.weight f4 [200]
0	0x3f7cf561	0.9881192
1	0x3f8257f3	1.018309
2	0x3f7500bc	0.95704246
3	0x3f81a9d5	1.0129954
4	0x3f7e9686	0.9944843
5	0x3f7d4c92	0.9894496
6	0x3f781f29	0.96922547
7	0x3f83788c	1.0271163
8	0x3f7cb295	0.98709995
9	0x3f7fdb40	0.99943924
10	0x3f7d1b4b	0.9886977
11	0x3f842dad	1.0326439
12	0x3f7cb02b	0.9870631
13	0x3f7a35d2	0.97738373
14	0x3f80eccb	1.0072263
15	0x3f7ebc7f	0.9950637
16	0x3f7ca445	0.98688155
17	0x3f80477c	1.0021815
18	0x3f837005	1.0268561
19	0x3f80857d	1.0040737
20	0x3f81f686	1.0153358
21	0x3f819441	1.0123369
22	0x3f808d16	1.0043056
23	0x3f7e535a	0.99345934
24	0x3f852c4c	1.0404143
25	0x3f7e51b1	0.993434
26	0x3f80ba2b	1.0056814
27	0x3f774736	0.96593034
28	0x3f81afe2	1.01318
29	0x3f80961d	1.0045811
30	0x3f7f7304	0.99784875
31	0x3f80e8b1	1.0071012
32	0x3f7a754f	0.9783525
33	0x3f807406	1.0035408
34	0x3f807162	1.0034602
35	0x3f80bd14	1.0057702
36	0x3f7aa353	0.97905463
37	0x3f7b86a0	0.98252296
38	0x3f8003e4	1.0001187
39	0x3f80185a	1.0007432
40	0x3f7f0afb	0.9962613
41	0x3f773dca	0.9657866
42	0x3f80486a	1.0022099
43	0x3f87c388	1.0606546
44	0x3f854009	1.0410167
45	0x3f807e69	1.0038577
46	0x3f7ef7cb	0.9959685
47	0x3f816e8b	1.011186
48	0x3f847e8e	1.0351121
49	0x3f81f079	1.0151511
50	0x3f7acf29	0.9797235
51	0x3f813bec	1.0096412
52	0x3f8166da	1.0109513
53	0x3f80912e	1.0044305
54	0x3f83c435	1.0294253
55	0x3f7dcfc1	0.9914513
56	0x3f809ad6	1.0047252
57	0x3f80c5da	1.006038
58	0x3f7e5f95	0.99364597
59	0x3f83729e	1.0269353
60	0x3f7f0868	0.996222
61	0x3f81b785	1.0134131
62	0x3f7b2503	0.9810335
63	0x3f830256	1.0235088
64	0x3f7ceaa0	0.9879551
65	0x3f7b7001	0.9821778
66	0x3f802122	1.0010111
67	0x3f828980	1.0198212
68	0x3f77259a	0.9654175
69	0x3f8428d1	1.0324956
70	0x3f7af1e4	0.98025346
71	0x3f80fab9	1.0076514
72	0x3f7db4c6	0.99103963
73	0x3f844e30	1.0336361
74	0x3f7d8e50	0.99045277
75	0x3f8101f5	1.0078722
76	0x3f7d833f	0.9902839
77	0x3f81cf9c	1.0141482
78	0x3f7dcc0e	0.9913949
79	0x3f8126ef	1.0090007
80	0x3f7c00e4	0.9843886
81	0x3f7f5d7b	0.99752015
82	0x3f81ef89	1.0151225
83	0x3f7d6396	0.9898008
84	0x3f7b9625	0.9827598
85	0x3f7cf178	0.9880595
86	0x3f805cbd	1.0028301
87	0x3f81b97c	1.013473
88	0x3f7f9edd	0.9985178
89	0x3f7fed0c	0.9997108
90	0x3f8056d6	1.00265
91	0x3f7d2a7b	0.98892945
92	0x3f7e20e6	0.9926895
93	0x3f80ed6b	1.0072454
94	0x3f814320	1.009861
95	0x3f8148d4	1.010035
96	0x3f7f589c	0.9974458
97	0x3f82ad16	1.0209072
98	0x3f82f6f5	1.0231615
99	0x3f7cbee8	0.987288
100	0x3f81abb1	1.0130521
101	0x3f76ba9d	0.963785
102	0x3f7ca634	0.98691106
103	0x3f844041	1.0332109
104	0x3f7f9745	0.99840194
105	0x3f7db379	0.9910198
106	0x3f80e1af	1.0068873
107	0x3f81f3bd	1.0152508
108	0x3f817e8e	1.0116746
109	0x3f7fadc2	0.9987451
110	0x3f7b56f5	0.9817956
111	0x3f7b9ef8	0.9828944
112	0x3f804f9e	1.0024297
113	0x3f7d0dce	0.9884919
114	0x3f7ae8eb	0.98011655
115	0x3f793d85	0.97359496
116	0x3f7e6848	0.9937787
117	0x3f820acf	1.0159549
118	0x3f838595	1.0275141
119	0x3f7fecaf	0.99970526
120	0x3f818afc	1.012054
121	0x3f81f730	1.0153561
122	0x3f7d23c1	0.9888268
123	0x3f84468e	1.0334032
124	0x3f7404c8	0.95319796
125	0x3f84ee13	1.0385154
126	0x3f7844f6	0.96980226
127	0x3f794327	0.9736809
128	0x3f870d0d	1.0550858
129	0x3f7e4e66	0.99338377
130	0x3f78080f	0.96887296
131	0x3f7f3d0c	0.99702525
132	0x3f7de791	0.9918147
133	0x3f839307	1.0279244
134	0x3f8199d1	1.0125066
135	0x3f832bfa	1.0247796
136	0x3f7e1ffd	0.9926756
137	0x3f7b1451	0.98077875
138	0x3f7f4c41	0.9972573
139	0x3f80fd7e	1.007736
140	0x3f810078	1.0078268
141	0x3f7e5a9d	0.99357015
142	0x3f79178f	0.9730157
143	0x3f7cf586	0.9881214
144	0x3f81d2e8	1.0142488
145	0x3f7adff1	0.9799796
146	0x3f7f4ecc	0.9972961
147	0x3f7ba01c	0.9829118
148	0x3f7bf3cf	0.984189
149	0x3f7ff878	0.9998851
150	0x3f7edd37	0.995563
151	0x3f7eedac	0.9958141
152	0x3f819a69	1.0125247
153	0x3f814434	1.0098939
154	0x3f7cab9d	0.9869936
155	0x3f85dc1a	1.0457795
156	0x3f828c82	1.019913
157	0x3f82b019	1.0209991
158	0x3f80ae1d	1.0053135
159	0x3f7de40a	0.99176085
160	0x3f7e08fb	0.99232453
161	0x3f80a728	1.0051012
162	0x3f7aa8a3	0.9791357
163	0x3f815eee	1.0107095
164	0x3f7ed8a4	0.9954932
165	0x3f7c19d2	0.984769
166	0x3f817915	1.0115076
167	0x3f8395ce	1.0280092
168	0x3f8029a9	1.0012714
169	0x3f8315c1	1.0241014
170	0x3f7d0062	0.9882871
171	0x3f83335f	1.0250052
172	0x3f7fdeff	0.9994964
173	0x3f7d82be	0.9902762
174	0x3f7d26f3	0.98887557
175	0x3f7ee5f5	0.99569637
176	0x3f78cb71	0.97185427
177	0x3f8265ff	1.0187377
178	0x3f80accd	1.0052735
179	0x3f7b4f74	0.9816811
180	0x3f755ed0	0.958478
181	0x3f80f8d4	1.0075936
182	0x3f7580b4	0.9589951
183	0x3f796712	0.974229
184	0x3f8262b6	1.0186374
185	0x3f7d41cf	0.9892854
186	0x3f824a20	1.0178871
187	0x3f838d3e	1.0277479
188	0x3f7faea7	0.99875873
189	0x3f7f8a75	0.99820644
190	0x3f80fa81	1.0076448
191	0x3f828b58	1.0198774
192	0x3f7ca5ae	0.9869031
193	0x3f7bdd89	0.9838491
194	0x3f8250b6	1.0180881
195	0x3f813509	1.009431
196	0x3f82ba3f	1.0213088
197	0x3f7b8724	0.98253083
198	0x3f859d9e	1.0438726
199	0x3f73a595	0.95174533

layers.0.2.bias f4 [200]
0	0x3c58d9ca	0.013235519
1	0xbc5632e9	-0.013073661
2	0xbcf10764	-0.02942247
3	0x3c5e17bc	0.013555463
4	0xbbac1713	-0.005251774
5	0x3b13ad97	0.0022533888
6	0xbd2431dc	-0.040086612
7	0xbd17cdb7	-0.03706142
8	0xbbccaf90	-0.0062465146
9	0x3bee81ce	0.0072786575
10	0x3ce6e3b7	0.028184755
11	0x3c7d0fbf	0.015445649
12	0x3cb37a2c	0.021908842
13	0xbbbb4ef2	-0.005716198
14	0xbc5edd86	-0.01360262
15	0xbbb05094	-0.0053806994
16	0x3c1e037b	0.0096443845
17	0x3d140043	0.036133062
18	0xbbdb4449	-0.00669149
19	0x3cf2ed17	0.029654069
20	0x3c4c0577	0.012452475
21	0x3b3516d2	0.002763201
22	0x3a6b6d06	0.00089807843
23	0xbc9c0847	-0.019046916
24	0x3ce8403b	0.02835094
25	0xbb22aed5	-0.0024823446
26	0x3a7b91d2	0.0009596619
27	0xb97f4214	-0.00024343311
28	0x3d0a1c20	0.03371823
29	0xbd1d40bc	-0.038391814
30	0x3b8e6c59	0.004346412
31	0xbccf96aa	-0.025340397
32	0x3bc7ce67	0.006097603
33	0xbcf03945	-0.029324183
34	0xbc2740e8	-0.010208346
35	0x3bd6d0a7	0.006555635
36	0xbb563045	-0.003268258
37	0xbca55e78	-0.020186648
38	0x3c46e88f	0.012140407
39	0x3c6df39c	0.014523413
40	0x3aec2003	0.0018014911
41	0x3cdde62c	0.027087294
42	0xbc61b96a	-0.013777116
43	0x3c8b8dd0	0.017035395
44	0xbc27b610	-0.010236278
45	0x3c0c877a	0.008577222
46	0xbc87845e	-0.01654261
47	0xbc275a97	-0.010214469
48	0xbd256798	-0.040381998
49	0x3b1843ce	0.0023233774
50	0xbbfff351	-0.007810988
51	0xbc0f6306	-0.008751636
52	0x3d09ea62	0.03367079
53	0xbc8a74fa	-0.016901482
54	0x3d27d7d8	0.04097733
55	0x3b408ac2	0.002937958
56	0xbd47f4b1	-0.04881734
57	0xbbc6c6e7	-0.0060661915
58	0x3c210ef6	0.009830227
59	0xbc324f33	-0.01088314
60	0xbcd1cf29	-0.025611477
61	0x3b73f4df	0.0037224812
62	0x3c7df890	0.015501156
63	0xbc3527bc	-0.011056837
64	0x3ca2575d	0.019817049
65	0x3ca13bf0	0.0196819
66	0x3aa0269d	0.0012218539
67	0xbd38a5d1	-0.04508001
68	0xbc90d629	-0.017680245
69	0xbab2ec4a	-0.0013650742
70	0x3d1ef27e	0.038805477
71	0xbc2f9fc7	-0.010719246
72	0xbbc65e2f	-0.006053708
73	0x3bd00f70	0.0063494965
74	0x3c987ad5	0.018613258
75	0x3cc23f15	0.02371172
76	0x3b98af29	0.0046595526
77	0x3bbaa50b	0.005695944
78	0x3c68d1b0	0.01421015
79	0xbcdc1d5f	-0.026869474
80	0x3cde3973	0.027127003
81	0xbc14b5e6	-0.009076571
82	0xbd0dbfed	-0.034606863
83	0x39902ac0	0.00027497672
84	0x3c94cf4c	0.018165253
85	0x3cbcf936	0.023068052
86	0x3b9435b9	0.004523006
87	0x3cc68bd1	0.024236592
88	0x3c66517a	0.014057511
89	0x3c50929d	0.012730268
90	0xbce619dd	-0.028088504
91	0xbc1e94d4	-0.009679038
92	0x3b1d7719	0.0024027287
93	0x3d16d3c9	0.036823068
94	0x3ca3fcd2	0.020018015
95	0xbaeae8cc	-0.0017922162
96	0xbcce69f6	-0.02519701
97	0x3c36a8a2	0.011148604
98	0x3bc281e7	0.0059358957
99	0x3cc7d913	0.024395501
100	0x3a328d31	0.00068112003
101	0x3cf6919b	0.030098727
102	0xbbf39e2b	-0.0074346266
103	0x3bfcfee4	0.007720815
104	0xbca0298a	-0.019551057
105	0xbc248cdc	-0.010043349
106	0x3ca4e3f1	0.020128222
107	0x3ce6b277	0.02816127
108	0x3d2f28a8	0.042763382
109	0x3cb94132	0.022614095
110	0xbc0cd573	-0.008595812
111	0xbd1adcf3	-0.03780837
112	0xbc8933d2	-0.016748343
113	0x3cc84c38	0.024450406
114	0x3b0990aa	0.0020990768
115	0xbc06e86a	-0.008234123
116	0x3c694d6c	0.01423965
117	0xba9f1a61	-0.0012138599
118	0xbd27219d	-0.04080354
119	0xbc793111	-0.015209452
120	0xbbea0601	-0.007141829
121	0xbc9aecbc	-0.018911712
122	0x3b6d1632	0.003617656
123	0x3c2f9dfd	0.01071882
124	0xbca6bb3f	-0.020352958
125	0xbc44ca79	-0.012011164
126	0xbd2b5943	-0.041833173
127	0xbc603f25	-0.01368693
128	0x3b6080ed	0.0034256533
129	0xbcfb1fb3	-0.030654764
130	0x3be6c638	0.0070426725
131	0x3be1a7c3	0.006886454
132	0x3bb98f05	0.005662801
133	0x3ce11916	0.027477782
134	0xbbecd7ad	-0.007227859
135	0xbce38a8f	-0.02777603
136	0xbd043a45	-0.032282133
137	0x3d92acdc	0.071618766
138	0xbc999f58	-0.018752739
139	0xbc57461d	-0.013139275
140	0xbbb30536	-0.0054632677
141	0x38bc9db3	8.993912e-05
142	0x3c15edef	0.009150966
143	0xbcbcd9d9	-0.023053097
144	0x3a2b3ffd	0.00065326673
145	0x3ca9a3c7	0.020707978
146	0xbcc25705	-0.023723135
147	0xbc830935	-0.015995601
148	0xbd000321	-0.031252984
149	0x3cc6528a	0.02420928
150	0x3cdd813c	0.027039163
151	0x3d4e9027	0.050430443
152	0x3bd6fcce	0.0065608984
153	0x3c323a0e	0.010878099
154	0xbc939c76	-0.018018942
155	0xbcc9b831	-0.024623962
156	0xbcdaad9e	-0.026694115
157	0x3c9409f7	0.018071158
158	0x3d576da1	0.052594785
159	0x3b8b765e	0.004256054
160	0x3cfc199e	0.030773934
161	0x3cf5f9ec	0.030026399
162	0x3ca12088	0.019668832
163	0xbcf45e06	-0.02982999
164	0x3c177372	0.009243833
165	0xbcae7894	-0.02129773
166	0x3c144cec	0.009051543
167	0xbcd48652	-0.025942955
168	0xbc11f941	-0.008909524
169	0xbca1cbf4	-0.019750573
170	0xbc190319	-0.009339117
171	0xbc4a4c11	-0.012347237
172	0xbd01570d	-0.03157716
173	0x39bda72b	0.0003617344
174	0xbba8b7e1	-0.005148873
175	0x3c562e99	0.013072633
176	0x3cc524ee	0.024065461
177	0x3b6822f5	0.0035421227
178	0x3c3cba80	0.011519074
179	0x3c7f8f82	0.01559818
180	0xbbb0ca94	-0.005395243
181	0x3ce7711a	0.028252173
182	0x3b18df97	0.002332663
183	0x3cfd2803	0.030902868
184	0xbcd651ae	-0.026161995
185	0x3c8f93e2	0.01752657
186	0x3bf8b151	0.007589497
187	0x3be8947a	0.007097778
188	0xbacb0bf1	-0.001549123
189	0x3bda902e	0.0066700196
190	0xbc90039c	-0.017579846
191	0x3d6bc0cb	0.05755691
192	0xbd2cde20	-0.042204022
193	0x3c963fe5	0.018341014
194	0x3ccc7612	0.024958644
195	0x39dec777	0.00042491753
196	0xbd436385	-0.04770233
197	0xbd08be69	-0.033384714
198	0xbc9a5e15	-0.01884369
199	0xbce707e9	-0.028202014

layers.0.2.running_mean f4 [200]
0	0x3e2a29ef	0.16617559
1	0x3e467636	0.19381031
2	0x3c67ee58	0.014155947
3	0x3b57a3e8	0.0032904092
4	0x3e291b7f	0.16514395
5	0x3d163294	0.03666933
6	0x08aed3e0	1.0522056e-33
7	0x3e59e0e0	0.21277189
8	0x3ccbc5d1	0.0248746
9	0x3e46c22a	0.19410005
10	0x3c9e44d2	0.019319925
11	0x3bade3d1	0.005306699
12	0x3e4aca51	0.1980374
13	0x3d837f68	0.06420785
14	0x0352f670	6.199635e-37
15	0x13cc40c6	5.156071e-27
16	0x3e74330a	0.23847595
17	0x39b08e44	0.00033675332
18	0x3af78c54	0.0018886426
19	0x394e7db9	0.00019692526
20	0x3d4b826b	0.049684923
21	0x3d917567	0.07102471
22	0x3de8feca	0.11376722
23	0x3d11b73c	0.035575137
24	0x3c24b25a	0.010052288
25	0x3e681bcb	0.22666852
26	0x3e93093b	0.2871798
27	0x1b767be8	2.0388679e-22
28	0x13021143	1.6416818e-27
29	0x0c6ca484	1.8230286e-31
30	0x1c1b221b	5.132928e-22
31	0x3b7fc2ca	0.0039026015
32	0x3b9b4e48	0.0047395565
33	0x156eaf55	4.820203e-26
34	0x3d1e0b61	0.03858507
35	0x3bc77bde	0.006087764
36	0x39d26bc4	0.00040134613
37	0x3ca6d171	0.020363541
38	0x13b51f9a	4.5721985e-27
39	0x3ddf8783	0.10914519
40	0x3e40665d	0.18789048
41	0x3b86638d	0.004101223
42	0x0d8acc19	8.554041e-31
43	0x3a765461	0.0009396729
44	0x3e4d791e	0.20065734
45	0x3d8c2780	0.068434715
46	0x3e949137	0.2901704
47	0x37cca6ee	2.4396428e-05
48	0x0d06285a	4.134051e-31
49	0x3de166d2	0.110059395
50	0x3a2f25f3	0.0006681375
51	0x2d995d65	1.7435562e-11
52	0x3d0c3bc4	0.034236684
53	0x34bed04c	3.5541814e-07
54	0x3c1c0694	0.009523053
55	0x3c684b65	0.014178132
56	0x3d61f073	0.05516095
57	0x3de5a259	0.11212606
58	0x3dffd06d	0.12490926
59	0x38944355	7.0697315e-05
60	0x3ecbef36	0.3983094
61	0x3a574f1a	0.0008213386
62	0x398927e2	0.0002616039
63	0x3d026d5e	0.031842582
64	0x0b0b6a94	2.6850607e-32
65	0x0a30d11b	8.51342e-33
66	0x3e2f499a	0.1711792
67	0x3e854cb9	0.26035097
68	0x3cf1f690	0.029536515
69	0x3e0cde1f	0.13756607
70	0x3caf1e00	0.02137661
71	0x3e766bab	0.2406451
72	0x3b38d054	0.0028200345
73	0x3afcca37	0.0019286339
74	0x3eb470d2	0.35242325
75	0x3764a2d3	1.36277695e-05
76	0x3bf60783	0.0075082197
77	0x1d913279	3.8433368e-21
78	0x3e16476f	0.14675687
79	0x3a50c1b9	0.0007963437
80	0x3b9e6944	0.004834326
81	0x3dfdad75	0.123866
82	0x3d3895f4	0.04506488
83	0x2bf1bfb2	1.7177286e-12
84	0x378fa1ac	1.7122213e-05
85	0x12d2f2da	1.3312731e-27
86	0x3cbfbf3c	0.023406617
87	0x3e2b6c50	0.16740537
88	0x3b3b2e61	0.002856158
89	0x3e89038d	0.26760522
90	0x3cadf8a7	0.02123673
91	0x182434ec	2.1223222e-24
92	0x3d557aab	0.05211894
93	0x3dc44dee	0.095851764
94	0x3dcf6a76	0.10127728
95	0x3e838c35	0.25692907
96	0x3bc7284d	0.0060778023
97	0x3dc2ad05	0.09505657
98	0x39099731	0.00013121661
99	0x17223815	5.241581e-25
100	0x3e804b08	0.25057244
101	0x3d5588ff	0.052132603
102	0x09911b00	3.493287e-33
103	0x3a92f7c6	0.0011212758
104	0x3e018a51	0.1265042
105	0x3ad22e02	0.001603544
106	0x37822810	1.5515863e-05
107	0x3d1c44fc	0.038151726
108	0x37f83c65	2.9592027e-05
109	0x3c390fb1	0.011295245
110	0x1f86d7ab	5.7108e-20
111	0x3e72e285	0.23719223
112	0x3e88ee3d	0.2674426
113	0x3e64eb6d	0.22355433
114	0x3b24ff27	0.0025176497
115	0x3dfaa19a	0.12237854
116	0x3bccc811	0.0062494357
117	0x3e27eac4	0.1639815
118	0x39d070a3	0.00039756772
119	0x0d8459bd	8.156732e-31
120	0x3a72b7f9	0.00092589814
121	0x3ac8a2c9	0.0015307303
122	0x3e84d42b	0.2594312
123	0x3ad3b05e	0.0016150584
124	0x3e0237f7	0.12716661
125	0x3e872458	0.26394916
126	0x3b5b398d	0.003345105
127	0x3cd185c2	0.025576476
128	0x3ee3c649	0.44487217
129	0x1012fd18	2.89884e-29
130	0x3da05ae0	0.07829833
131	0x3c5a2bb2	0.013316082
132	0x3cf72e8e	0.030173566
133	0x3bba5caf	0.0056873183
134	0x3b440261	0.0029908645
135	0x3d59ba39	0.05315611
136	0x3d6e44d2	0.0581711
137	0x3dc53a36	0.096302435
138	0x3cb120b7	0.021622045
139	0x3b90a3cb	0.004414057
140	0x06ef82af	9.009383e-35
141	0x39bf250a	0.00036457955
142	0x3766470d	1.3725611e-05
143	0x3a9d0758	0.0011980338
144	0x3c637046	0.013881749
145	0x3d35fb39	0.044429038
146	0x399403ab	0.00028231493
147	0x3df786bc	0.120862454
148	0x1b07b73d	1.1226146e-22
149	0x3cd2dcaf	0.025739996
150	0x3bc65b4c	0.006053364
151	0x3a0016c6	0.0004886206
152	0x3c3faaa5	0.0116984
153	0x3b527be4	0.0032117302
154	0x3a080419	0.0005188599
155	0x3a2cbc0e	0.00065893016
156	0x3a6f362c	0.00091251987
157	0x3c517e71	0.012786494
158	0x3aa26046	0.0012388311
159	0x3e080461	0.1328292
160	0x3e122f4d	0.14275856
161	0x3d21012a	0.03930775
162	0x3d1294f3	0.03578658
163	0x3dbd2d06	0.09237103
164	0x3ceaa885	0.02864481
165	0x3d9fb937	0.07798999
166	0x3c3c2e5e	0.011485664
167	0x0550b808	9.813914e-36
168	0x378bca81	1.666439e-05
169	0x3d61358c	0.054982707
170	0x1b1ade8e	1.2810493e-22
171	0x3e792df5	0.24333937
172	0x3e2e1884	0.1700154
173	0x3d900e3d	0.07033966
174	0x3e032e6f	0.12810682
175	0x3b93fd52	0.004516282
176	0x3e2540bf	0.1613798
177	0x3aebb83a	0.0017983981
178	0x3d9e981c	0.07743856
179	0x3c77f72a	0.015134612
180	0x3d9a1a8d	0.075245954
181	0x3d0350f4	0.032059625
182	0x3c78dce0	0.015189379
183	0x1768610d	7.508574e-25
184	0x3e5f56a7	0.21810399
185	0x3933a510	0.00017132261
186	0x3d83da76	0.064381525
187	0x3e156b43	0.14591698
188	0x0905e9d4	1.6119238e-33
189	0x3c8eae38	0.017417058
190	0x3a6bd9dc	0.0008997002
191	0x3d05f268	0.03270188
192	0x3d925e74	0.07146922
193	0x3bd7262e	0.0065658307
194	0x3d8d548c	0.06900892
195	0x3d150a68	0.036386877
196	0x3d20599c	0.03914796
197	0x389ec2f5	7.570341e-05
198	0x3b9f8704	0.00486839
199	0x3d916576	0.0709943

layers.0.2.running_var f4 [200]
0	0x3af38e92	0.0018581918
1	0x3a474209	0.00076010876
2	0x39c230a8	0.00037038815
3	0x38fd091f	0.00012065679
4	0x3a985a67	0.0011623622
5	0x39e2aeaf	0.00043236229
6	0x05fa67d4	2.3548027e-35
7	0x3abf60b2	0.0014600961
8	0x3a0afe79	0.00053022016
9	0x3a8e958c	0.0010878309
10	0x39e5902b	0.00043785697
11	0x398caa90	0.0002682996
12	0x3aa60057	0.0012664896
13	0x3ab762ae	0.0013991201
14	0x00a593e7	1.5205914e-38
15	0x112579bf	1.3053721e-28
16	0x3a3031b7	0.0006721275
17	0x368c0b51	4.1736425e-06
18	0x38e39d41	0.00010853494
19	0x371d244d	9.366381e-06
20	0x3a91b599	0.0011116742
21	0x3a5c2cb6	0.00083989964
22	0x3a9ff24e	0.001220295
23	0x3a2e476d	0.00066482165
24	0x39ac8242	0.00032903446
25	0x3a813fd2	0.0009860939
26	0x3b027b27	0.001990983
27	0x18580a72	2.792262e-24
28	0x0f9c851c	1.543406e-29
29	0x09ec7197	5.6921753e-33
30	0x17529f95	6.805608e-25
31	0x3982e58d	0.0002496656
32	0x39787e95	0.00023698279
33	0x124daaa6	6.4896935e-28
34	0x3a6f7bf2	0.0009135596
35	0x390c5db3	0.00013386346
36	0x37a42c91	1.9571076e-05
37	0x3a2f81fb	0.0006695089
38	0x117c2247	1.9889857e-28
39	0x3a7f3487	0.0009735305
40	0x3a5d102b	0.000843289
41	0x38bd6fea	9.033068e-05
42	0x0ad7e17e	2.0788568e-32
43	0x380bfa5d	3.337335e-05
44	0x3a755ed2	0.00093601376
45	0x3a6cae2d	0.000902864
46	0x3a891545	0.0010458609
47	0x3516c0dc	5.616e-07
48	0x0a11cf2b	7.02046e-33
49	0x3af20359	0.0018464132
50	0x37e24d9f	2.6977445e-05
51	0x29bb6cd3	8.323346e-14
52	0x3a60284f	0.00085509283
53	0x31bbef83	5.4696456e-09
54	0x39d81b3a	0.00041219016
55	0x39d61e11	0.00040839662
56	0x3ad0477f	0.0015890448
57	0x3adbb27f	0.001676157
58	0x3aa45132	0.0012536405
59	0x359a0f55	1.1478356e-06
60	0x3a8cb126	0.0010733947
61	0x38241f5d	3.9129856e-05
62	0x371c6f99	9.324308e-06
63	0x3a7ca95e	0.0009638275
64	0x08978dbc	9.1213035e-34
65	0x0676cb9e	4.6417052e-35
66	0x3b49e080	0.0030803978
67	0x3a893399	0.0010467648
68	0x3a6772c5	0.00088290527
69	0x3a8a88fb	0.0010569388
70	0x39c1122e	0.00036825374
71	0x3a9b458f	0.0011846292
72	0x3895bec0	7.1404036e-05
73	0x38b1e393	8.482407e-05
74	0x3a8c9c0f	0.0010727661
75	0x3455abd4	1.9899682e-07
76	0x395047f4	0.0001986323
77	0x19d89fd6	2.2398434e-23
78	0x3a6d629b	0.0009055526
79	0x3823745a	3.897059e-05
80	0x38dd8a62	0.00010563877
81	0x3a70a314	0.0009179574
82	0x3aa94736	0.0012914899
83	0x28d267ff	2.3359785e-14
84	0x34c074e7	3.5847845e-07
85	0x0fc71d44	1.9634188e-29
86	0x3a2cdd7d	0.00065942836
87	0x3a735a39	0.00092831586
88	0x38c56c92	9.413915e-05
89	0x3a91c6dc	0.0011121887
90	0x3a1e36bd	0.00060353783
91	0x15189970	3.0817196e-26
92	0x3a43b454	0.00074655307
93	0x3a63cdda	0.0008690037
94	0x3a6b663c	0.00089797727
95	0x3aae6bf9	0.0013307325
96	0x395a8aa4	0.00020841748
97	0x3a022221	0.0004964192
98	0x36a134a7	4.8043034e-06
99	0x14bcc836	1.9062118e-26
100	0x3a798733	0.00095187424
101	0x3a3c56c5	0.00071845605
102	0x06b88bfd	6.94188e-35
103	0x38a3acf3	7.80466e-05
104	0x3af6dc27	0.0018833921
105	0x38abb8dc	8.188348e-05
106	0x345014d5	1.9379088e-07
107	0x3a093afa	0.00052349234
108	0x359d4c9e	1.171971e-06
109	0x39aef18b	0.0003336783
110	0x1c6048b2	7.420934e-22
111	0x3a250ef1	0.0006296477
112	0x3a8cb993	0.0010736458
113	0x3ab8ded8	0.0014104499
114	0x38aec48c	8.333576e-05
115	0x3aedfa83	0.0018156323
116	0x39283111	0.00016040007
117	0x3aa2889f	0.0012400335
118	0x3786f5dd	1.6088534e-05
119	0x0af4fa72	2.3590552e-32
120	0x384786e6	4.757093e-05
121	0x384fe873	4.956913e-05
122	0x3a4b5107	0.00077559095
123	0x38dbc8ec	0.000104801584
124	0x39d06eda	0.00039755442
125	0x3aa4576a	0.0012538258
126	0x38be457f	9.072851e-05
127	0x3a3d0e5c	0.00072119175
128	0x3ab7df05	0.0014028257
129	0x0d22b438	5.0137035e-31
130	0x3a76df1e	0.00094174023
131	0x399b99fa	0.00029678625
132	0x3aac8698	0.0013162671
133	0x3931105a	0.00016886127
134	0x39113b59	0.00013850386
135	0x39ccce19	0.00039063467
136	0x3a882f02	0.0010389986
137	0x3ab1b698	0.0013558445
138	0x3a0ded29	0.0005414063
139	0x38e5d5a2	0.00010959363
140	0x04570df4	2.5279536e-36
141	0x3739fb28	1.1085336e-05
142	0x34045ca8	1.2327166e-07
143	0x37ff4e9f	3.043498e-05
144	0x39a633eb	0.0003170067
145	0x3a1f568b	0.00060782646
146	0x3707aefb	8.087368e-06
147	0x3a1b4137	0.00059224985
148	0x1850feb1	2.7011956e-24
149	0x3a5b509d	0.00083661993
150	0x390d351a	0.0001346659
151	0x3784229c	1.5751742e-05
152	0x39afff1f	0.0003356868
153	0x3928f3c6	0.00016112541
154	0x37367009	1.0874131e-05
155	0x382924af	4.0326904e-05
156	0x3809212d	3.2694243e-05
157	0x39b6c273	0.0003485862
158	0x38a169cc	7.6967845e-05
159	0x3a86751e	0.0010258292
160	0x3ab8b860	0.0014093034
161	0x3a465ed9	0.0007567234
162	0x39cbdc19	0.00038883163
163	0x3a537e1c	0.0008067803
164	0x3a63b0cf	0.00086857093
165	0x3af7b18c	0.0018897518
166	0x39bde531	0.0003621965
167	0x02dd443f	3.2512203e-37
168	0x346e8a0e	2.2215701e-07
169	0x3aa55489	0.0012613694
170	0x1736b89e	5.904039e-25
171	0x3a8db106	0.0010810203
172	0x3a7c1c03	0.0009617211
173	0x3a8af390	0.0010601152
174	0x3a627874	0.0008639165
175	0x38f0e37e	0.000114864655
176	0x3a6c151e	0.0009005832
177	0x388d608c	6.741387e-05
178	0x3ab29f07	0.0013627716
179	0x39bd1483	0.00036064172
180	0x3ab9db75	0.0014179783
181	0x3a137603	0.000562519
182	0x3a2bd2f0	0.00065545645
183	0x141c943f	7.905224e-27
184	0x3aae7424	0.0013309759
185	0x36a69bcb	4.965322e-06
186	0x3a29ea88	0.0006481786
187	0x3ac5dd37	0.0015095834
188	0x06379d09	3.4533846e-35
189	0x3a04c8eb	0.00050653395
190	0x381c2dd0	3.7235965e-05
191	0x3a2f0773	0.000667683
192	0x3a498a64	0.00076881633
193	0x397a384f	0.00023862834
194	0x3abda7a1	0.0014469513
195	0x3a2da5ad	0.0006624114
196	0x3aa00399	0.0012208103
197	0x35e82565	1.729623e-06
198	0x398a9cf8	0.00026438362
199	0x3a8f1e8e	0.001091914
