models/trained_model.pth (torch, 149503 bytes, 23 tensors)

weight f4 [10, 6]
00000000: 1ab5 13bc 7e76 02bc 0bbe 39bb 65af 60bc
00000010: e243 f0bb 84f0 bebb b702 133c 5a20 bdbc
00000020: 0f79 a83c 2ca4 ccbb 4034 23bc a1e6 79bb
00000030: a3ce 893d d254 b33d d0a9 69bd 867d 6bbd
00000040: 9853 a73d a471 a43c 9926 9dbc 78da 7e3c
00000050: d018 843c 686b 4a3d 84d3 93bc a2e1 8dbc
00000060: 70c3 223c bfe9 75bc 9456 17bc 369e 5c3c
00000070: 4b02 7fbc b534 653c 5394 253c a61f f7bc
00000080: e874 86ba fac2 c5bc 60b6 243c 9701 883c
00000090: 41c4 3e3d 3d0b 8b3d 4853 cbbc f4b9 1abd
000000a0: 0411 c93c 97fa 153d a7bb ebbc fe7e 12bd
000000b0: 49f3 4f3d c39b 7f3d 2188 82bd 67fc 98bd
000000c0: 0992 47bd 653f 8cbc ba15 fa3c 39cb b83c
000000d0: 964f 1fbd 5636 59bb 576b 65bd 89ad 73bd
000000e0: d0f7 db3c ac12 493d 45df 7cbd f052 50bd
-0.009015346 -0.007962821 -0.0028342034 -0.013713692 -0.007332311 -0.0058270115 0.008972815 -0.023086715
0.020565538 -0.0062451568 -0.009961188 -0.003813185 0.06728866 0.087564126 -0.05704671 -0.057492755
0.08170241 0.02007372 -0.019183444 0.015555017 0.016125113 0.049418837 -0.018045194 -0.017319504
0.009934291 -0.015009343 -0.00923695 0.013465455 -0.0155645115 0.013989617 0.010106164 -0.030166458
-0.001025823 -0.024140824 0.010053247 0.01660232 0.04657388 0.06789253 -0.024819985 -0.037774995
0.024544246 0.036615934 -0.028776003 -0.03576564 0.050769124 0.062404405 -0.06373621 -0.07470017
-0.048723254 -0.017120073 0.030527938 0.022557842 -0.03889426 -0.003314396 -0.05601057 -0.059491668
0.026851565 0.049090073 -0.061736364 -0.050860345

weight f4 [17, 8]
00000000: e0c0 4a3c 851d 2c3c 7a4a 3e3c c48b 2c3c
00000010: c1fb 8c3c 6ea9 4fbb 1475 20bc 3c88 a2bb
00000020: 0930 86bd 00b2 6b3c 7df3 023d 1691 5c3d
00000030: b99f aabc 7de3 413d 69b0 b6bc 88ad b13c
00000040: 296b 6ebd aedc ab3c 8a07 1e3b 9c80 0f3c
00000050: a3bf 73bd aea7 733c e8e5 30bd b5b9 343d
00000060: 509e 78bc f8dc fb3c 8fd5 b73c 617b b0bb
00000070: 3a36 8d3c e1e5 973c ac2e c73b 26be 04bc
00000080: 427e d7bc 2297 adbb 529c a8bc 2c6c 89bc
00000090: e255 073d 2d54 a93c 584d 4e3c 8b32 afbc
000000a0: 4a78 333c fb84 3a3a 51ee 543c 34eb a73b
000000b0: 9b97 033d 2070 78bc fc85 6e3c 88f8 413c
000000c0: 7c54 a63b 473b 48bc 8cde a13a 67ce 36bb
000000d0: 63ac a1bc 4edc 513c 43d5 243d a2d7 2cbd
000000e0: 50d5 bebc 9dd9 91ba b04a dbbc aa8a abbb
000000f0: e345 fdbb 4a6d 15bc c531 e6bc fddf 88bc
00000100: 8522 a3bd 8dae 7dbd 428f c43d 6933 3a3d
00000110: aa56 84bc 2f04 9f3d a8fc 63bd 3b8d d7bb
00000120: de7c 7dba 0997 e2bc 2fed 48bd f45e 053d
00000130: 1925 463c d186 1abd 5d94 41bd cf28 97bc
00000140: 9d44 33bd 24f0 85bc 4d3e e53c b620 b1bb
00000150: 4793 b8ba c7ee 0c3d 721e ebbb b5f6 d23c
00000160: d50a db3c b0f7 243d a904 0fbd bf75 afbc
00000170: 87b0 1f3d 8929 c3bc 23fe 353d 7649 cfba
00000180: 34ab 873b 7840 87bc 926c 6cbd 9226 e93c
00000190: c9d1 9dbc d667 e2bc a5de 27bd 1921 ab3a
000001a0: fc7a 4d3c ae9a 08bc aa37 4a3c 88ae 9abc
000001b0: 4b88 0abd ad68 753c b88c c5bb 2dca 003c
000001c0: 5ba1 013b dfc7 a2bc df87 38bc 731b 563b
000001d0: 8a91 a93a f41c 603c 995e c63b 7a8f e4bb
000001e0: 3a1b 363d 844b 463d 8259 4cbd d262 85bb
000001f0: b364 0bbc d7ef c7bc f416 e83c 8735 d2bc
00000200: 1355 333d 9c2a aabc 500a 3b3d 511e 43bd
00000210: 81d1 093d 61ea 873c b4e6 313d d977 b139
0.012375087 0.010505085 0.011614436 0.01053137 0.01720989 -0.0031686681 -0.009793539 -0.004960088
-0.06552131 0.0143857 0.03197049 0.053849302 -0.020828115 0.04733609 -0.022300916 0.021689191
-0.058207665 0.020979252 0.002411338 0.00875869 -0.05950893 0.014871521 -0.043188006 0.044122417
-0.015174463 0.030745015 0.0224407 -0.0053858017 0.017237771 0.018542232 0.006078562 -0.008101976
-0.026305322 -0.0052975575 -0.020582352 -0.016775213 0.03304089 0.020670021 0.012591682 -0.021386405
0.010953972 0.00071151525 0.012996272 0.005124474 0.032127004 -0.015163451 0.014558312 0.01183904
0.0050759893 -0.012221164 0.0012349649 -0.0027894021 -0.01973552 0.012808872 0.040242445 -0.04219783
-0.023295075 -0.0011127476 -0.026769012 -0.005235036 -0.0077292784 -0.009120295 -0.028099904 -0.016708368
-0.079655685 -0.061934043 0.09597637 0.045459185 -0.016154606 0.0776447 -0.055660874 -0.0065781153
-0.0009669791 -0.02765991 -0.04905432 0.032561257 0.012093806 -0.037726227 -0.04726063 -0.018452076
-0.043766607 -0.01634986 0.027983809 -0.005405511 -0.0014081978 0.034407403 -0.00717526 0.025752405
0.026738564 0.040275276 -0.034916554 -0.02141845 0.03898671 -0.023823516 0.044431817 -0.001581474
0.004140282 -0.016510233 -0.05772073 0.028460775 -0.019265072 -0.027637403 -0.040983815 0.0013056129
0.012541529 -0.00833766 0.012342373 -0.018882051 -0.033821385 0.01497857 -0.006028738 0.007860702
0.0019780013 -0.019870697 -0.011262863 0.003267017 0.0012937051 0.013678778 0.0060537574 -0.0069751116
0.04445956 0.04841186 -0.04989005 -0.004070618 -0.008507895 -0.024406357 0.028331257 -0.02566029
0.043782305 -0.02077227 0.04566413 -0.047636334 0.033647064 0.016591253 0.043432906 0.00033849364

weight f4 [8, 5]
00000000: d895 c0bb 79b2 573b 2499 3ebb 2800 053c
00000010: c1bc 06bc dab6 f73c dbf9 22bd 8241 57bd
00000020: 0b64 91bd 8457 78bd 72e2 edbc e7cb 4c3d
00000030: cdb6 413d 21c0 853d ff77 863d 69e9 6cbd
00000040: c8b2 663d eff4 713d a29a 943d 21ed 4c3d
00000050: cd82 fc3c 45ee 44bd b3b2 a6bc 0e05 1abd
00000060: 67be 07bd 7fc0 4f3d d095 3ebd 9e71 6fbd
00000070: 84a2 91bd 63b8 78bd 773b 203d 1d1e 82bd
00000080: d330 40bd f817 39bd c4a8 21bd 8b20 e03c
00000090: fc51 9839 ea1b 8bbc 886b 01bd d035 c7bc
-0.0058772378 0.0032912774 -0.0029082978 0.008117713 -0.008223713 0.030238558 -0.039789062 -0.052552707
-0.0709916 -0.060630336 -0.029038642 0.049999144 0.047293473 0.06530786 0.06565856 -0.057839785
0.056322843 0.059071478 0.07256056 0.05003083 0.03082409 -0.048078794 -0.020348882 -0.037602477
-0.033140566 0.050720688 -0.04652959 -0.058457963 -0.071110755 -0.06072272 0.03911921 -0.063534
-0.046921562 -0.045188874 -0.039467588 0.027359268 0.00029052782 -0.016981084 -0.03159669 -0.024317652

weight f4 [16, 8]
00000000: 7d8d 3abc 795c 903c de63 69bc 7f2a 12bc
00000010: 7c31 a7bb fa7c 1abc b699 86bb 93c0 063c
00000020: df3e a1bc 8bcf 5e3b b059 be3c 0ac9 fdbc
00000030: 5478 dc3c 8fb3 873c 682e adbc d8b2 5cbc
00000040: 2165 433c bded 143d 7fc7 123d 63b7 d03c
00000050: 75a1 c9bc d943 0b3d eae1 2dbd 4b73 1b3d
00000060: a625 87bc 0819 04bd 5278 f93c a711 0dbd
00000070: baab e13c c649 913c 7eaa 503d ff10 0d3d
00000080: 2282 dabc 915d 093c 1c82 113d de0b 94bc
00000090: 08e3 a43c 27c4 5e3b 5634 9d3c 151a 983c
000000a0: 27f2 323d c1bd e13c d9a0 f8bc 4d90 8b3d
000000b0: e1af 36bd 1f43 90bd b51d 7b3d a83b aa3c
000000c0: 7e1e ddbd b67b 91bd 6272 2a3d 562e d0bd
000000d0: 07a8 c13d 26fd a33d d0a9 8abd 0dbb a0bd
000000e0: 3f38 a3bd 00e0 88bd 47ef 683d 5735 b6bd
000000f0: 1bbb 333d 64cf 843d 8b07 38bd ef4c 2ebc
00000100: 87d5 39bd 6d20 7fbc 69d9 083d 6dc5 24bd
00000110: f453 393d 40ad 4f3d ca2b 4dbd f613 cd3c
00000120: 404a afbd 190b 48bd 22ca 5b3d 016b c3bd
00000130: 7f3b 853d ed89 773d e713 b8bd 405e 5fbd
00000140: 6384 94bd a570 40bd 0096 75bc b7f4 99bd
00000150: c786 6f3d d5a2 553d aafc 3abd 6042 4abd
00000160: 85d3 723d 6fa3 ad3c 9fe8 92bd 9c73 0e3d
00000170: 8899 d2bc 5649 27bc 456e d7bc eb39 0dbd
00000180: 8f80 9a3c a2b1 5f3d 236d 4bbd 3dbc 423d
00000190: 80e1 8abd 26e2 43bc 9922 e8bb 973c 0b3d
000001a0: 1d45 c3bb f99f 023c 7db3 a6bc 4b46 a33c
000001b0: f38e 3cbb 71fb 0abd 0d0e 053d 76c1 60bd
000001c0: 9d45 563d 1185 3ebb 12d0 0dbc 2a0b 373d
000001d0: a1de 1dbd d98e 18bd d3ea a73d 0c3f f63d
000001e0: 53cb 04bd 7caf 62bd ec3e 673d ad57 22bd
000001f0: f292 b03d 424f c2bb cf57 dc3b 742a 12bd
-0.0113862725 0.01762222 -0.014245002 -0.008921265 -0.0051023345 -0.009429211 -0.0041076792 0.008224624
-0.0196833 0.0033998217 0.023236126 -0.030979652 0.026912846 0.016565112 -0.021140292 -0.013470374
0.0119259665 0.036359537 0.035834786 0.02547807 -0.024613122 0.03400025 -0.042451777 0.03795175
-0.016497444 -0.032250434 0.030452881 -0.034440663 0.027547706 0.017735373 0.050943844 0.034440037
-0.02667338 0.008384124 0.035524473 -0.018072065 0.020127788 0.0033991428 0.019189995 0.018567124
0.043687966 0.027556302 -0.030350136 0.068146326 -0.044601325 -0.07044052 0.061307628 0.0207804
-0.107968315 -0.07103674 0.04161299 -0.10165088 0.09455877 0.080072686 -0.067706704 -0.07848177
-0.079697125 -0.066833496 0.056868818 -0.088968925 0.04387961 0.06484869 -0.04492907 -0.01063846
-0.04536965 -0.015571696 0.033410463 -0.040227342 0.04524608 0.050702333 -0.05009059 0.025033932
-0.08559084 -0.04883871 0.053659566 -0.09541894 0.065054886 0.06043427 -0.08988171 -0.054533243
-0.07251813 -0.046982426 -0.014989376 -0.07517379 0.058478143 0.05215724 -0.045651115 -0.049379706
0.059283752 0.021196095 -0.07173275 0.034778222 -0.025707975 -0.010210356 -0.026297698 -0.034479063
0.01886013 0.054612763 -0.049664628 0.0475428 -0.06781292 -0.011955773 -0.0070842025 0.03399333
-0.0059591667 0.007972711 -0.020349259 0.01993098 -0.0028771728 -0.0339312 0.032484103 -0.054872
0.052312482 -0.0029071013 -0.008655565 0.04468838 -0.038542394 -0.037245605 0.08199086 0.12023744
-0.032420468 -0.055343136 0.05645649 -0.039634395 0.086217776 -0.0059298584 0.006724335 -0.035685018

weight f4 [7, 5]
00000000: 1e0d 463b 69ed b3bb 29a1 72bb da59 9b3b
00000010: 8cd1 683c d768 023d 0f1d fdbc 0a81 5a3d
00000020: c498 16bb 5f12 523c 1abd 643d aa7a 593d
00000030: 7b92 82bd d95d 193d 2c04 6dbd 2c7e bc3c
00000040: a02c 853d e6d0 72bd 814e 7e3d 06c3 a5bd
00000050: 61a1 363b b3d6 bd3d ef1a bcbd 003f 8f3d
00000060: 8da4 babd 4d0e 673d 2415 763d 21b2 29bd
00000070: 4104 c23d d5f9 95bd d5c3 debd b3a9 acbd
00000080: 3e01 bf3d fb53 eabd 29ae d93d
0.003022022 -0.005490948 -0.0037022328 0.0047409358 0.014210116 0.031838264 -0.030897645 0.053345717
-0.002297924 0.012821763 0.055844404 0.053095497 -0.06375595 0.037443016 -0.057865307 0.023009382
0.06502652 -0.059281252 0.062086586 -0.080938384 0.0027867185 0.09269466 -0.09184825 0.06994438
-0.09113417 0.056410123 0.060078755 -0.041429643 0.094734676 -0.07323042 -0.10877196 -0.08430805
0.09326409 -0.11441799 0.106289215

weight f4 [6, 4]
00000000: 860b 15bc 7437 cfba f629 0c3c 7e2e 72bc
00000010: 078d da3d 1128 8ebd 715f b1bd d9d2 913d
00000020: b696 88bc 0bde 093b 286e d9bc 0e44 5b3c
00000030: 458f 893b 98a1 bebc 27f4 5b3c f8e6 193d
00000040: ed45 5e3d ad69 29bc 9f96 1c3b 4e0b 1e3d
00000050: 0373 25bd f915 083d 0ea9 023c 97bc abbc
-0.009096986 -0.0015809373 0.008554926 -0.014781592 0.1067143 -0.06941236 -0.08660782 0.07120294
-0.016673427 0.002103689 -0.026541784 0.013382925 0.0041979873 -0.023270413 0.01342491 0.037573785
0.054265905 -0.0103401365 0.0023893488 0.038585 -0.040392887 0.03322408 0.007974876 -0.02096395

weight f4 [3, 3]
00000000: b56f eebb c605 e6ba 1632 0ebb 07bb a33d
00000010: 4669 873d 69e1 a6bd 2c08 6cbd ed82 09bd
00000020: 32e3 493d
-0.0072765 -0.0017549328 -0.0021697334 0.07994657 0.06611876 -0.08148462 -0.05762498 -0.033572126
0.049288936

weight f4 [43, 13]
00000000: 9bbf 523c b791 a7bb 8636 5a3c c8d5 793b
00000010: fe89 153c d7fb 8b3c 4f63 bf3a 573f e33b
00000020: cd1c 88bb 4a8a 31bc b403 153c 34a1 21ba
00000030: 94d4 6e39 6b26 b4bc 52b3 35bd 69cc 8bbc
00000040: 7a30 033d 69f9 94bc 7628 d5bb 89e9 82bc
00000050: bc44 e3bc 5a9c 8b3d faaa 033d 5ce2 dfbc
00000060: 48d3 81bb e2a0 0ebd c22a 343c 3b41 4cbd
00000070: 94d4 5b3d 9933 a93c 503a 143c 725c 66bd
00000080: 63f1 b5bc a408 943d 493f 5fbd a4c3 4e3c
00000090: 0978 8abd 9998 563d 6c3c 7b3d 6b1c 133d
000000a0: 7ced bdbc 202d cd3d e635 183c 22d6 e3bc
000000b0: b534 50bb 6683 a13c 8be0 033d 0653 54bd
000000c0: 8420 0fbc ca48 bdbc db30 423d 1ccf 8e3d
000000d0: 501f 17bc ef51 023c bbda 3fbd 2f47 74ba
000000e0: de76 293b e81b 1b3c 7703 89bc 65de 9d3b
000000f0: 40cb 3b3d 89c0 263d 04ff 9c3c 0b9b 19bc
00000100: 993b 9fbc 04f4 68bd f1d0 dcbb 0a7f 9abc
00000110: 8cf9 e03c ac70 9abb c4fc b33d f44b 77bd
00000120: f06d 01bd 392e b33d 6bf6 a33d 0b8b 4ebb
00000130: 6e73 48bd 9302 aebd e0cc 103d cbe1 8fbb
00000140: 2ea4 0f3d 4b60 bc3c 5f78 153a 5503 46bb
00000150: e74e 4abb c894 2bbc 2feb 953c d9c6 a43c
00000160: 123a c3ba 5fe5 35bb b1c0 f0bc 94ea b0bd
00000170: 3add ba3b 1069 9bbc d742 fb3c 9e97 70bb
00000180: 4c9c 92ba 1da5 3ebd f922 93bb 630a ab3d
00000190: 5863 453d 0003 053d e8bf 01bb f5f6 81bd
000001a0: 9040 23bd 89b1 17bc 43a3 273c 1a01 1cbc
000001b0: af0f 66bd 2af6 983d 2e21 e9bc a762 5abd
000001c0: 9f74 4d3c 53b7 773c 3834 6d3d 901e 22bd
000001d0: a219 97bc 4154 08bc a806 ce3c d0c6 68bd
000001e0: bc81 9b3c 1549 c5bc 1f75 ef3c b143 b9bc
000001f0: 5b8a 26bd d00f 013d fdeb fa3c 706b 34bd
00000200: 1c82 f5bc 12dc e7b9 e1a7 6f3c e33e cbbb
00000210: 3de0 e63c bef0 d63c ea20 34bc a908 60bd
00000220: f3d7 18ba a2ce cc3c e8e1 3cbd 6259 353c
00000230: a0c6 29bd 29c3 ea3c cc30 1a3d 427c 8a3c
00000240: c60f 6b3c c88a cd3c 5ea3 a2bc 8ff8 52bc
00000250: 817d 60bc 8a67 b73c 04e3 533c a49e c7bc
00000260: 2fad 25bc fd8a 27bd d187 dc3c 5cf2 a63c
00000270: af35 18bc 7b9b dbbc ddf5 3a3d d931 cf39
00000280: 7854 4bbd b15e 04bc 75f5 c9ba eeb7 93bc
00000290: ebaa 41bc 61da 153c a68c fb3a 0af1 9f3c
000002a0: 58fe 023d 395c 15bd f1a9 323c 0a89 29bd
000002b0: 641f b93c b60f 9cbc cfd8 243d 6f6e d4bc
000002c0: 8ed4 16bd f867 5a3d b40a b33c d3ab 64ba
000002d0: ba67 90bd 14fb 43bd fe4d 813c 8d68 8ebb
000002e0: 2544 933b b6fe 3e3d 56fd ffba d97d fb3c
000002f0: d186 803b 0085 0dbc d2ac 8a3d e72e 243c
00000300: eb26 08bc 8a31 bcbb 04d9 79bd a4aa 80bb
00000310: 93b6 963c 0718 843c 240b c43c 89c9 a9bc
00000320: af47 2a3d 8f67 a83b 6149 cebc 0eb2 953c
00000330: 343f d33b e495 483b fa2d a63c be9e b6bc
00000340: 7381 b73a 0990 e0bb ab9b 873b b214 433b
00000350: 5da3 4fbc 4e74 89bb ff31 08bd 4d61 6e3c
00000360: 17a1 6a3c 726c ab3b 9365 413b 5d0a 19bc
00000370: c0bd 51bc bae0 edbb 309e fb3c f148 b4bc
00000380: 1847 f8bb 31d9 9c3c 6e71 113d 4816 333c
00000390: 62f1 0abd f468 2f3c ed0c 8cbc 1617 9f3c
000003a0: 4ebc 74bc 839f 6ebb eb36 62bc 3605 193d
000003b0: 6af9 813b 416e 74bc eace b53c 83e3 80bd
000003c0: 0232 f8bb 0ed1 133d ebe6 70bc baed d83a
000003d0: c5e1 19bd ad80 b8bc 1fe2 91bb 61af 01bd
000003e0: ecd5 fcbb dcf0 e23a cf88 b43c 7329 bf3b
000003f0: bf61 893b 97d5 55ba 2f73 62bc 4628 423c
0.012863065 -0.005113806 0.013318663 0.0038121808 0.009127138 0.01708786 0.001460174 0.006935041
-0.004153824 -0.010836193 0.009095121 -0.0006165684 0.0002277664 -0.021990975 -0.044360466 -0.017065244
0.032028653 -0.018185334 -0.0065050675 -0.015980499 -0.027742736 0.06816931 0.032145478 -0.027329616
-0.0039619543 -0.0348214 0.010996522 -0.049866896 0.053669527 0.020654486 0.009047106 -0.056240506
-0.022209829 0.072282106 -0.054503713 0.012619887 -0.06761176 0.052391622 0.06133692 0.035915773
-0.02318453 0.100183725 0.009290194 -0.027812067 -0.0031769697 0.019715976 0.032196563 -0.05183699
-0.00873578 -0.023105998 0.047409873 0.06973097 -0.009223774 0.007954105 -0.046839457 -0.00093184685
0.0025858204 0.009467103 -0.016725285 0.0048177713 0.04584813 0.04071096 0.01916457 -0.009375344
-0.019437598 -0.056873336 -0.006738775 -0.018859405 0.027462743 -0.0047131386 0.087884456 -0.06037517
-0.031598985 0.08749051 0.08005985 -0.0031515982 -0.048938207 -0.08496585 0.035351634 -0.0043909303
0.035068683 0.022995135 0.00057018356 -0.0030214388 -0.0030869783 -0.010472484 0.01830062 0.02011435
-0.0014894626 -0.0027755124 -0.029388757 -0.08638492 0.005702642 -0.018970996 0.03067152 -0.0036711465
-0.0011185496 -0.046544183 -0.004490253 0.083515905 0.048190445 0.032473564 -0.0019798223 -0.063459314
-0.039856493 -0.009258636 0.010231796 -0.009521747 -0.0561673 0.07468827 -0.028458204 -0.05331674
0.012540012 0.0151193915 0.057911128 -0.039579928 -0.01844484 -0.008320869 0.025149658 -0.056830227
0.01898276 -0.0240827 0.029230652 -0.022615286 -0.04065929 0.03150922 0.030630106 -0.044047773
-0.029969268 -0.0004422372 0.014627428 -0.006202565 0.028183097 0.026237842 -0.010994175 -0.05469576
-0.0005830519 0.025000874 -0.04611388 0.011068674 -0.04144919 0.028657513 0.037644193 0.016904954
0.014347022 0.02509059 -0.01985329 -0.012876644 -0.013701797 0.022388238 0.012932543 -0.024367638
-0.010112091 -0.040904034 0.026920231 0.020379238 -0.009290143 -0.026807537 0.04564463 0.00039519256
-0.049641103 -0.008079217 -0.0015408235 -0.01803204 -0.011820535 0.009146304 0.0019191697 0.019524116
0.031980842 -0.036464904 0.010904775 -0.041390456 0.022597976 -0.01905046 0.040245827 -0.025931565
-0.0368238 0.05332181 0.02185569 -0.00087231136 -0.07051034 -0.04784687 0.01578426 -0.0043459595
0.0044942074 0.04662963 -0.0019530456 0.030699657 0.0039223214 -0.008637667 0.06771244 0.010020948
-0.00831006 -0.00574321 -0.060997978 -0.003926592 0.018397605 0.016124738 0.023931094 -0.020725982
0.04157227 0.0051392983 -0.025181474 0.01827338 0.0064467434 0.003060692 0.020285595 -0.022292491
0.0014000371 -0.006853108 0.00413843 0.0029766974 -0.012673226 -0.004194773 -0.033250805 0.0145495655
0.014320633 0.0052314335 0.0029510006 -0.00934085 -0.012801588 -0.0072594555 0.030715078 -0.022007437
-0.0075768344 0.019146534 0.035508566 0.010930605 -0.033921607 0.010706175 -0.017096007 0.019420188
-0.014937473 -0.0036410994 -0.013807039 0.037358485 0.0039665 -0.014918865 0.02219339 -0.062933944
-0.007574321 0.036088042 -0.014703493 0.001655034 -0.037568826 -0.022522295 -0.0044520046 -0.031661395
-0.007715931 0.0017314213 0.022037892 0.0058337986 0.0041925604 -0.00081571325 -0.013821407 0.011850422

weight f4 [6]
00000000: 0bbd 7a3f 908a 5f3f 24a8 6d3f d3ce 8d3f
00000010: 29b3 7c3f 8bce 713f
0.97944707 0.87320805 0.9283469 1.1078743 0.98710877 0.94455785

bias f4 [6]
00000000: e053 68bc f68a ccbc 3a85 ecbc d8d3 3fbd
00000010: ddcb 17bd c92f 43bc
-0.014180154 -0.024968605 -0.028872121 -0.04683289 -0.037059654 -0.011913248

running_mean f4 [6]
00000000: 61cc 9ebc de8f 303c d167 93bc 7de8 673c
00000010: c0cd 513c 8138 80bb
-0.019384565 0.010776488 -0.01799384 0.014154551 0.012805402 -0.003912986

running_var f4 [6]
00000000: 2664 7c3f 829c 883f 90c3 773f a846 803f
00000010: ce03 853f feec 793f
0.98590314 1.0672762 0.9678278 1.0021563 1.0391786 0.97627246

weight f4 [200, 58]
00000000: 59a3 743d d61a e7bd ba1c 893d 52c2 cabc
00000010: 1455 5bbc 5329 8dbd 9fce 60bd d72b 0dbe
00000020: 261a c4bd 50ea 483b a3b1 f0bc 7b5b 913d
00000030: b679 59bd df08 91bd e2da 66bd b0d1 983c
00000040: 8a40 203d c518 4dbd a5da 5ebd 0647 e8bd
00000050: e420 f2bc 9ae7 323e 5692 653d f7e2 3c3e
00000060: 8f86 133e 7d6f bbbd 7ec5 07be cc2a 823d
00000070: f551 d33c 52db afbd 0034 333c e766 b3bc
00000080: 865d 61bd f145 7c3d 0ef2 8bbd fd3d 3f3d
00000090: d803 b8bc dda9 9cbd e6e9 f83d 7a36 c7bd
000000a0: 26ff f33d 7c7a a6bd 4052 cd3d b215 743d
000000b0: 7356 14be 651b 153e 1fca 913d 6799 653d
000000c0: 20cb d7bd e372 5a3d a62e e8bd b006 21bd
000000d0: 34eb a6bd 65d7 153d b7c2 35bd c506 ecbd
000000e0: c815 01be 7a2d aebd f1f7 b53d 58b4 973c
000000f0: 280a 33bd fd98 a83d 31a9 febd 9008 5dbd
00000100: 6448 df3d a192 ea3d e2b1 d7bc 0cd0 f1bd
00000110: bff2 6a3d 5e32 f03c 3c93 f33d 5149 edbd
00000120: 52c4 ea3d 8511 2f3d 3f86 01bc 440c bcbc
00000130: 4b2c ab3c 9eec 893d e7a2 f73d 3eda 293d
00000140: ed04 d93d 7604 d6bd b3f0 09bc d329 973d
00000150: 1bf2 653d 9040 ce3d 6987 10bd 10fd 4dbd
00000160: 8089 063d 25d4 87bd b9c4 db3d 0aac ad3d
00000170: 4535 cdbc a14f cbbc e0ac d83d ca75 fc3d
00000180: bbbf 2dbd 4751 ffbd 4ce9 85bc c669 26bd
00000190: b46a d83c b9a1 073e 1c37 1fbd f186 3bbd
000001a0: bbe2 a73d f3d1 ecbd 52ac 7abd 1ce4 12be
000001b0: 4dab d4bd bd06 c63a 5fd9 aabc 958b b73d
000001c0: e39e f13c b0ee e63d bdc2 7e3d 8911 e93d
000001d0: f65b 41bd b777 c73d bf5c cabd 85ee 02be
000001e0: e017 363e e203 1a3e e8dc 143e 63a7 6cbd
000001f0: b14a debc 4caf 8bbd dc90 97bd 4152 0fbe
00000200: 298f 523c b4c7 aabd 536d a3bd 6b9f 08bd
00000210: 1db9 13bd da93 2f3e ab7b cf3d a10c 04bd
00000220: d2e0 59bd f11f ea3d 3ed0 fc3c a849 7fbb
00000230: 6bc3 debd 8078 2e3e b1cd 2c3e 837c 863d
00000240: deab 25be 65d7 62bd 71df 683d b429 39bd
00000250: 7d81 1e3d 02d1 ffbb 5c29 9f3d 7656 843d
00000260: 955f ff3b 0d29 1fbe a92e 183c 696f bf3d
00000270: 6aff 35bd f85f 91bd 0df2 1e3d c7fa 5dbb
00000280: 8ce4 e8bd d077 93bd 4d40 d2bd a3e3 ecbd
00000290: 7267 653c 74e5 8c3d 01c4 013e a88c 6ebc
000002a0: f951 b23c 8f0b 4cbd 5d9f eabc 23ec 88bd
000002b0: 9a10 f13d 1d9a 423d 0bb8 7c3c 1744 8b3d
000002c0: 1cbb 68bd ba50 b6bc 88ee 863d 2747 d53b
000002d0: 7e60 f4bd c61d aabd af73 17bc 812c cfbd
000002e0: 689a fd3d 697d d2bc 0bcd e93d 510f 04bc
000002f0: eb63 963d e4dc 3fbe 4d91 3ebe f83e 21be
00000300: aaab 0f3d 6eef abbd 0b81 c83c c7f7 9abc
00000310: b1ef 35bd 3dc3 78bd 6c3b 2b3e 54bd 1dbe
00000320: 2ec2 d2bd cf5d a53c cb24 9c3d 4f5f 0abe
00000330: 6d67 1cbd ea4b acbb 33a7 c8bd 4747 0b3c
00000340: 8c8f 9d3d 86d9 993b 434e 2b3e 2ada 283e
00000350: 499e 0bbe 704a e5bd 5e90 77bd ee2e 20bb
00000360: b19f f23d 4822 88bd 9e32 89bd b718 a1bd
00000370: f152 943d 65d9 be3d 33ed d53d 7b42 dc3d
00000380: 821a 493d dd8d 50bd db39 0b3d 5b24 d7bd
00000390: 6b9a cabd f2e6 e83b b1f4 613d c89a ad3d
000003a0: 5093 983d 7b20 293c 93a2 043c 29a7 b63d
000003b0: afcb d0bc 711c 3cbd 5ede 593c 7d6d c03d
000003c0: e04e 8abd 3da6 0ebd e6b5 9fbb a3e9 41bb
000003d0: 2394 383d cf07 bf3c 097c 45bd 4ebe 1abe
000003e0: 5cea 5abd 287b ffbc 7d8c 10bd 8bfc 83bd
000003f0: deee 183e 5eca 7bbd 2250 783d 64df 95bd
0.059726093 -0.112844154 0.06694932 -0.024750862 -0.013386983 -0.068926476 -0.05488455 -0.13786255
-0.095753 0.003065724 -0.029381579 0.07097527 -0.05309459 -0.0708177 -0.056361087 0.018654674
0.03912405 -0.05007245 -0.054407734 -0.11341672 -0.0295567 0.17471161 0.05604776 0.18445955
0.14406799 -0.09152124 -0.13258931 0.06355819 0.025795916 -0.08586754 0.010937691 -0.021899654
-0.05502083 0.06159014 -0.06833278 0.046689976 -0.02246277 -0.07649586 0.121539876 -0.097271875
0.119139 -0.08128831 0.100254536 0.059591003 -0.14486103 0.14561231 0.0711863 0.0560545
-0.1053679 0.05333222 -0.113370225 -0.03931302 -0.0815033 0.03658237 -0.044375148 -0.11524729
-0.12605965 -0.08504768 0.08885182 0.018518612 -0.043710858 0.08232305 -0.124346144 -0.053963244
0.10902479 0.114537485 -0.026329938 -0.1180726 0.057360407 0.029320892 0.11893317 -0.115862496
0.114632264 0.042741317 -0.007905542 -0.022955067 0.020895144 0.06734584 0.12091618 0.041467898
0.10596643 -0.104500696 -0.008419204 0.07381024 0.056139093 0.10070908 -0.035285387 -0.050290167
0.032845974 -0.0663226 0.10730881 0.084800795 -0.025049815 -0.024818243 0.10579848 0.12327154
-0.042419177 -0.12466674 -0.016346596 -0.040628217 0.026418068 0.13245286 -0.038870916 -0.045782987
0.08197542 -0.11563482 -0.061199494 -0.1434483 -0.103842355 0.0015108209 -0.020855604 0.0896217
0.029494708 0.11275995 0.062197436 0.11380298 -0.04720684 0.09739631 -0.09880971 -0.127863
0.17782545 0.15040544 0.14537394 -0.05777682 -0.027135225 -0.068205446 -0.074006766 -0.13996221
0.012851515 -0.083388716 -0.07979836 -0.033355158 -0.03606521 0.17146245 0.1013101 -0.032238606
-0.05319292 0.114318736 0.030861016 -0.0038953815 -0.10877117 0.17038155 0.1687534 0.065667175
-0.16178843 -0.055381197 0.056853715 -0.045205787 0.03869771 -0.007806898 0.077715605 0.064618036
0.0077933767 -0.15543003 0.009288468 0.09347422 -0.044433035 -0.07098383 0.038805056 -0.0033871399
-0.11371717 -0.07200587 -0.10266171 -0.11566856 0.014001714 0.06879702 0.12672426 -0.014559902
0.021767603 -0.04981571 -0.028640443 -0.066856645 0.117707446 0.047510255 0.015424739 0.068000965
-0.056819066 -0.02225529 0.06588465 0.006508726 -0.11932467 -0.0830646 -0.00924389 -0.1011591
0.12382966 -0.025694566 0.11416062 -0.008060292 0.073432766 -0.18736607 -0.18610115 -0.15746677
0.03507582 -0.08395277 0.024475595 -0.018916978 -0.04441804 -0.06073307 0.16721886 -0.15404254
-0.10290943 0.020186333 0.07624205 -0.1351292 -0.038184572 -0.005258073 -0.09797516 0.008500881
0.07693395 0.0046951203 0.16729073 0.16489473 -0.136346 -0.111958385 -0.060440414 -0.0024442035
0.11846865 -0.06647164 -0.066991076 -0.07866042 0.07242382 0.093188085 0.10445633 0.10754868
0.049097545 -0.05091654 0.033990722 -0.10504981 -0.09892734 0.007107609 0.055164997 0.08476788
0.07449973 0.010322685 0.008095401 0.08918602 -0.025487749 -0.04592556 0.013297645 0.09395883
-0.067533255 -0.034826506 -0.004873979 -0.0029588721 0.04506315 0.023319153 -0.048213992 -0.15111658
-0.05344616 -0.031186655 -0.03529023 -0.06444653 0.1493487 -0.06147229 0.060623296 -0.07317999

weight f4 [200]
00000000: 1677 823f 248d 7f3f 4bf6 833f cfda 7b3f
00000010: a3cd 813f 46f6 813f 024c 833f 3b55 773f
00000020: 11ec 7c3f 8d03 863f 9d29 823f 3e2e 803f
00000030: 00b1 7f3f 864b 823f ade6 803f 8e38 853f
00000040: 7490 803f 04f7 803f 2ac6 843f 1349 7c3f
00000050: 6d17 8c3f a563 823f bf0e 803f 984c 7d3f
00000060: 1552 7d3f 2595 833f 3952 7d3f e058 813f
00000070: 4044 7e3f 39a7 823f 102f 7a3f 7a3b 803f
00000080: 0c4d 803f ed31 7e3f 0267 7a3f acf0 763f
00000090: fe1d 823f 5493 7e3f 93d0 7f3f b25a 823f
000000a0: 5e96 7c3f 2386 7f3f 1776 7d3f f458 823f
000000b0: 4b0b 7b3f ab23 783f 0772 833f 47c5 823f
000000c0: 54df 7e3f be49 7d3f 73e9 843f ac0b 783f
000000d0: d2a5 7f3f 544e 7f3f 4837 813f 150f 7a3f
000000e0: f372 803f c768 7e3f c084 803f eeb0 7f3f
000000f0: ff11 7d3f 5c0e 7f3f 8097 7d3f b313 833f
00000100: cad9 7e3f 98d0 793f 76fb 7d3f 75a9 893f
00000110: 3ae7 813f d55a 763f 4249 7a3f 04e0 753f
00000120: 8c95 7c3f 1701 813f 2a8e 803f 0468 7c3f
00000130: 8e8e 823f 841c 7d3f c8c4 7b3f 6686 7d3f
00000140: 9d0c 813f 70dd 7f3f 01fe 7a3f da79 7f3f
00000150: 5105 7c3f 3bcc 813f 2021 7d3f 37c7 883f
00000160: 50f8 7e3f c69d 803f 5c1d 843f 28a1 793f
00000170: 6e8e 773f 478f 813f 677b 833f d8de 7f3f
00000180: b936 7f3f f81a 803f 24bd 803f c6d7 793f
00000190: d7dc 833f cc72 803f ea99 803f 3e57 7b3f
000001a0: a970 7e3f b4f6 7d3f c865 813f c4c3 7f3f
000001b0: 56a1 803f a2c8 813f ad7d 853f c752 813f
000001c0: 7114 813f 6ad5 7f3f efdd 7f3f 23b4 853f
000001d0: 607a 763f be4b 833f 0114 843f f5e6 753f
000001e0: c112 813f 47db 823f ad44 803f 6bd4 813f
000001f0: b310 803f 4567 7c3f bab1 7a3f 96ff 813f
00000200: 0dde 733f 45e6 793f 631d 803f 2942 7f3f
00000210: 0a4e 7e3f 74af 813f 422f 7f3f 2317 7f3f
00000220: e115 7d3f ab58 803f 62c1 823f 7776 7c3f
00000230: eeac 7f3f 8b91 853f ba18 7d3f 33d8 7b3f
00000240: 5d24 7b3f d058 7c3f 61e6 773f e5d0 7b3f
00000250: 76d6 813f 70f6 803f 480e 803f d14b 813f
00000260: f42b 7e3f 4a5e 7b3f aaf8 7c3f bb98 7f3f
00000270: bb23 7a3f ff4b 853f ac2d 803f e900 7f3f
00000280: 0c23 7e3f 7391 803f 40be 813f fd3f 7a3f
00000290: 5fb6 7a3f 88ea 7c3f c7cd 7c3f 1d58 7a3f
000002a0: f3fb 813f 7cbb 843f 73ef 833f 6967 803f
000002b0: 4d51 783f 05fb 783f 1cde 803f 1449 783f
000002c0: 71fb 803f 4a37 823f efb2 7e3f 6872 7b3f
000002d0: 77d9 803f 8b5a 793f 9d42 833f 418c 7d3f
000002e0: acbf 783f aca2 7d3f 5e7d 7b3f ecc9 843f
000002f0: 8fe8 793f 6936 7f3f c610 7e3f 4278 7e3f
00000300: a41c 833f 40fa 7b3f 1def 773f b85f 813f
00000310: fae7 7e3f eba9 803f e217 813f 4916 833f
1.0192592 0.9982474 1.0309538 0.9838075 1.014088 1.0153282 1.0257571 0.96614426
0.9879771 1.0469834 1.0168949 1.0014112 0.99879456 1.0179298 1.0070397 1.0407884
1.0044084 1.0075383 1.0372975 0.98549 1.0944649 1.0186659 1.00045 0.98945
0.9895337 1.027989 0.98953587 1.0105247 0.9932289 1.0207282 0.9772806 1.0018151
1.0023513 0.9929493 0.9781343 0.96460986 1.0165403 0.99443555 0.99927634 1.0183928
0.9866694 0.9981405 0.99008316 1.0183396 0.98064107 0.96929425 1.0269173 1.0216454
0.9955952 0.98940647 1.0383743 0.9689281 0.99862397 0.99728894 1.0094995 0.97679263
1.003508 0.9937863 1.0040512 0.9987935 0.98855585 0.99631286 0.99059296 1.0240387
0.9955107 0.97583914 0.99211824 1.0754839 1.014869 0.9623235 0.9776803 0.96044946
0.9866569 1.0078458 1.0043385 0.98596215 1.0199754 0.98871636 0.9834714 0.990332
1.0081974 0.9994726 0.9804383 0.99795306 0.9844561 1.0140451 0.9887867 1.0685796
0.99597645 1.0048149 1.032146 0.9751153 0.96701705 1.012185 1.0272034 0.9994941
0.99692875 1.000823 1.0057721 0.9759487 1.030177 1.0035033 1.0046971 0.98179996
0.99390656 0.99204564 1.0109186 0.9990809 1.0049236 1.0139353 1.0428978 1.0103387
1.0084363 0.9993502 0.9994802 1.0445598 0.9628048 1.025749 1.0318605 0.9605554
1.0083848 1.0223168 1.0020958 1.014295 1.0005096 0.98595077 0.9792744 1.0156124
0.952607 0.9761699 1.0008968 0.9971033 0.9933783 1.0131669 0.99681485 0.9964468
0.9886151 1.0027059 1.0215266 0.98618263 0.99873245 1.0435041 0.98865855 0.9837677
0.9810236 0.9857302 0.96835905 0.9836562 1.0143573 1.0075207 1.0004358 1.0101262
0.9928582 0.9819075 0.9881693 0.99842423 0.9771077 1.0413817 1.0013938 0.99610764
0.9927223 1.0044388 1.0136185 0.9775389 0.97934526 0.98795366 0.9875149 0.977907
1.0155014 1.0369716 1.0307449 1.0031558 0.96999055 0.97258025 1.0067782 0.9698651
1.0076734 1.0173123 0.9949178 0.98221445 1.0066365 0.9740378 1.0254704 0.99042135
0.9716747 0.9907634 0.9823817 1.0374122 0.9762048 0.996924 0.99244344 0.9940225
1.0243115 0.98428726 0.9684923 1.0107336 0.9957272 1.0051855 1.0085413 1.0241176

bias f4 [200]
00000000: 9da2 dfbb 487d 523c 3cb2 0c3c 279c 193d
00000010: 141b b6bc 40f9 f2bb 2fa0 8fbb e7a3 e63c
00000020: b850 c63c 5805 e03a 7ffc 3cbc 2330 a23c
00000030: 488f 72bd c011 7cbd caea 253c 61b5 f6bb
00000040: aa71 863b e9c3 253c e8aa 94bd 51b7 293d
00000050: 00ac 37bd e279 66bc 35c0 c5bb 39d9 b63c
00000060: a2a8 9a3c 6676 02bc ebf1 f9bc 4fe9 dfba
00000070: 0160 4bbc 3b08 b9bc b6f7 83bd 513f 8e3c
00000080: 1b73 c73b 585b de3b 5c30 8ebd cd44 d5bc
00000090: aa18 44bd 5f64 ed3a 94ee 303d 208a 303b
000000a0: 7cad 00bd fa28 013c bae6 643b 46d3 5c3b
000000b0: 9919 0cbb 3e5b a83c b4f6 ed3c f502 3ebb
000000c0: 5a72 a63b f6a4 2b3d d68a 90bc 66d9 09bc
000000d0: 417a 9cbc 6d0a 4dbd 3576 af3c f122 cf3c
000000e0: a023 c63c 2cf1 263d cb5f 69bc d23a b23c
000000f0: f9f8 683d 3f67 ce3a 42b1 44bc 7199 b4bc
00000100: 6001 0c3d 761a 44bc a892 ea3b 7c23 c3bb
00000110: 28b2 0abd b945 3cbd 589a 043d b861 ce3b
00000120: 6c6b 9d3d 90b4 e73c 32d3 3a3d 3ca2 dc3c
00000130: ce65 053d a4a8 01bd 8c1a ccbb 07d3 a73c
00000140: ed3a ac3b 7ef6 6c3c 77c7 dd3c 99b3 5b3c
00000150: 7943 ab3b 700e f03b 0be6 2ebc 1ab3 cfbc
00000160: 557d d1bc 7252 d83b 7352 543b 6d48 4c3c
00000170: d6a9 853b 076c 0dbd f068 f83a 86ad 1c3d
00000180: 890d 5abc 494c ddbc 549f c3bb 25da 433c
00000190: 3aaa 9fbc 474b 6cbc 8fa5 943c 45b7 8cbc
000001a0: 5b46 233d 78dc d7bc 5b89 b0bc e9bd 0ebd
000001b0: e15e 543c b81c b5bc b5e0 36bb 2ca0 c1bb
000001c0: d494 513d 5190 efbc 092d 83bc 6454 f0bc
000001d0: f563 003c e0a7 66bc 81f9 24bd 0694 e73c
000001e0: e162 2f3d 998f 863c fc38 8ebc b496 6cbc
000001f0: 19d3 9abd 4f61 12bc 8a2a 783b a594 d9bc
00000200: b58f 5b3b 7cc8 153d a701 d1bb 533e 063d
00000210: bae4 053c 0c25 93bc f466 fabc ed70 83bb
00000220: 5c26 68bd 64eb 10bd d65c 153c 910e c4bb
00000230: 4ba1 e53c 834a 86bd aa6c 91bc ecd9 e9ba
00000240: a0d5 183d 513a 97bc 7a5e dbbb 90ce ea3c
00000250: 8d2a 22bd b6ae c8bc fcfb 263c 5ba0 323c
00000260: a3aa ec3c 7d25 46bd 84e5 be3c 1895 ccbc
00000270: 9b15 bebc c451 573d c57e acbb 78ec 353c
00000280: 3dce c4bc 936a 1abd 31ec 1dbc dcf7 18bc
00000290: 091c 02bd 8831 c13c 877c a8bc 9ec3 693c
000002a0: 1237 e13b 6bfe 173d 978c bebc f50a a0bc
000002b0: d7a0 2c3d 35f1 74bc b1cd e5bc 8881 923b
000002c0: 9234 05bd 1cab 20bd 34bc 673b 9411 2f3c
000002d0: 2a90 963c f6ca bb3c 8a91 8d3c 0c3b 0f3c
000002e0: 7447 b83c 33b4 46bc c432 183d 9c7d 6a3b
000002f0: 2022 b33c 2cf9 d5bc 09dd 92bc 9a9f 64bd
00000300: 6757 3a3d 4146 283d 510b 493c 4416 a13b
00000310: 6839 27bd 3b74 e5ba 6b5b 203c b5e2 51bc
-0.006824805 0.012847252 0.008587416 0.037502434 -0.022229709 -0.007414967 -0.004383109 0.028154327
0.024208412 0.0017091436 -0.011534809 0.019798344 -0.059218675 -0.061540365 0.010126779 -0.0075289463
0.0041029053 0.010117509 -0.0725916 0.04143459 -0.044841766 -0.014067145 -0.0060348758 0.022320377
0.018879239 -0.007962799 -0.030510863 -0.0017083081 -0.012413026 -0.022586932 -0.064437315 0.017364176
0.0060867197 0.0067857914 -0.069428176 -0.026033783 -0.047875084 0.0018111578 0.043196276 0.0026937798
-0.031415448 0.007883305 0.0034927563 0.0033695265 -0.0021377562 0.02055132 0.029048301 -0.0028993462
0.0050795497 0.041905366 -0.017644327 -0.008413648 -0.019101264 -0.05005877 0.02141867 0.025285216
0.02418691 0.040757343 -0.01424403 0.021756563 0.056878064 0.0015747322 -0.012005152 -0.022045823
0.034181 -0.011969199 0.007158596 -0.005955158 -0.03386131 -0.04596493 0.032373756 0.00629827
0.07686505 0.028284341 0.045611568 0.026932828 0.03256779 -0.03165497 -0.0062287506 0.020486368
0.005256048 0.014463065 0.027072651 0.013409519 0.005226549 0.00732594 -0.010674964 -0.025353957
-0.025572458 0.006601625 0.0032397776 0.0124684395 0.004079084 -0.03452685 0.0018952172 0.038251422
-0.013308891 -0.027013915 -0.005969921 0.011953865 -0.01949035 -0.014422244 0.01814535 -0.017177233
0.039862018 -0.026350245 -0.021549871 -0.03484908 0.012962074 -0.02210842 -0.0027904932 -0.0059089866
0.051167324 -0.02924362 -0.016012685 -0.029337116 0.007836332 -0.01407811 -0.040277008 0.028268825
0.042818908 0.016425895 -0.017361157 -0.014440227 -0.07559795 -0.008934333 0.0037867152 -0.026560137
0.0033502404 0.03656815 -0.006378371 0.03277428 0.008172208 -0.017962001 -0.03056667 -0.0040112645
-0.056677207 -0.035380736 0.009116372 -0.0059831818 0.028031012 -0.06557181 -0.01775201 -0.0017841435
0.037313104 -0.018460425 -0.006694612 0.02866295 -0.03959136 -0.024497371 0.010191914 0.01090249
0.02888996 -0.048375595 0.023302801 -0.024973437 -0.023203662 0.052568212 -0.0052641355 0.011103742
-0.024024123 -0.037699293 -0.009638832 -0.009336438 -0.031765018 0.023583189 -0.020567192 0.01426783
0.00687302 0.037107866 -0.023260398 -0.019536475 0.042145576 -0.014950086 -0.028052183 0.0044710077
-0.032520838 -0.039225683 0.003535998 0.010685343 0.01837929 0.022923928 0.017281312 0.008742105
0.022495009 -0.012127924 0.03715779 0.0035780435 0.021866858 -0.026119791 -0.017927663 -0.05581627
0.04549351 0.041082624 0.012270764 0.0049159843 -0.04082623 -0.0017505953 0.009787421 -0.012810399

running_mean f4 [200]
00000000: 49fb 003e c387 8d3d 6662 3d3d ed64 803d
00000010: 5ee4 5b3d 8274 5f3d 26a9 a63d acd8 703d
00000020: 34c9 a83d 282c 333d 7c96 883d 3fce b13d
00000030: 3cf5 a63d 80ef 343d 7a77 9f3d cca8 783d
00000040: f023 a93d 1a45 343d e1ad 913d 7dc6 aa3d
00000050: 692d 1e3d 409a 7c3d f5f3 993d a8b9 933d
00000060: 53bc 693d 3365 5a3d 6b1a 673d 797e 8e3d
00000070: e67f 9a3d 0c42 333d ec9c 8f3d 4eb1 6e3d
00000080: 74ee 3d3d bc6d a13d 034b 723d f5c7 833d
00000090: f4d2 893d 2adc 653d 092b a53d 0ca7 943d
000000a0: 881a 933d 39f0 9e3d 04af a13d 63c9 823d
000000b0: f047 8a3d 4503 9a3d ccd3 a93d 5939 ac3d
000000c0: 8f0e 8a3d da9f 623d e4ff ac3d 1a40 a93d
000000d0: 389a 763d 5b46 8b3d fa1d 883d 48b9 983d
000000e0: 1a54 b03d 6101 843d eade 9a3d 2412 263d
000000f0: 1bf9 023d 69f1 373d 015b 7b3d e6b4 553d
00000100: 2fb0 923d 66a4 923d db06 833d 808e c73d
00000110: a111 943d f284 a83d f38f a13d 57bd 4b3d
00000120: 0e24 183d fd9e 833d 328f c83d 26e9 a53d
00000130: 7280 9d3d 1264 943d a232 783d daa5 a03d
00000140: 70a1 7a3d 83a0 7d3d a59b ba3d 05cf 723d
00000150: 03e5 a73d 2a83 a83d 42a9 803d 0a12 473d
00000160: ba26 393d a64e ae3d a9f4 a23d fe83 863d
00000170: fc72 9e3d e9ee b03d 6dd6 cd3d 9ea3 a33d
00000180: 86b1 7e3d d0e7 933d ed25 a13d 9255 903d
00000190: 965d 253d 0fd4 b83d b42c c73d dc78 a13d
000001a0: 2f36 573d 8363 883d ca6c 9f3d 3a1b 893d
000001b0: 709c 063d a0e8 853d f137 513d 8861 ab3d
000001c0: 9c2b 7d3d cde1 633d 8b48 693d 7b01 303d
000001d0: e9da 9e3d 11fb a53d ca18 8d3d c4e6 af3d
000001e0: 0e75 ae3d 7434 743d f416 a33d 0c94 883d
000001f0: e6ad 563d ce1b 753d 4006 8b3d 1846 783d
00000200: 9e95 8f3d 663b a53d d2b5 8f3d 8877 a73d
00000210: e76c 913d 2fdc 8c3d 8fe6 a83d e807 b53d
00000220: 6643 4e3d 6b9e 9a3d 2841 8d3d b5f0 b93d
00000230: ee4b cd3d 1f89 073d 025d 953d e322 7b3d
00000240: d392 aa3d 0c48 a13d 3e24 5a3d 6e5c 613d
00000250: 06f6 813d 9ff4 713d 2d3a 993d ba17 633d
00000260: ee34 873d bbfd 993d 7c11 943d b2dc a63d
00000270: a69f a63d bfbd aa3d ef87 623d 2673 753d
00000280: 5d67 9f3d 21a0 923d e3ed 2a3d dcd8 853d
00000290: 18b1 a03d a6e3 813d c5ae 9e3d 9492 5a3d
000002a0: de8e 763d 9a1b b83d f93f 8e3d b7d2 803d
000002b0: 187e fd3c 823e 983d 30fb 8a3d 4ca7 953d
000002c0: 9169 b43d adc1 b33d fac4 b63d ed6f 843d
000002d0: cd3c cc3d 4592 953d 043c 963d ac8b 893d
000002e0: 817e 4f3d 26dc 743d fd80 923d 4fb3 4e3d
000002f0: 5e22 7f3d 71d1 813d ae84 193d 0906 a23d
00000300: 10c6 653d 1d58 6c3d c8ae 573d 1520 173d
00000310: cb12 be3d 236d 4e3d 4bd4 8c3d 6e5b 343d
0.12595858 0.0691066 0.04623642 0.0626925 0.053684585 0.05455447 0.08137731 0.058800384
0.082415015 0.043743283 0.066693276 0.086819164 0.081522435 0.044173717 0.0778646 0.060707852
0.08258808 0.044011213 0.07113243 0.0833864 0.038617525 0.06167054 0.07517234 0.072131455
0.057064366 0.053319167 0.05642168 0.069577165 0.07543926 0.04376416 0.07012352 0.05827456
0.046369985 0.07882258 0.059153568 0.06434623 0.06729689 0.056118168 0.08064849 0.07258424
0.07182795 0.077606626 0.0789471 0.06386068 0.06752002 0.07520155 0.0829235 0.08409376
0.06741058 0.055328228 0.08447245 0.082641795 0.06020567 0.068005286 0.066463426 0.074572146
0.08609791 0.064455755 0.07562049 0.040544644 0.031975847 0.04490796 0.061366085 0.05217447
0.071625106 0.07160263 0.06397792 0.097439766 0.07229925 0.08228482 0.07888784 0.049741115
0.03714376 0.06426809 0.09792937 0.0810111 0.076905146 0.072456494 0.060595162 0.07844134
0.061189115 0.061920654 0.09111718 0.05927946 0.081979774 0.082281426 0.06282283 0.048601188
0.04520295 0.08511095 0.079568215 0.06568144 0.07736775 0.086393185 0.10050664 0.07990192
0.06218102 0.07221949 0.07868562 0.07047571 0.040372454 0.09024822 0.09725323 0.0788438
0.052541908 0.06659605 0.07784422 0.06694646 0.032864034 0.0653851 0.05107874 0.08368212
0.061809167 0.055635262 0.056953948 0.042970162 0.077565975 0.08104528 0.06889494 0.08588937
0.0851842 0.059620336 0.07963362 0.06668863 0.052411936 0.05984097 0.067883015 0.06061372
0.07010959 0.0806797 0.07017101 0.08177096 0.071008496 0.06877934 0.082471006 0.088393986
0.050357245 0.07549747 0.06897193 0.09079114 0.10024248 0.033089753 0.072931305 0.061312567
0.08328786 0.0787507 0.05325722 0.05501979 0.06345753 0.05907118 0.07481799 0.05544255
0.066018924 0.07519098 0.072298974 0.08147563 0.08135919 0.083369724 0.055305418 0.059924267
0.07783387 0.071594484 0.041730773 0.06535503 0.07846278 0.063422486 0.077481784 0.053362444
0.060194843 0.089896396 0.069457956 0.06290191 0.030943915 0.074337974 0.067861915 0.073073
0.08809198 0.08777175 0.08924289 0.06466661 0.09972534 0.07303289 0.07335666 0.067160934
0.050657753 0.059780262 0.07153509 0.05046397 0.062288634 0.06338776 0.03748005 0.07911307
0.05609709 0.05770122 0.05265692 0.03689583 0.09280928 0.05039705 0.06876429 0.044032507

running_var f4 [200]
00000000: 0f4f 7d3c 1db3 b53c a9f1 733c 4cf4 183c
00000010: 64aa 903c 8687 0f3c e2e3 7a3c 252b 083c
00000020: 4012 a63c 43eb a03c 62f1 b23c b889 863c
00000030: 098a 853c 2ea3 493c 5988 583c 36c8 163c
00000040: 61db 123c 11c5 053d 05c4 023d ad7c 693c
00000050: c4b4 b63c 37cb 7f3c 2765 4d3c 89d6 173c
00000060: 16d2 2c3c 491b 3c3c 8ce3 903b eb72 d33c
00000070: 79db 5f3c ab0e 803b 0f49 133c 6e86 bb3c
00000080: 5ee4 a73b 77e2 173c 1847 d13b ef8f 8a3c
00000090: 7777 7d3c f669 283c 98fd 363c 1c0d dd3c
000000a0: 3f29 5d3c 7315 023c 1f5b 523c 4dd2 683c
000000b0: e8f7 643c 303e 003c 7549 073d 3f28 5b3c
000000c0: cefa d13c cc7f 003c 4d25 f93c e564 6a3c
000000d0: 54e3 023c a652 0f3d da7a 673c 310d 693c
000000e0: 0eef 113c 27bd 0c3c c561 603c a166 093c
000000f0: bf59 673b 4e15 cb3b 4c4c fa3b 40d1 113c
00000100: b3c3 203c 5065 793c bad8 013c 5e5c 783c
00000110: a96f cc3c 3eb4 813c 613b 6a3c cd07 883b
00000120: 8ae3 ff3b ee22 0c3c 583b 723c 9f9e 3e3c
00000130: 9b5e 463c e360 1b3c a916 133c 7546 323c
00000140: 86bb 593c 3d19 c93b a159 d33c 5357 403c
00000150: f227 f53b caf5 7b3c 27d9 8a3c c24e 073c
00000160: 47a0 7a3c 06b1 753c 56c6 063d 32b5 d93b
00000170: c944 103c c496 3b3c fd20 a63c fc46 e03c
00000180: 36f7 1a3c 750f 133c f26c b83c 1cad 7f3c
00000190: 3d25 9c3b 0383 0f3c 5cfa 733c be55 fe3c
000001a0: 7c92 8a3c a0e3 433c 54b3 df3b 18a5 263c
000001b0: a8e4 583b 3035 733c 01fe d73b 52ca a83c
000001c0: 1f66 0c3c b30e e03c b27c 903b 1ebe 363c
000001d0: 8c6d 2b3c 9622 8d3c f196 f63c 7988 8f3c
000001e0: e7b4 a63c 1b82 b43b 0af9 513c 9c31 af3b
000001f0: 8992 c13c d8f1 673c dc5c 2f3c 9178 823c
00000200: 5d5d a53b fb15 783c 71bf fe3b a4a9 803c
00000210: a476 d53c 84f5 e63c 5b5b 903c dac6 0e3c
00000220: 8ff1 a23b 048d c93c 49a7 993c 4a33 8f3c
00000230: 1951 863c 6257 953b 2c8a 1c3c 169e a43c
00000240: 233c 8b3c 7a6f c83c d412 f03b 9cb6 f53b
00000250: 30b8 943c f8cd e33c 5ea1 533c 89b0 b63b
00000260: 6f52 fd3b 03bf bf3c 24ff 703c db71 453c
00000270: 4573 6a3c 9cba 6d3c d534 a13c d512 4c3c
00000280: 6a6e 853c f90a a33c d4ce 1d3c 129a 2a3c
00000290: 6539 8a3c 30e9 4a3c a8d6 8b3c 5a94 223c
000002a0: b521 da3c 403f 9c3c 3425 4f3c 40ea f33c
000002b0: c800 3a3b 68f8 2c3c 0b27 ab3c 2521 403c
000002c0: 375f a73c 77b3 d93c 6acf af3c 9608 103c
000002d0: 9b7b 7f3c 204f 2f3c 734f d13c 39bf 363c
000002e0: debb 633c 4620 363c 46a1 223c 57c1 5f3c
000002f0: c7bb 833c 0f8d 1d3c 83be 913b a163 f43c
00000300: 420f 6a3b 8da1 fe3b d669 123c 97a6 d13b
00000310: ce16 a53c 1732 f13b 757f e03c dc88 8b3b
0.015460744 0.022180134 0.014889159 0.009335589 0.017659374 0.008760339 0.015313121 0.008311068
0.020272374 0.019643432 0.021843616 0.016423091 0.016301172 0.0123069715 0.013216102 0.009203007
0.008963437 0.03265864 0.03192522 0.014250916 0.022302993 0.015612415 0.012536324 0.009267458
0.010548135 0.011481115 0.004421657 0.025811633 0.013663166 0.0039079986 0.0089895865 0.02289125
0.005123659 0.009270302 0.006386649 0.016914336 0.015470377 0.010279169 0.01116886 0.02698379
0.013498603 0.007939684 0.012839108 0.014210296 0.013975121 0.007827327 0.03302904 0.013376295
0.025632288 0.007842969 0.030413294 0.014306282 0.00798877 0.03499093 0.014128411 0.0142243365
0.008907093 0.008590019 0.013695185 0.008386285 0.0035301296 0.006197608 0.00763849 0.008899987
0.009812283 0.015221909 0.007925207 0.015158741 0.024955587 0.015833016 0.014296384 0.0041513206
0.007809107 0.00855325 0.014784656 0.011634498 0.012107517 0.009483549 0.008977571 0.010881056
0.013289338 0.006137042 0.025799574 0.01173957 0.0074815685 0.015378425 0.01694925 0.008258523
0.015297002 0.014995819 0.03290399 0.0066439146 0.008805462 0.01144952 0.020279402 0.027377598
0.009458354 0.008975853 0.022512887 0.015605237 0.0047651813 0.008759263 0.014891233 0.031046744
0.016915552 0.0119561255 0.0068267975 0.010171197 0.0033095274 0.014844224 0.006591559 0.020604286
0.008569269 0.02735076 0.004409396 0.011153726 0.01046313 0.017228406 0.030101271 0.01752113
0.020349933 0.005508674 0.012815723 0.00534649 0.023629444 0.014156781 0.010703292 0.015926631
0.00504653 0.015141959 0.0077742864 0.015705891 0.026057549 0.028193243 0.017621687 0.008714402
0.0049726437 0.024603374 0.018756526 0.017480511 0.016396092 0.004557536 0.009554427 0.020094912
0.016996449 0.024467219 0.0073264632 0.0074985754 0.018154234 0.027808174 0.012916891 0.005575244
0.007730774 0.023406511 0.014709268 0.012051071 0.014309709 0.014509823 0.019678513 0.012455662
0.016288001 0.019902693 0.009631831 0.01041271 0.016873071 0.012384698 0.01707013 0.009923065
0.0266274 0.019073129 0.012643147 0.029774785 0.0028381813 0.010557272 0.02089264 0.011726652
0.020431144 0.026574833 0.021461207 0.00879111 0.015593435 0.010700017 0.02555058 0.0111539895
0.0138997715 0.011116093 0.009926146 0.013656936 0.01608075 0.0096161505 0.0044477596 0.029832663
0.003571466 0.007770723 0.008936366 0.006398033 0.020152476 0.0073607075 0.027404526 0.0042582583

weight f4 [100, 200]
00000000: 8b33 51bc 3d55 10bd 6782 7f3d 203e 803d
00000010: dad6 b73c 6651 063d 1551 9f3d 6ddd 483d
00000020: 8c7a 01bc feca 463d 023f 093d 2815 f439
00000030: 6de4 873c b94a fcbc cf97 bfbc 738e 763d
00000040: 014c 9bbd f6a5 813d 7b78 34bd b20d 46bd
00000050: 4532 803d bdbd 5bbd 494b 39bd 11a3 4cbd
00000060: bef4 a03d 712c b43c e4cc 31bc 9862 883d
00000070: 73a5 463d 2fad 453c 2697 2d3d ea5b 72bd
00000080: f991 1dbd d939 af3c 9c1e 003c 5343 61bd
00000090: c527 21bc a1ac df3b ba99 493d 32a0 463d
000000a0: 1ca4 0dbb b815 6c3d 4ef8 c33c 8436 bb3d
000000b0: 5f04 48bc ba35 eabc 4836 0b3d 3a23 a93d
000000c0: a111 6b3d 0581 463c b78a 73bd f98c 683d
000000d0: abe3 2c3c f922 863c 16f1 793d 96b7 25bd
000000e0: 93ea 553d 4830 6e3d bbfd a4bd 75d6 f13c
000000f0: f605 10bd deaf 18bc 99d1 8b3b 073f 1ebc
00000100: 4d23 be3c 6d2f f5bc 228d 0b3d db51 293b
00000110: 68b7 753d 0152 4fbd 533b 15bd 46a2 96bd
00000120: 4037 333d 0371 2b3c 9174 12bd 8421 913c
00000130: 300c 333c a64b 66bd 20e1 8d3d 902d b23b
00000140: 1984 bdbc 7abf e7bd d6b0 913d 7073 673d
00000150: f798 8dbd d767 57bd fa52 6c3d f8fc 223d
00000160: f3dd babc f76d 76bd 354e 8f3c 4c44 d1bb
00000170: dd0a aabd 5ada 9cbc 9825 a4bd 1c58 3d3d
00000180: 4573 983d b6e8 aebc be66 4e3d f2ea fd3c
00000190: 5e5e 9d3d d670 82bd 0c4c 1b3d eb30 0dbd
000001a0: 6b13 483c 3118 c73b 3cbc 80bc 535c 613d
000001b0: 7824 733d 1979 f2bc 7a18 18bd 1c82 4bbb
000001c0: b893 e83c 04e9 6bbd f77b f23c 0767 1bbc
000001d0: d374 533b 54a8 9f3d b802 143d 4116 433d
000001e0: 2f5e 5e3d 272e 143d 6286 37bc d1f9 7f3d
000001f0: be93 5d3c 16ce 95bc 3d16 49bd 5338 e03c
00000200: 1dfb 01bd 5845 e23c 44f9 35bd 0053 a33b
00000210: b3a4 65bd 2f10 063b a182 8bbc c6e5 ccbc
00000220: a4dc 643d 2911 2b3d 9b4c 013d cad8 7e3d
00000230: 8b21 833d e5e5 1abc 7553 093c 7b84 d73b
00000240: e121 1abd a0c5 643d 48c4 313a 7ec9 4d3d
00000250: df5b dbbc 84c7 20bd ee5a 17bd 7575 a53c
00000260: f0a5 233d b4ae 96bc a070 f2bb bba7 9b3d
00000270: 24b2 873d 3563 20bd 4cee 3a3d 768c 4bbd
00000280: dfa5 b53d e759 81bd 0e93 77bd 31f3 9cbd
00000290: 8fce 93ba 4499 dfbc 4b35 45bd 5247 653c
000002a0: bd76 783d 2f14 13bc dad7 433d 3c7d 74bd
000002b0: 7dbd b63c 75c9 c2bc 9141 fe3c d80f 703d
000002c0: df49 cc3a fbd3 ae3d 917b 60bd 5899 853d
000002d0: 1f75 583c f3ed 3e3d f0e2 113d 950a cc3d
000002e0: 0854 40bc 5c34 533d 70e2 483b 173d 84bc
000002f0: d649 5c3d 3846 57bd cd48 76bb a29d a33c
00000300: 2131 75bd 7733 21bc 37fb 69bd 5fe0 98bd
00000310: d84b 013d 89a3 33bd 8738 00bd 4611 5b3d
00000320: 6025 ae3b b599 6dbd 2003 27bd 5db4 8a3d
00000330: 847b 90bd f5d4 ba3c 5b37 82bd 39d2 0fbd
00000340: 7af9 87bc 149a 6a3c 7ba8 84bd f69e dfbb
00000350: a43b 6139 8e5e 1e3c 2a13 703c a311 0dbd
00000360: 1407 76bc 5344 1dbc fa72 d53c 55a7 833d
00000370: 37a2 7dbd 6f89 523d 896d 56bd 45ec 76bd
00000380: 74ad 85bd a427 ffbc 83b6 8bbd 4145 afbd
00000390: ff3c 9ebd 74b6 34bc eb1a c6ba 1f34 e4ba
000003a0: 99ba 033d 817c e13c ebf7 09bd d409 aebd
000003b0: d63b a1bc 9c47 a43c 3470 e2bb b05c 173d
000003c0: 6688 af3c c8ce 4f3b 6ce1 683d 3abd 6dbd
000003d0: 88dd f53b 71d8 01bd 0df5 f33c 7e8f c9bc
000003e0: 000b 0b3d 9983 a2bc 54b2 6fbd 6b9e e13c
000003f0: 3e97 e73c a7e2 2ebd d381 18bd 51dc 0bb9
-0.012768636 -0.03523754 0.06238022 0.062618494 0.022441316 0.03279247 0.07779137 0.049039293
-0.007902753 0.048533432 0.033507355 0.0004655507 0.016588414 -0.03079735 -0.023387818 0.060194444
-0.07582856 0.06330483 -0.04406021 -0.048352905 0.06259588 -0.053647745 -0.045237813 -0.0499602
0.07859181 0.021993848 -0.010852072 0.0665943 0.04849763 0.012065216 0.042380475 -0.059169687
-0.03846929 0.021389889 0.007819798 -0.054995846 -0.009836142 0.006825999 0.04921887 0.048492618
-0.002161271 0.0576379 0.023922112 0.091412574 -0.012208073 -0.028590072 0.033987314 0.08258672
0.05738986 0.012115722 -0.05945846 0.056775067 0.010552327 0.016374098 0.061020933 -0.040458284
0.05222566 0.058151513 -0.08056208 0.029521206 -0.035161935 -0.009319274 0.0042669293 -0.009658582
0.023210192 -0.029929841 0.03407014 0.0025836143 0.059989363 -0.050615314 -0.03643353 -0.0735517
0.043753862 0.010463956 -0.035755698 0.017716177 0.010928199 -0.056224488 0.06927705 0.0054375604
-0.023134278 -0.11315818 0.07113807 0.056506574 -0.06913941 -0.052589264 0.05769632 0.03979203
-0.022810912 -0.060163464 0.017493347 -0.0063863155 -0.08302853 -0.019147087 -0.08014983 0.046226606
0.07443861 -0.0213512 0.05039095 0.03099582 0.07684015 -0.06369178 0.03791432 -0.03447048
0.012211661 0.006075882 -0.015714757 0.055019688 0.05936095 -0.02959876 -0.037132718 -0.0031052893
0.02839075 -0.057595268 0.029600127 -0.009485013 0.0032265678 0.07795778 0.036135405 0.047628645
0.05428904 0.036176827 -0.011201473 0.062494103 0.013523994 -0.018286746 -0.049093474 0.027370607
-0.03173362 0.027620956 -0.04442717 0.0049842596 -0.056065273 0.0020456424 -0.017030062 -0.025011908
0.05587448 0.041764412 0.031567197 0.062218465 0.06402882 -0.009454225 0.008381714 0.006577072
-0.037629966 0.055852532 0.00067812623 0.050240986 -0.026777206 -0.039252773 -0.03695195 0.02019761
0.039953172 -0.018393852 -0.00739868 0.076003514 0.066257745 -0.03915711 0.045637414 -0.0496945
0.08869528 -0.06315976 -0.060442977 -0.076635726 -0.0011276769 -0.027294762 -0.048146527 0.013994055
0.060660113 -0.00897698 0.047813274 -0.059689745 0.022307152 -0.023777703 0.031037124 0.05860886
0.001558598 0.08536526 -0.054805342 0.065233886 0.013211518 0.046613645 0.035616815 0.09962956
-0.011738785 0.051563606 0.0030652545 -0.016142411 0.053781353 -0.0525572 -0.0037580014 0.019972626
-0.059861306 -0.00983893 -0.057124343 -0.074646704 0.03156647 -0.04385713 -0.03130391 0.05348327
0.005314514 -0.058007915 -0.040774465 0.06772683 -0.07054809 0.022806624 -0.063582145 -0.035112593
-0.016598452 0.014318962 -0.064774476 -0.0068243695 0.0002147989 0.009666098 0.014653007 -0.034440648
-0.015016336 -0.009598809 0.026055802 0.064284004 -0.06192228 0.0514006 -0.052350555 -0.060283918
-0.06527224 -0.031146832 -0.06821921 -0.08558131 -0.07726478 -0.011029828 -0.0015114223 -0.0017410553
0.032160375 0.027525188 -0.0336837 -0.08497968 -0.019681852 0.020053677 -0.0069103483 0.036953628
0.021427345 0.0031708945 0.056855604 -0.05804179 0.007503215 -0.031700555 0.029779935 -0.024604555
0.033946037 -0.019838141 -0.058519676 0.02754136 0.02827036 -0.04269662 -0.037233185 -0.00013338147
