models/trained_model.pth (torch, 149439 bytes, 23 tensors)

weight f4 [10, 6]
00000000: a2fe d9bb 4d6e d73b 5462 9dbc 2dc9 e13a
00000010: ed00 05bc a752 543c 3287 9f3c 8720 38bd
00000020: d0b1 edba 1a0c b43a 2463 9e3b aa7b 74bc
00000030: da2c b0bd 41a7 ba3c aeb7 a93d d827 9ebd
00000040: 76c4 8a3d fcde 06bd 48a8 b23c 46a4 8c3c
00000050: cb43 f2bc 268c 2c3d 516d d2bc 0160 643d
00000060: 1b58 d83c 2d98 26bc 761a 54bc bd17 923c
00000070: c729 8bbb 116f 583c 3dff af3c 2d89 5dbd
00000080: 6f38 ac3c b4c4 943b 00fe f13c 7179 b4bc
00000090: 4505 79bd 2c47 143d 06a5 833d 5f54 36bd
000000a0: 6bb7 7c3d a20f 1a3b 5ec6 a83d d49c 963d
000000b0: 44b2 8cbd b82c 7b3d 03f6 89bd 5bdf b53d
000000c0: b22c 843d f506 063c 459e 5bbd d996 483c
000000d0: 8784 3ebd dfa4 063d d4e9 3d3d cf3c 0d3d
000000e0: c9a2 45bd 2164 1a3d a7bd 2fbd 775f e83c
-0.006652669 0.006574428 -0.019211926 0.0017226093 -0.0081178965 0.012959159 0.019473646 -0.044952895
-0.0018134657 0.0013736517 0.004833596 -0.014922062 -0.08602305 0.022784831 0.08286987 -0.07722443
0.06775753 -0.0329275 0.021808758 0.017168175 -0.029573342 0.042125843 -0.025686892 0.05575562
0.0264092 -0.0101681175 -0.012945762 0.017833585 -0.0042469236 0.013210074 0.021484012 -0.0540859
0.021023003 0.0045400504 0.029540062 -0.022030564 -0.06079604 0.036200687 0.0642796 -0.044514056
0.06169836 0.0023507853 0.082409605 0.07354131 -0.06869939 0.061321944 -0.06736376 0.08880492
0.064538375 0.00818037 -0.053617734 0.012242996 -0.046513107 0.032872077 0.046365574 0.03448182
-0.048250947 0.037693147 -0.042905476 0.028365834

weight f4 [17, 8]
00000000: 568f 8bbb 3c84 18bc dcf2 c7ba 4a2a 3a3a
00000010: 5d31 99bc 1505 78bb d33d 5b3b 5137 d4bb
00000020: 5561 e7bc 315e 1a3d 91d4 a23c 43cc 8c3c
00000030: 825f 4e3d a516 043d 5013 b3bc d845 c2bd
00000040: 470e bebd fc81 a0bd 6153 0c3d 3f67 a33c
00000050: 1b22 a4bc 5c6e 10bb 45b8 eebc c221 1c3d
00000060: cda2 ddbc e3fe e2bc 718c 123d b5d8 193c
00000070: 2f0a 043c 9750 b639 37ff c2bb 3a7c ad3c
00000080: 01e3 573c f845 513c a9de 003d 5a89 06bd
00000090: f22e 88bc 552e 09bd 3e76 193d 25ac 0f3c
000000a0: a749 e4bb 6a90 44bd 06fa 313c f752 75bc
000000b0: bad6 cfbc b618 953b 1db2 a5bc f235 8f3d
000000c0: 41bc 6dbc 807d 843b d0cd 883b 5fa2 e3bc
000000d0: e13d d6bc 214d 37bc 7f1c 083c 56b8 f4bb
000000e0: 6ca3 313c 8edc 6b3b d219 e9bc da6d 043d
000000f0: d53f 353c 8d42 163d a506 20bd 5bc1 82bb
00000100: 2173 6bbd 0745 86bd a3f1 653c 311f c23d
00000110: 28f7 a53d d437 9a3d ab9b 06bd b957 263d
00000120: 0413 25bc 9c57 e1bb c676 533c 0b39 433c
00000130: c97e 643c bfdb 353d 9d32 16bd d271 e53a
00000140: ff92 15bc 75b8 87bc 7542 9f3c bc3f 173c
00000150: 8e0b 203c bb75 2e3c 0e52 95bb 750e 753c
00000160: fde3 7f3c 97fa 183d e661 37bc e551 12bb
00000170: f1fb f0bc ebb1 2abd 1104 173d c7d5 56bd
00000180: 20cf 0c3b 2e4f a4bc bed7 75bb 50da 613b
00000190: 16ba b7bb a3e3 34b9 5bbe 9e3b a607 ed3c
000001a0: 9aa6 943b 3ebb 92bc dc44 873c c23c d1bc
000001b0: 5207 77ba 7263 b4bc 838b 863a 80c5 2bbc
000001c0: 5098 abbc 1866 01bc 1a43 d9bc 8037 0e3d
000001d0: 415f faba 7ca5 3bbc 1652 0ebd 2e91 523c
000001e0: bfa5 353d 76cf 7d3d 6fd1 4fbd 301f a3bd
000001f0: 4680 05bd a387 a8bd eb02 5c3c d5a0 24bd
00000200: a918 063d 5557 4d3c 2fb3 1dbd 8ea8 52bc
00000210: 5fa6 debb 0392 60bc be20 e63c caf7 b73b
-0.0042590303 -0.009308871 -0.0015254873 0.00071016385 -0.018700296 -0.0037844826 0.0033453598 -0.006476321
-0.028244654 0.037687484 0.01987675 0.017187243 0.050384052 0.032248158 -0.021859795 -0.09485978
-0.09280067 -0.078372926 0.034259204 0.019946693 -0.020035794 -0.0022038436 -0.029140601 0.03811813
-0.027055169 -0.02770943 0.035778467 0.009390046 0.008059069 0.0003477379 -0.005950834 0.0211774
0.013176681 0.0127730295 0.031462345 -0.032845832 -0.016623948 -0.03349145 0.03746628 0.00876907
-0.006966788 -0.047989286 0.010862833 -0.014973394 -0.025370944 0.004550065 -0.020226533 0.06992711
-0.014510215 0.004043281 0.0041749254 -0.027787386 -0.026152553 -0.011187823 0.008307575 -0.0074682636
0.0108421855 0.0035989615 -0.028454695 0.032331325 0.011062582 0.03668456 -0.039068837 -0.003990335
-0.057482842 -0.06556135 0.014034661 0.094786055 0.08103782 0.075301796 -0.0328633 0.040611003
-0.010075334 -0.006876899 0.012906736 0.011915456 0.013946244 0.04439902 -0.036669362 0.0017505235
-0.009129285 -0.016567448 0.019440869 0.009231504 0.00976838 0.010648186 -0.004556901 0.01495706
0.0156183215 0.037348356 -0.011192774 -0.0022326645 -0.02941701 -0.041673582 0.036869112 -0.052449968
0.002148576 -0.020057287 -0.0037512626 0.00344624 -0.0056069 -0.00017250939 0.0048444695 0.028934311
0.004536462 -0.01791155 0.016512327 -0.025541667 -0.0009423393 -0.022020075 0.0010264966 -0.010484099
-0.020946652 -0.007897876 -0.026521254 0.034720898 -0.0019101874 -0.011453029 -0.034746252 0.012851996
0.04434752 0.06196543 -0.05073684 -0.07964933 -0.032593034 -0.08228996 0.01342843 -0.040192444
0.03273836 0.012533029 -0.03850096 -0.012857569 -0.0067947353 -0.013706687 0.028091785 0.0056142556

weight f4 [8, 5]
00000000: 4c09 3dba 47e8 933c 3da1 dbbb b4e3 77bb
00000010: f0e2 3cbb caa3 75bc 5fbf 62bd 8ce3 813d
00000020: 7104 9abd 277f 03bd 70af 9c3d de46 a13d
00000030: 1b1f b9bd c1e3 883d 5ef1 2c3d 2fb0 573d
00000040: 91e5 943d 3fbd 8fbd 8182 a03d 9a80 823d
00000050: 8873 58bd f848 6fbd fe3f 3e3d 8c20 99bd
00000060: 3a4f 5cbd 3841 3bbd c8d6 65bd 9336 6f3d
00000070: 9c44 a7bd e84f 42bd 9d2a 4ebd dfd8 38bd
00000080: 48b4 5f3d bcdf 8abd 66ef 26bd 2beb 37bd
00000090: eb72 19bd 22b9 263c ced3 20bd eb93 d4bc
-0.0007211163 0.018055094 -0.0067025707 -0.003782493 -0.0028821789 -0.014992664 -0.055358287 0.06342229
-0.075203784 -0.032103684 0.076506495 0.07874845 -0.09039136 0.066840656 0.042222373 0.052658256
0.07270349 -0.07018518 0.07837392 0.06372185 -0.052844554 -0.058419198 0.046447746 -0.07476911
-0.053786494 -0.045716494 -0.056113034 0.058401655 -0.08167383 -0.047439486 -0.050333608 -0.0451287
0.05461529 -0.06780955 -0.040755652 -0.044902008 -0.03746311 0.010175975 -0.039264493 -0.025949439

weight f4 [16, 8]
00000000: a2c5 c03b 29c6 53ba 8af7 303c da94 383c
00000010: e6a7 b93b 8a99 243a ee53 46ba f065 bb3b
00000020: 49bc 033d 4854 e73c 579e 9cbc 7953 3e3c
00000030: 362a 2f3c ab36 373c ab0c 3abd 5b07 46bb
00000040: 3121 a6bc 8ef5 533c 8395 b43c c70f 343c
00000050: 5b97 a03c 4031 17bc d03b f43c be6d 02bd
00000060: 836d be3c ae76 f43c 1645 f33a 4024 143d
00000070: 0ae9 64bb d3cd 89bc 094b aebc 93bd 183d
00000080: 4c0a 453c 1de6 ef3c 8fec 2f3d 0ea5 383c
00000090: 675c af3b cd26 92bc 432b 6b3c 1464 7cbc
000000a0: fc89 55bd 213f 99bd 6963 8b3c 41aa 3abc
000000b0: 7717 71bd 0c12 1b3d 1982 353d ad85 a6bd
000000c0: fa26 a53d 8bdd d23d f447 85bd 831b 9b3d
000000d0: 48a7 c83d 0853 d1bc f786 a5bd b2f0 a33d
000000e0: 3b6a 8b3d bb59 ac3d 5670 1cbd 27b7 7a3d
000000f0: b0ab 163d 78e0 28bd 2203 47bd 8943 833d
00000100: 711f 023d 6234 3f3d 8a46 16bd d283 613d
00000110: ab5a 263d 4236 08bd 8300 0dbd 1e03 5c3d
00000120: c7ed 873d a5bd bf3d b460 cabc 3627 0a3d
00000130: 1e98 b23d 3c76 2abd c248 cdbd f117 c83d
00000140: 5559 ba3d bf7b b23d fb9d 62bd 52ee 833d
00000150: 4210 973d 5721 9ebc 162a 2dbd cae5 923d
00000160: 9542 4fbd 5742 2ebd b5ae b8b9 902d e1bc
00000170: 8dab 24bd 894c 83bc ca17 273d c5a5 8bbc
00000180: 27e1 62bd 37be 56bd f4ae 6a3c 20bb 47bd
00000190: a035 b1bc 0fcc be3c 976d 593d f762 e1bc
000001a0: 1367 abbc 612e dabc 3c36 68bc 809c acbb
000001b0: 3d98 d3bc 09c6 a73c 6111 c33c bdea eebc
000001c0: 4f2f 6bbd d883 4cbd a628 273d 85bf f6bc
000001d0: 709b bfbd de81 a53c b918 4f3d e1da 1fbd
000001e0: e0eb 6f3d 119d 053d 83fd 273d d958 383d
000001f0: 7e69 9f3c dce0 8bbd ceb6 aebc 408d 2a3d
0.0058829347 -0.00080785394 0.010801205 0.011265958 0.005665767 0.00062789826 -0.0007565607 0.005718939
0.032161985 0.02823843 -0.019118471 0.011616581 0.010691216 0.011182467 -0.045422237 -0.0030216787
-0.020279499 0.012936963 0.022043949 0.01099009 0.019603422 -0.009228051 0.029813677 -0.03184294
0.023245579 0.029841747 0.0018560018 0.036167383 -0.0034928941 -0.016821777 -0.021276014 0.037290167
0.012026381 0.029284531 0.04295021 0.011269821 0.0053515914 -0.017840767 0.014353576 -0.01540472
-0.052133545 -0.07482744 0.017015176 -0.011393131 -0.05886027 0.037859008 0.044313524 -0.081309654
0.08064075 0.10296162 -0.065078646 0.07573607 0.09797531 -0.025552288 -0.08082383 0.08004893
0.06807371 0.08415552 -0.03819307 0.061209824 0.036784828 -0.041229695 -0.048586972 0.06409366
0.031768266 0.046680816 -0.036688365 0.055057354 0.04061381 -0.03325487 -0.034424316 0.05371391
0.06637149 0.09362344 -0.024704315 0.0337288 0.0872042 -0.041616663 -0.10023643 0.097701915
0.0909907 0.08715009 -0.055326443 0.0644194 0.07376148 -0.019303007 -0.042276464 0.07172735
-0.050600607 -0.042543735 -0.00035225382 -0.027487546 -0.040202666 -0.016027706 0.04079417 -0.017046819
-0.055390503 -0.052427497 0.014323939 -0.04876244 -0.021632016 0.023290662 0.05308303 -0.02751301
-0.020923173 -0.026633443 -0.014173087 -0.0052676797 -0.025829429 0.020480173 0.023811998 -0.029164666
-0.057418164 -0.049930423 0.04081025 -0.03012062 -0.09355819 0.020203527 0.050560687 -0.0390271
0.058574557 0.032620493 0.041013252 0.045006607 0.019459482 -0.06829998 -0.021327402 0.041638613

weight f4 [7, 5]
00000000: 0141 f73b 969d 8a3c 613d 1ebc d698 c73b
00000010: 5234 3dbb 0881 c73c 4b9e 803c 8cd3 453c
00000020: 62d1 b1bc 4b42 acbb bd0c 14bd 912c 5dbd
00000030: e7d5 73bd 191a 563d 7ac3 c2bc bf7a 82bd
00000040: 970f 94bd 54f3 8dbd 375b 3d3d 7090 95bd
00000050: 2c63 76bd ad88 a1bd 3280 87bd 1da5 853d
00000060: 28ee 94bd 72d3 78bd 0196 27bd a385 77bd
00000070: 5d45 273d 9d68 7bbd f81a d63d 5658 e53d
00000080: d750 d33d 5895 e6bd 3f01 c93d
0.007545591 0.016920846 -0.009658189 0.0060912175 -0.0028870297 0.02435352 0.01570048 0.0120743625
-0.021706287 -0.005256926 -0.03614496 -0.05399758 -0.059530165 0.052270982 -0.023774851 -0.06371068
-0.07229536 -0.06931177 0.046229567 -0.0730294 -0.06015317 -0.07887397 -0.06616248 0.065256335
-0.07271987 -0.060748525 -0.04091454 -0.06043018 0.040837634 -0.061379064 0.10454363 0.11198489
0.10318153 -0.11258954 0.09814691

weight f4 [6, 4]
00000000: c4e0 e43b fe4f 203c a3a1 2ebc 5bf5 bd3b
00000010: 815f 303d 3624 c73d 6585 8f3d 5f98 3ebd
00000020: 73af 17b9 58c9 6639 8df4 023c 9adf 583b
00000030: 68ff 1dbd 1db1 e73b ddf4 ce3b 27d1 1fbd
00000040: 4b80 893c 3b04 c23c 1240 833d 8fa3 80bd
00000050: 54ee c2ba e285 9cbc d7d3 4abc 2b31 873c
0.006984802 0.009784697 -0.010658654 0.005797071 0.04305983 0.097237036 0.07007865 -0.04653203
-0.00014465842 0.00022009516 0.007992876 0.0033092261 -0.038573653 0.007070674 0.006315811 -0.039017823
0.016784808 0.023683658 0.06408705 -0.06281196 -0.0014872053 -0.019106809 -0.012379608 0.016502937

weight f4 [3, 3]
00000000: 95dd 563c 6834 753b 9a2e de36 a35c 97bd
00000010: 050d 8c3d 2d7f b7bd d91c f43c 8f8d fbbc
00000020: 49d2 8d3d
0.013114353 0.003741527 6.6215407e-06 -0.07390716 0.06838421 -0.08959804 0.029798912 -0.030707149
0.06924874

weight f4 [42, 13]
00000000: 0e78 0cb8 f859 c9bb 13d8 02ba 545c 1e3c
00000010: 066e b039 4ab6 8fbb 221d 873c 3df2 2d39
00000020: 6922 1c3b 297b 04bb 6dc7 13bc 7b3c 693b
00000030: ccb9 953a fdc7 883b 0d09 d93b f618 39bc
00000040: 1179 2ebb e759 df3b 1a7b 5b3c fff4 893c
00000050: f26d a339 f344 b5bb c0db ef3b b28d d8bc
00000060: 1731 813c 1d84 87bc d0c4 4fbd 4f4b 0fbc
00000070: 8daa 873c 3a97 133d 5283 c93c ecb4 6fbd
00000080: c93e 01bd 3fc9 9dbb 1c6c 613d cc6d 8dbd
00000090: 9e97 3c3d 50bf 8dbd 48c7 783d 56cb 693b
000000a0: e007 cabc 850b bb3c e4a2 963c f268 0b3d
000000b0: d5f4 fcb9 fd7b b2bc 4548 a93c b95a 9b3c
000000c0: 03b2 48bc e98a 093d bc3e 32bd 1ce9 18bc
000000d0: ab1e 023d 44f5 233d 3a2f 41bc 6f1b 1fbd
000000e0: 2523 383c a4bf bc3c 9588 92bb 3cac cdbc
000000f0: b3e6 d5bc 8f51 583c 1843 cfbc 96e3 bb3c
00000100: 2503 9cbb bb9b 2e3d 0ef1 a13d 8d73 f3bc
00000110: 6caf 32bd ae6d 69bd 93fd 893d dd32 dc3a
00000120: 083e 003c 2fee 6fbd c59e 493d 2f5c 84bd
00000130: 1c00 f23c 874d 2bbd fe8a 9cbc 6063 efbb
00000140: 6f36 2abc 3552 c93c 5d0c 993d dc4d 36bd
00000150: d01f 243d 39c3 8abd c527 16bc f429 73bc
00000160: 5ee9 0e3d 68e3 c8bb 6460 103d 9b68 d73c
00000170: 1420 1e3d dcc2 b4bc 0cb9 0dbd 457e c339
00000180: 45a7 273d 2d82 88ba 6098 2c3d ed0d 60bc
00000190: 2b46 3b3d f485 2fbd 07ae e73c c72c 18bd
000001a0: 7d85 8f3d 7f58 573d 0d50 f33b 8c3e 7abd
000001b0: fb7b 2c3c 5f2d 543d b325 963c 3e0b 0b3c
000001c0: 8bda 16bd b38a 013d acb7 cfbc 344b 783d
000001d0: 94ef 23bd 05d0 183d 3b87 ce3c ec07 1c3c
000001e0: 0432 b0bc 33b3 57bd b435 203d ae1d ef3a
000001f0: ea86 903d 5819 b0bc f38c 9e3d cb94 f738
00000200: afba e73c 344b 53bd 28c8 86bc bf6a 0bbc
00000210: cd62 573c 0c0a 293b 3775 183c 901e 9cbc
00000220: 0623 753b c5c9 7a3c 2d36 273d 5a56 d9bc
00000230: a8c9 1e3d 1f3b b1bc 6049 e3bc 4f6a 19bc
00000240: 0eb5 89bc fe3b f1bb 4c68 bd3c 6df7 b53b
00000250: a877 bbbc bb46 1cbc 5d5f 2bbd c59a a13b
00000260: 331b a3bc a456 883c 4fe3 24bc 0491 183c
00000270: 7e81 92bd 970a 05bd 2386 9d3c acd2 0d3d
00000280: 865e 973c f288 88bc 8ced bebb a941 6c3c
00000290: cb10 2e3d e6b6 32bd 2f37 9b3c 5150 e2bc
000002a0: 73c6 ec3c fd6c a03c 5ea0 bf3c 3a26 bdbc
000002b0: c1d0 c5bc 785a 49bc b829 1f3d 20f3 ab3c
000002c0: 1656 273b 7713 94bd 9beb 1f3d 033e 05bd
000002d0: b851 2d3d 0fc3 da3c c9d2 8d3c 82bf 393d
000002e0: 7b40 d4bc e546 01bc 8839 823c 0b5a c13c
000002f0: 069e 583c 17cb c33c 01e5 30bd 9bd1 373d
00000300: d149 3abd 50c9 913c c0f2 ebbc 2a4a 69bc
00000310: 7d8e 40bc 3743 b93c 395e ff3a 57f6 4d3c
00000320: 079d b43c 0812 ccba a996 b93d 0a3d d1bb
00000330: cf54 963c 4f10 d93c fbdd 67bb 42b8 ca3a
00000340: 55dc 143d b236 053d 85fc 803c ef44 52bb
00000350: fc1d 8c3b 2101 043c 7796 543c c29d 1f3c
00000360: c39a c0bc 084b a73c 9106 a5bc 1820 e03c
00000370: 5091 e5bc 64bf 4ebc 8487 5ebc c562 773b
00000380: 24d4 85bb 3a3f 76bb 6cac a53a 25c3 7dbc
00000390: 3f0b 3b3b 9b48 cdbb 4b83 fbbb bbce 90b9
000003a0: 38c6 043a 8259 da3c 7c64 1b3d 0f47 d83c
000003b0: c997 983c d824 9ebb b4d8 31bc e873 443d
000003c0: 4cb6 fd3c 3fb8 00bb f8fa 34bd 5b6a 223d
000003d0: 5bb9 c2bc e1bc d23c 8622 f7bc df2c 593c
000003e0: be86 4d3d 625e 75bd ea8b a2bc 8d61 033b
000003f0: 6fcf 9b3c eee5 3e3d 6e86 aebd 8bb6 2abd
-3.349041e-05 -0.0061447583 -0.0004991304 0.009665567 0.0003365131 -0.004385744 0.016493384 0.00016588806
0.002382422 -0.002021501 -0.009019715 0.0035589028 0.001142317 0.004174231 0.0066233934 -0.011297455
-0.0026622454 0.006816137 0.013396049 0.016840456 0.00031171698 -0.005531901 0.0073198974 -0.026434753
0.015770478 -0.016542489 -0.050724804 -0.008745982 0.016560817 0.036032893 0.024598751 -0.05852215
-0.031554017 -0.00481525 0.05503474 -0.06905708 0.04604303 -0.069212556 0.060736924 0.0035674176
-0.024661958 0.022832641 0.01838822 0.03403563 -0.000482476 -0.021787638 0.020664344 0.018964158
-0.012249473 0.03357974 -0.04351686 -0.009332921 0.03176753 0.040028825 -0.011791045 -0.038844522
0.011238848 0.0230406 -0.0044718483 -0.025106542 -0.026110983 0.013203039 -0.025300547 0.02293567
-0.004761117 0.042628985 0.07907306 -0.029718185 -0.043624327 -0.056989364 0.067378186 0.0016799826
0.007827289 -0.05857676 0.04922368 -0.06462895 0.029541068 -0.041821983 -0.019109245 -0.0073055476
-0.010388955 0.024575332 0.07473061 -0.044507846 0.0400694 -0.06775517 -0.009164755 -0.014841545
0.034890525 -0.0061306246 0.035248175 0.026294997 0.03860481 -0.022065572 -0.034600303 0.00037287376
0.040931005 -0.0010414772 0.042137504 -0.013675195 0.045721214 -0.042852357 0.028281225 -0.037152078
0.07007883 0.05257463 0.0074253143 -0.061094806 0.010527606 0.05180108 0.018328523 0.008486567
-0.036829513 0.031626415 -0.025356136 0.060618594 -0.0400234 0.037307758 0.025210967 0.009523373
-0.021508224 -0.052661132 0.039113715 0.0018243098 0.07056983 -0.02149646 0.07741728 0.00011805593
0.02828726 -0.05158539 -0.016452864 -0.008509337 0.013146115 0.0025793342 0.00930529 -0.019057542
0.0037404909 0.015306895 0.04082315 -0.026530433 0.038766533 -0.021634636 -0.027744949 -0.009363725
-0.016809966 -0.007361888 0.023121022 0.005553177 -0.022884205 -0.009538348 -0.041838992 0.00493178
-0.01991043 0.016642876 -0.01006396 0.009311918 -0.07153605 -0.032480802 0.019229 0.03462474
0.01847769 -0.016666863 -0.0058266576 0.0144199515 0.042496484 -0.043631457 0.018947212 -0.027626188
0.028903222 0.01958322 0.023391899 -0.023089517 -0.024147393 -0.012289636 0.038858145 0.020989954
0.002553349 -0.07230275 0.03904305 -0.032529842 0.04231426 0.02670434 0.017312424 0.04534865
-0.025909653 -0.007890438 0.015896574 0.023602506 0.0132212695 0.023900552 -0.043187145 0.04487763
-0.045480553 0.017796189 -0.028802276 -0.0142388735 -0.011752722 0.022615058 0.0019483037 0.012570939
0.022047533 -0.0015569339 0.09061939 -0.0063854503 0.018350987 0.026497034 -0.0035380113 0.001546629
0.036342937 0.032522865 0.01574541 -0.0032084545 0.0042760354 0.00805691 0.012975327 0.009742202
-0.023511296 0.02042152 -0.020144733 0.027359053 -0.028023392 -0.012618873 -0.013582114 0.003774808
-0.004084127 -0.0037574307 0.0012639887 -0.015488421 0.0028540639 -0.0062647588 -0.0076755635 -0.00027619847
0.0005064937 0.026654009 0.037937626 0.02640107 0.018627064 -0.0048261695 -0.010854889 0.0479621
0.030970715 -0.001964107 -0.044184655 0.03965221 -0.023770025 0.02572483 -0.03016783 0.013255327
0.05017733 -0.059904464 -0.019842107 0.0020047158 0.01901981 0.046605997 -0.08521734 -0.041677993

weight f4 [6]
00000000: 470d 7b3f 4824 6f3f 7a12 6a3f 0147 8b3f
00000010: fd6b 6e3f e2a8 713f
0.98067135 0.93414736 0.91434443 1.0881044 0.9313353 0.9439832

bias f4 [6]
00000000: 2843 cdbc eeee a2bb 7071 87ba d111 65bc
00000010: 6296 c5bb 8d86 05bd
-0.025056437 -0.0049723303 -0.001033349 -0.013981299 -0.00602989 -0.03259902

running_mean f4 [6]
00000000: b02d 24bc 5972 c2bb ad07 303d b338 5a3d
00000010: 9e2c 4cbd 1a9f 273d
-0.010020658 -0.0059340415 0.04297607 0.05327673 -0.049847238 0.040923215

running_var f4 [6]
00000000: e994 823f 32de 623f 28ba 773f 1a2d ca3f
00000010: e9b0 413f e6ae 713f
1.0201694 0.88620293 0.96768427 1.5795014 0.7566057 0.944075

weight f4 [200, 58]
00000000: 73f1 c6bd 81f1 613d db34 5b3a fad7 563d
00000010: 838e 8dbd c175 49bd 05e9 cfbd 570a d43d
00000020: 2f75 f63c f8f8 d53d d9ca b5bd 973e ce3d
00000030: 89f6 05bc a10f b4bd e2e6 9dbd 279f 063d
00000040: 0a9a b7bd 25e8 ebbd c602 e43b 169b 013e
00000050: eb52 743d a067 aa3d a605 1c3d a946 223d
00000060: 92c2 2dbd 371f 923b c7cd e63d 60f0 87bc
00000070: 21b6 1f3e 404d cfbd 88bd cabd 3b7e 283d
00000080: 2d23 543c 757b 043e edfb 12bb c024 483d
00000090: 1955 f13d dbe1 b0bb ea49 d33c ba5d 6e3c
000000a0: a343 aebd abd5 6a3c 7df8 e7bc 0d87 06be
000000b0: f9c2 bbbd aa60 cfbd 5056 d23b f579 d7bd
000000c0: 10ed 0b3e 0ceb ef3d cc5a da3d ba41 cabc
000000d0: 5c63 d8bd a2a5 b23d b8ec 8a3c 0ae8 503d
000000e0: c8ce 8dbd e30b bd3d edcd aabc 700e b2bd
000000f0: 7f87 ec3d 06bc adbd 1add c2bb 28db 1b3d
00000100: d8a2 243e b207 7fbd 114d 163d 18d6 89bd
00000110: a513 bebd 4710 b9bc 04db 1a3d d885 d83d
00000120: ed5d 263d 8e69 bf3c 3f5d a6bc 2cf1 353d
00000130: 1813 e13d 374b 64bd 29ee 10be 6ecc 02bd
00000140: 9c46 f1bd 5f22 1dbe aa7b b03d da4c 883d
00000150: 56d1 a73d e1d1 0f3e 9285 ab3c 8cfb 503d
00000160: a8ad 52bd 9790 1f3d f548 febd 8e62 69bd
00000170: 4dcf 9c3d 9ad0 93bb 04eb fe3d 3b91 e13b
00000180: 81e2 bb3c ff86 ecbc eefa 20be 7e21 37bd
00000190: 578c 16bd aa47 e63b 5960 e5bd 5912 3ebe
000001a0: 9fa1 913d 63cf d93d 968c 29bd 300b c33c
000001b0: eaa8 083d 5e8d 4b3c ecbc 453d fcbc 1bbc
000001c0: c07f 2abd 52a8 fcbc efdf 03be af31 eabd
000001d0: ce60 7a3d 3059 933d dad5 4d3d c935 f73d
000001e0: d456 f33d 03f5 b63b 92ca 0abe e2f0 6abd
000001f0: b1d5 fabc b107 ba3d 081f e4bc 5dab 503d
00000200: 0b85 c1bc 9929 fbbd 138c 88bd dbb3 0d3e
00000210: 2bf0 9dbd 8b47 fe3d 0df7 233e 8390 67bd
00000220: b531 fbbb 5a89 cb3d 9bba b8bc 3251 8c3c
00000230: ab39 253e a55a a83d 76cd 333d cf52 ad3d
00000240: 9a96 bd3d 5971 0b3b 3a28 2a3d 2857 cf3d
00000250: c794 2dbc 2f09 ccbc 9683 9cbd 9338 0c3e
00000260: aade cbbd 3ad7 84bd da08 a23d 4be1 dfbd
00000270: 5c8b 30bd c588 a8bd 0112 093b 1a06 4cbd
00000280: e674 42bc 046e d1bd a37b bc3c 09a2 babb
00000290: 73fe 80bd 8d4a c43c 653d e8bb 83eb 6c3c
000002a0: 5130 5d3d 863b bb3c 15b9 483d 84dc 173e
000002b0: d6b3 ac3d 2c39 f5bc 7762 b93d 8fbf 53bd
000002c0: ccf7 17bd 1cc8 cabc 664a c7bd c783 af3d
000002d0: b788 a53d 0de7 a83b 6722 f03d 89c2 bc3c
000002e0: ea97 a83c 5368 12be 1750 a0bd ee59 e9bc
000002f0: 1a6d 813d 5f0c 11be 75a8 193d aaaa 01be
00000300: 70e1 9b3d 40d7 1abd 1405 6d3d 8943 ddbd
00000310: 3209 133e d88a da3d 4d76 a13c 2349 a1bc
00000320: f2da 11bd f920 2d3b c9df f3bd 2559 f33a
00000330: cb24 253e 2fd3 6a3c 2c63 cdbd 4a42 1a3e
00000340: ec23 813d 08d3 6d3c 50e9 01be 09f0 193d
00000350: ee28 ea3a c5ea ce3d e2be d2bd 2881 643d
00000360: 4367 03be bdce 9f3b 2dd2 983d a1b8 e0bd
00000370: 8433 b23d 10d5 8e3c 6635 583d 66b1 60bc
00000380: e530 2e3e a341 73ba 46a5 a33d dc8e c93c
00000390: 5036 e3bc d6ac ecbd c03e a6bd a2d2 09be
000003a0: 2e61 07bc 53e0 25bc 455e d73d a45f ffbd
000003b0: 01a3 6dbd f4ad 883d dfcc 883d 9469 0fbc
000003c0: 4d9c f3bd 0dc2 9cbd abe6 7a3c b637 533d
000003d0: 4672 263e 03b2 44bd 1e11 3bbd 69e6 29bb
000003e0: 07c4 a9bd 1fe7 14bd 4a73 95bd fc01 b53b
000003f0: b6ec ebbd 28ed b5bd a889 e4bd 759f cc3d
-0.097140215 0.055161957 0.0008362063 0.052452065 -0.069119476 -0.049184565 -0.10151867 0.10353535
0.030085174 0.10447878 -0.08876581 0.10070532 -0.008176454 -0.087920435 -0.07710053 0.032866623
-0.089649275 -0.115188874 0.0069583384 0.12656817 0.05964939 0.08320546 0.038091324 0.039618168
-0.042421885 0.0044592875 0.11269718 -0.016594112 0.1559682 -0.10122156 -0.098994315 0.041136008
0.01294784 0.1293772 -0.0022427991 0.048863173 0.11783809 -0.005398018 0.02579208 0.014548713
-0.085089944 0.014333169 -0.02831673 -0.13137455 -0.091680475 -0.10125859 0.0064189807 -0.10521308
0.13664651 0.117147535 0.106618494 -0.024689544 -0.10565826 0.08722998 0.01695858 0.05100254
-0.06924206 0.09230783 -0.020850146 -0.0869416 0.11549281 -0.08483128 -0.0059467675 0.0380508
0.16077745 -0.0622632 0.03669459 -0.06730288 -0.09281091 -0.02259077 0.037806526 0.10572404
0.04061692 0.023365762 -0.020308135 0.044419453 0.1098997 -0.055735793 -0.14153351 -0.03193324
-0.11781046 -0.15345143 0.08617337 0.06655283 0.081942245 0.14044906 0.020937715 0.051021144
-0.051435143 0.03895625 -0.12416259 -0.056978755 0.07656727 -0.004510951 0.124471694 0.006883768
0.022935154 -0.028872965 -0.15720722 -0.044709675 -0.036754932 0.007027586 -0.112000175 -0.18561687
0.07110905 0.10635259 -0.04139384 0.023809046 0.033364214 0.012423841 0.048275873 -0.009505507
-0.04162574 -0.03084198 -0.12878393 -0.11435258 0.061127476 0.071947455 0.050252773 0.120708056
0.118817955 0.005583407 -0.13553837 -0.05735863 -0.030619474 0.09083498 -0.027846828 0.050944675
-0.02362301 -0.122637935 -0.06667342 0.1383814 -0.07711824 0.124159895 0.16012211 -0.0565343
-0.0076658376 0.09938307 -0.022549918 0.01712856 0.1613528 0.08220414 0.043897115 0.0846306
0.092572406 0.0021277277 0.04154227 0.101240456 -0.010594553 -0.024906723 -0.076422855 0.13693456
-0.09954579 -0.06486364 0.079118446 -0.10931643 -0.043101653 -0.08229212 0.0020915272 -0.049810506
-0.011868691 -0.10226062 0.023008173 -0.0056955856 -0.06298532 0.02396133 -0.007087397 0.014460447
0.054001156 0.022855531 0.049004633 0.14830214 0.084327385 -0.029934488 0.09051984 -0.051696356
-0.037101552 -0.024753623 -0.09730987 0.085700564 0.08082717 0.0051544965 0.11725312 0.02304198
0.02058025 -0.14297609 -0.07827776 -0.028485265 0.063196376 -0.14164875 0.03751417 -0.1266276
0.07611358 -0.037802935 0.05786617 -0.10803897 0.14358976 0.106710136 0.01970973 -0.019688195
-0.035609193 0.0026417358 -0.11907918 0.0018565996 0.16127317 0.014332577 -0.10028681 0.1506435
0.0630568 0.014515646 -0.12686658 0.03758243 0.0017864981 0.101033725 -0.10290314 0.055787235
-0.1283236 0.00487694 0.07461963 -0.10972715 0.08701232 0.01743558 0.0527853 -0.01371417
0.1701084 -0.0009279495 0.07990508 0.024604253 -0.02773586 -0.11556403 -0.08117437 -0.13459256
-0.008262916 -0.010124284 0.10516027 -0.12469414 -0.05801678 0.06673804 0.06679701 -0.008753199
-0.118950464 -0.076542 0.015313785 0.051566802 0.1625453 -0.048021328 -0.04567062 -0.0025924689
-0.082893424 -0.036353227 -0.0729738 0.005523918 -0.115197584 -0.088831246 -0.11159068 0.099913515

weight f4 [200]
00000000: 906e 813f f6c7 7c3f fec9 853f 7df7 793f
00000010: e41d 823f 4829 7c3f bbbe 7b3f c72f 823f
00000020: 1e8e 833f b2ff 7a3f a80a 833f 5f93 873f
00000030: e0dd 7f3f 1f19 7e3f c33a 833f 9554 7e3f
00000040: 8662 7b3f 3922 733f 8163 813f e9e8 7a3f
00000050: 13c0 7c3f 2c57 803f 2f24 783f 3e2a 803f
00000060: 9027 793f aaa9 803f 0936 7e3f b17e 813f
00000070: 3513 813f 44f4 7d3f 93bb 7c3f 5a94 843f
00000080: 79df 823f 7cbf 843f cad2 793f 72bb 833f
00000090: ca1e 7e3f e0eb 8b3f 9969 7f3f 9d54 733f
000000a0: da68 7d3f 15a0 793f 38bb 763f 733c 793f
000000b0: eea6 803f 7697 793f 7ba8 833f 39b3 7e3f
000000c0: 2dd7 853f 88e3 7c3f a724 803f 551f 7e3f
000000d0: 8eba 843f c47b 823f 4368 803f e6f5 823f
000000e0: a9f5 7e3f 4093 843f 16e8 803f 1f9e 7a3f
000000f0: 4df5 803f a36b 813f f153 803f 0727 803f
00000100: ba4e 7f3f a92f 7c3f eb14 823f 82d7 7e3f
00000110: 1c3c 7e3f 6f20 793f b3b6 843f 2fc8 7f3f
00000120: bf32 803f 4344 813f 00dc 803f 4a52 803f
00000130: d292 783f 005e 7d3f 5fbc 803f bb69 7e3f
00000140: 8c70 803f 5317 773f fb2a 7c3f 08e5 7e3f
00000150: c78e 853f ca1c 7f3f fb09 823f ce94 833f
00000160: 3e12 813f ee8e 823f 11f3 773f 32b3 7d3f
00000170: f225 7b3f a168 7d3f a65e 7d3f b670 823f
00000180: 720b 803f a8c9 803f 1c0e 7e3f 34a0 813f
00000190: 07b7 883f 4aa6 7e3f dddf 803f 440e 833f
000001a0: 22da 803f 0360 753f 8a24 7c3f c76a 7d3f
000001b0: e9f8 823f d895 813f e858 7d3f a5c2 753f
000001c0: b9cb 783f 8e81 803f b04b 853f ccb5 863f
000001d0: 3368 863f cec5 803f 76a8 783f df0e 803f
000001e0: 4809 7c3f 4adf 833f a5e9 7d3f ae1f 7e3f
000001f0: f0a2 833f 0176 7e3f 3b3a 803f 552c 773f
00000200: 8db2 853f 86e1 773f 885b 803f e517 7e3f
00000210: 8cef 753f c440 793f b866 7e3f 52f9 7f3f
00000220: 3e55 823f 17f7 7e3f 9381 7b3f 04a7 893f
00000230: 6ed2 7b3f d286 803f 3de5 7f3f 0895 763f
00000240: e859 7b3f 118d 803f 0fd3 7e3f 5f45 843f
00000250: 09c1 813f f7b1 813f 1389 7f3f 385e 823f
00000260: fbd6 7a3f 3d2e 803f d5b3 823f be61 823f
00000270: 8783 753f 6d3e 703f 15b0 823f ed20 7b3f
00000280: 7e15 813f fc70 7b3f f84d 7b3f 070b 823f
00000290: 1688 833f 5360 7c3f 227e 7f3f 826d 843f
000002a0: 321d 823f 7320 703f c785 7b3f 375e 803f
000002b0: 0883 803f dbe7 7c3f 0f14 7e3f 58d2 773f
000002c0: 8035 7d3f 4859 7e3f ae0d 763f 4724 7c3f
000002d0: be85 823f 812e 773f 76dc 7c3f 5efc 7b3f
000002e0: f2a5 783f f517 7f3f cfcc 7c3f 531e 7d3f
000002f0: 9911 763f 1938 7f3f 2580 7f3f d51e 833f
00000300: 005d 803f 69c7 7c3f 1e06 823f 6df9 7c3f
00000310: 7a05 803f c3a8 7e3f cae9 7d3f caf9 7b3f
1.0111866 0.98742616 1.0452268 0.9764326 1.0165372 0.9850049 0.98337907 1.017083
1.0277746 0.9804641 1.0237627 1.0591849 0.9994793 0.9925708 1.0252308 0.9934781
0.9819721 0.94974095 1.0108491 0.9801164 0.9873058 1.0026603 0.9693021 1.0012891
0.9732599 1.0051777 0.993012 1.0116788 1.0083987 0.99200845 0.98723716 1.0357773
1.0224448 1.0370936 0.97587264 1.0291579 0.9926573 1.0931358 0.99770504 0.95050985
0.98988116 0.9750989 0.96379423 0.97357863 1.0050943 0.97496736 1.0285791 0.9949222
1.0456291 0.98784685 1.0011185 0.9926656 1.0369432 1.019402 1.0031818 1.0231292
0.995936 1.0357437 1.0070827 0.97897524 1.007486 1.0110973 1.0025617 1.001191
0.997295 0.98510224 1.0162634 0.9954759 0.9931047 0.97315115 1.0368255 0.9991483
1.0015486 1.0098957 1.0067139 1.0025113 0.9709903 0.9897156 1.0057486 0.9938008
1.0034347 0.96519965 0.98503083 0.99568224 1.0434197 0.99653304 1.0159296 1.0279787
1.0083692 1.0199869 0.96855265 0.99101555 0.98104775 0.98987776 0.9897255 1.0190647
1.0003493 1.0061541 0.9924028 1.0127015 1.0680856 0.99472487 1.0068318 1.0238729
1.0066569 0.9584963 0.98493254 0.98991054 1.0232211 1.0123854 0.98963785 0.9600013
0.97185856 1.0039537 1.0413723 1.052423 1.0500549 1.0060365 0.9713205 1.0004538
0.9845166 1.0302517 0.9918464 0.9926709 1.02841 0.9939881 1.001777 0.9655202
1.0445114 0.96828496 1.0027933 0.9925521 0.96068645 0.9736445 0.99375486 0.9998981
1.0182264 0.9959578 0.9824459 1.0754094 0.98367965 1.0041144 0.99959165 0.96321154
0.9818406 1.004305 0.995408 1.033367 1.0137035 1.0132436 0.99818534 1.0185003
0.97984284 1.0014111 1.021113 1.0186079 0.9590382 0.93845254 1.0209986 0.98097116
1.0084684 0.98219275 0.98165846 1.0159615 1.0275905 0.9858448 0.9980184 1.0345919
1.016516 0.93799514 0.98251003 1.0028752 1.0039988 0.98791283 0.99249357 0.96805334
0.9890976 0.9935498 0.96114624 0.98492855 1.0197065 0.96555334 0.98773897 0.98431957
0.9712821 0.9964593 0.98750013 0.98874396 0.961206 0.99694973 0.9980491 1.0243784
1.0028381 0.98741776 1.0158117 0.98818094 1.0001671 0.9947626 0.9918486 0.9842802

bias f4 [200]
00000000: 18d5 093c 04fa 1c3d e170 61bb e30d 6a3c
00000010: 9614 febc 25d7 fabc adcc 99bd 341b 273c
00000020: 4b14 983b 746e 623c 207f 143a 3b5b a3bb
00000030: 3b06 2abc 9857 d43c 42bd 12bc 0e21 353c
00000040: f777 b1bc 2325 983c ca6b c03c 1ed5 bfba
00000050: 8974 71bc 6082 f13c 0e64 233d 7427 afba
00000060: 5c8f fc3c f3d5 fbba a2d7 0d3d a102 e0bc
00000070: ad20 04bd 942f 19bc bd79 d13b 902c 60bd
00000080: 10b8 12bc 239d e33c 8d81 1ebd 8479 4bbc
00000090: 14cf ff3c fb51 4cba 32da cc3c 3700 3b3b
000000a0: b122 c73b b2fc 9d3b 6ba7 4c3d f80d 243c
000000b0: 2bb0 1c3d 94d8 283c 0859 3dbd 9576 5abb
000000c0: 164b 1fbb 4076 ae3c 244f fcbb de36 0c3d
000000d0: 9cc2 b03a 8243 5f3b aa5f 34bc cd5d 42bb
000000e0: 936e adbc 37fb 8fbc acbf 90bc 1a2e 17bd
000000f0: 9254 bf3c d9b5 c0bb b336 273c e4ef 3d3c
00000100: fa00 e0bc 2bd9 ffbc ba48 843a c0fb 213d
00000110: fcf0 e9bc 7f74 1dbd 0820 243a 870b 12bd
00000120: c140 d9bc c11c 513c 6e4c 843c 1718 44bd
00000130: d265 1f3d b78b 6a3d 1caf 5f3c f9e4 a43c
00000140: 934d 8abc 05cf 523c fef5 a6bc 0390 223c
00000150: 23e5 383c b98d 163d b21b 0cbd fe88 d93c
00000160: 5513 bdbc dbad b7bc f575 753c 3a9b d6bc
00000170: d5e6 64bc 3391 3b3c f5da 913c 9b6d a3bc
00000180: 694f d4bc 3aee 1dbb 3c4c 8cbb b836 a8bc
00000190: 4c27 92bc d5e0 b93c 85f3 923c 1101 d8bc
000001a0: dc33 1bbc 5fec 11bd 34c7 a0bc 6cb0 3f3c
000001b0: 6231 94bc e5fe 00bd 127d ecbc a49f 093d
000001c0: a682 acbc e574 373c c684 3d3c 1c9e f13c
000001d0: a161 2ebc c66d 4a3d 2165 ba3c e077 9fbc
000001e0: db91 06bc abf8 493d d8b4 50bc e1ea 2bbc
000001f0: 1155 373c d05a f03c d527 3f3c 092f 41bd
00000200: b6ad cfbb bcee adba 0204 2abd 4fdc 12bd
00000210: 6205 053c 8ea7 fcbb 8949 01bc fc5b 1cbd
00000220: 35c8 dbbb 1c2b ae3d e0a8 8ebc e2d9 7fbc
00000230: 7116 9bba 48c4 193d 493c 03bd 1a66 603c
00000240: 0676 abbb dbec b0bc 841f e63c 892c d9bc
00000250: 086d 55bc 470a 0bbd 9476 42bc cce4 8abc
00000260: 1491 c8bc 950f 113b f153 1b3c 1114 79bc
00000270: cb36 0f3c 1e23 bd3c 1059 0ebd 13b0 5ebd
00000280: d76e e43c 9c4e 103c 7539 833c 9243 2c3c
00000290: fa5c 6cbd 11a1 99bc 0775 543b 0b43 d93c
000002a0: 1fc2 3cbc 01d0 eabc 01a1 033c 5a31 283a
000002b0: 82c3 98bc 13fd 0e3c c62e 243d 54a0 543c
000002c0: b091 273c a4e7 393c fc5b dbbc 9fcc ed3c
000002d0: b767 63bc 5a79 ea3a ed3d 2abd 2da9 25bc
000002e0: 648a 0d3c 0aff d0bc 8f43 1e3d fd99 ef3c
000002f0: 0cc1 85bb 7dc0 bf3c 5051 a7bc 6a70 c1bc
00000300: e728 05bd 0345 4dbd 05a4 1a3c 90b4 333c
00000310: 5ea3 c23c df72 94bc 6a65 493c f51c 9cbc
0.008412622 0.03832437 -0.0034399556 0.014285537 -0.031015676 -0.030620167 -0.07509742 0.010199357
0.004641091 0.013820279 0.0005664695 -0.0049852408 -0.010377462 0.025920674 -0.008956255 0.011055244
-0.021663649 0.018572396 0.023488898 -0.0014635657 -0.014737257 0.029481113 0.03989034 -0.0013363198
0.030830078 -0.0019213542 0.03462947 -0.027345004 -0.032257725 -0.009349722 0.006392686 -0.054729998
-0.008955017 0.02778489 -0.038697768 -0.012419108 0.031226672 -0.00077941985 0.025006387 0.0028534064
0.0060771336 0.0048213834 0.04996435 0.010013096 0.038253944 0.0103055425 -0.046227485 -0.003333484
-0.002430623 0.02129662 -0.007699864 0.034232013 0.0013485732 0.0034067337 -0.011009136 -0.002965796
-0.02117089 -0.017575843 -0.017669521 -0.0369092 0.023355756 -0.005881053 0.010205912 0.011592839
-0.027344216 -0.031231483 0.0010092475 0.039546728 -0.028557293 -0.038441177 0.00062608765 -0.035655525
-0.026520135 0.012763203 0.016149726 -0.047874536 0.038915463 0.05726215 0.013652589 0.020128714
-0.016882693 0.01286674 -0.02038097 0.00992203 0.011285099 0.03675625 -0.0342061 0.02655458
-0.023080507 -0.022421768 0.014981736 -0.026197065 -0.01397105 0.011448192 0.017804602 -0.019949725
-0.025916772 -0.0024098293 -0.004281549 -0.020533904 -0.017841004 0.022690216 0.017938385 -0.026367696
-0.009472813 -0.03562581 -0.019626237 0.011699777 -0.018089954 -0.031493086 -0.028868232 0.03359951
-0.021058392 0.011197303 0.0115673 0.029494338 -0.010643394 0.049421094 0.0227533 -0.01946634
-0.008213486 0.049309414 -0.012738429 -0.010493011 0.011189715 0.029340178 0.011667212 -0.047163997
-0.0063378466 -0.0013270001 -0.04150773 -0.035854634 0.008118959 -0.0077104038 -0.007891067 -0.03817366
-0.006707216 0.08504316 -0.01741451 -0.015615912 -0.001183225 0.037540704 -0.032039914 0.013696218
-0.0052325753 -0.021597316 0.0280912 -0.026510494 -0.013026483 -0.033945348 -0.011869092 -0.016954802
-0.024483241 0.0022134532 0.009480462 -0.015202538 0.008741091 0.023088034 -0.034752905 -0.054367136
0.027884884 0.008807804 0.016018609 0.010514157 -0.057705857 -0.01875356 0.0032418387 0.026521226
-0.011520891 -0.028663637 0.008033992 0.00064160454 -0.018647913 0.00872733 0.04008367 0.012977678
0.010227606 0.011346731 -0.02677726 0.029028235 -0.013879708 0.0017888949 -0.041562963 -0.010111135
0.008638952 -0.025512237 0.038638648 0.029248232 -0.004081851 0.023407215 -0.020424515 -0.023613174
-0.03250971 -0.050114643 0.009438519 0.010968342 0.02375954 -0.018121181 0.012292245 -0.019056777

running_mean f4 [200]
00000000: 6ff5 843d 87b0 7f3d 5f9d 8a3d e2b7 a03d
00000010: a45a 313d 8f21 773d 426b 753d 7a43 253d
00000020: dd69 b33d 7782 6c3d f339 3b3d 8adb 403d
00000030: cbb1 783d 5c1a 703d a8f1 7e3d d43e 823d
00000040: aa91 883d 35ba 8b3d bb0f 353d 39bc 9a3d
00000050: 5e85 823d 46e2 403d 09cf 6b3d eb00 a93d
00000060: c273 ab3d 94b0 763d 72c7 5c3d ce69 813d
00000070: 3e26 a33d 9671 5f3d 5dad 643d abf0 b03d
00000080: 48e3 c73d 40d9 b13d f151 7b3d b113 343d
00000090: d741 873d c3c0 2e3d 5e5d 763d 7003 9d3d
000000a0: 9547 273d 7401 343d 1c55 863d 3807 803d
000000b0: d4a0 653d cd25 853d acf4 983d 96d6 913d
000000c0: ad4c bc3d 2902 d03d c55a e53d 70a0 903d
000000d0: 4ffc d13d 2377 823d c2e2 2c3d 3abe b13d
000000e0: 3a51 383d 8b86 673d b66c 813d f692 153d
000000f0: f2a0 923d a7e7 a83d 08a0 a73d 668e 7d3d
00000100: 6725 b03d 356c 933d 9e32 a33d bf09 8a3d
00000110: dd00 8f3d 6d9b 6e3d e11e 3f3d ac48 7e3d
00000120: 9e18 423d 42e8 963d c508 903d a87c 533d
00000130: d707 af3d 6848 933d 5a9d 8f3d cf85 a53d
00000140: ab2c 823d a944 b73d 1ab4 a43d 9a7f 883d
00000150: 1bbd 403d a7a1 9b3d fc5f 353d a816 b33d
00000160: 2e00 c23d 1b56 c53d 581b 753d 2c02 623d
00000170: 92fe 9e3d 6299 863d 2cad 603d 40c1 173d
00000180: ea3b 9e3d a495 913d 6039 733d 83e3 8f3d
00000190: 3c0c 443d 6af0 8a3d 96a4 8f3d 77f9 a93d
000001a0: 2c31 863d d14d 773d efa0 863d 7a35 4a3d
000001b0: b236 993d ff3b 713d cd9e 993d 9ac6 7b3d
000001c0: 43a7 883d 6470 403d 4f34 6a3d d106 953d
000001d0: a195 ad3d 934c 8a3d 0b86 9c3d 850c 883d
000001e0: 0254 a43d 7cdb 9c3d cb52 8b3d bcf4 a43d
000001f0: 0abf 8b3d 44de aa3d 1436 8c3d 2fef 943d
00000200: 54b6 2f3d e16f a23d 1fc0 a53d f321 573d
00000210: 0215 c13d e363 233d d676 553d 15ba af3d
00000220: 446e 863d 5678 0f3d fa21 923d f44c 7b3d
00000230: 5a08 6e3d 9912 8f3d c6f1 793d 7e1f ae3d
00000240: 9919 963d c024 bc3d c934 a33d dd95 563d
00000250: 39e6 8f3d 50c5 823d 9438 3e3d 45ae 5f3d
00000260: 4f87 9f3d 9c8e 5c3d 76e1 6e3d 548c 653d
00000270: a623 a23d b201 363d a8b5 a63d 42d5 5d3d
00000280: 7c42 953d 53eb 4b3d 97e7 843d cc6f 913d
00000290: 9411 833d 6684 7e3d ef80 7f3d 51f0 a53d
000002a0: 73b7 ba3d d923 1c3d 9bd8 593d 64f8 9b3d
000002b0: 863e 863d e2ae 703d 0064 973d 6909 a83d
000002c0: 7f0b 923d 0e37 8f3d 2690 323d ea55 8b3d
000002d0: c1d4 aa3d 7d6b 9a3d a64e 943d b410 b63d
000002e0: 7ea4 f43c bf76 103d 6308 833d 629c 9e3d
000002f0: 00ed 8e3d 9f35 273d 647c 8f3d aa1f 813d
00000300: ac50 a83d 6be9 9a3d a468 8e3d adf6 8b3d
00000310: 364d 913d 0c39 a53d 14b2 973d 2c8a 8c3d
0.06492125 0.06242421 0.067682974 0.07847573 0.043299332 0.06033474 0.059916742 0.040347554
0.08760426 0.05774161 0.04570956 0.04708437 0.06071643 0.05861889 0.06224218 0.0635964
0.06668408 0.068226255 0.044204455 0.07555432 0.06373094 0.04709079 0.05757049 0.08252128
0.083716884 0.06022699 0.053901143 0.06319009 0.079662785 0.054551683 0.055829395 0.08639654
0.09760147 0.08684015 0.061357442 0.04396409 0.06604355 0.0426643 0.060147636 0.07666671
0.04083975 0.0439467 0.06559202 0.06251377 0.05606158 0.065013506 0.074685425 0.07121007
0.09194312 0.10156662 0.111989535 0.07061851 0.10253202 0.0637038 0.04220844 0.08678861
0.04499934 0.056524795 0.06319563 0.036517106 0.07159604 0.08247309 0.081848204 0.06190338
0.08600884 0.07198373 0.07968639 0.0674014 0.069825865 0.058253694 0.046660308 0.062081024
0.047386758 0.073685184 0.07032923 0.051632553 0.08546417 0.07191545 0.07012434 0.080821626
0.06356176 0.08948643 0.08042164 0.06664963 0.047055345 0.07599192 0.04428099 0.08744556
0.094726905 0.09635564 0.05984053 0.055177853 0.07763399 0.06572224 0.05485265 0.037049532
0.077262715 0.0710862 0.05938089 0.07025816 0.04786323 0.067841366 0.07013814 0.08299535
0.065523475 0.060376946 0.065736644 0.049367405 0.074811354 0.058895107 0.07500992 0.061468698
0.06672528 0.046982184 0.05717879 0.07276691 0.08475805 0.067528866 0.07642754 0.06643013
0.08023836 0.07659051 0.06802901 0.08054492 0.06823547 0.08343175 0.06846252 0.07272183
0.04289849 0.079314955 0.08093285 0.05252261 0.09427835 0.03989018 0.052115284 0.08580414
0.06564 0.03502687 0.07135387 0.061352685 0.058113433 0.06985969 0.06102159 0.085021004
0.07329101 0.09186697 0.07969052 0.052389015 0.07026333 0.063852906 0.046440676 0.054609556
0.0778948 0.05384694 0.058320485 0.05604203 0.07916956 0.04443521 0.08140117 0.054158457
0.072880715 0.04978497 0.06489485 0.07101402 0.06399837 0.062137984 0.06237882 0.08102477
0.091170214 0.038120124 0.053185087 0.07615736 0.06554894 0.05876053 0.0739212 0.0820492
0.07131099 0.06992923 0.043594502 0.06803496 0.08341361 0.07540033 0.072415635 0.088899046
0.029863592 0.035269495 0.06398084 0.077446714 0.06978798 0.04082262 0.070061475 0.063048676
0.08218512 0.07564052 0.06953552 0.06834159 0.07094805 0.080675215 0.074070126 0.06862292

running_var f4 [200]
00000000: 1a0c 1c3c a1de 023c b31d 0d3d c9e1 5e3c
00000010: 6807 5e3c 3e28 693c 793a 803c 1555 5f3c
00000020: bc56 593c 62b9 fa3b 2e36 873c a645 263b
00000030: 81d1 333c 174c 913c 5c62 ca3c 07f0 6c3c
00000040: f71a 533c 9245 463c 6da2 b63b 618d 463c
00000050: 2423 9a3c b71d ab3b 8083 e23b 3b7a 6e3c
00000060: fcb0 913c 64d5 123c a609 c43b 584a 363c
00000070: 76c8 a33c 3c28 ea3c 6ec0 173c 3c58 0d3d
00000080: 8d00 143d 75d9 263c a719 a83c d61b 983b
00000090: 81b1 453c a672 cb3b e4fd 7e3c 213d 8d3c
000000a0: 91d8 893b 8d66 893b 883b 843c b942 a23c
000000b0: d886 cb3c 01a0 133c 5949 d53c b417 123c
000000c0: 0870 7a3c 39ca 9c3c 6e65 b63c a022 2c3c
000000d0: e0d8 6a3c 85b7 773c 8b97 983b f910 4f3c
000000e0: 1363 b23c 3c9d 4b3c 54d8 213c f787 0b3c
000000f0: 5afd 043d 0fee a43c 0caa d63c 2d47 b13c
00000100: 0448 bd3c c7e5 a33c 921a 6c3c 205a 0f3c
00000110: 2729 413c a066 943c f858 e43c bbd7 0b3c
00000120: dc0d ea3b cac3 bf3b 9d38 563c ce56 af3c
00000130: d853 883c dc4f 703c dd97 613c dc66 1b3c
00000140: 5efe 323c 93d0 fa3c 3421 033c 2d64 043c
00000150: f12e 543b f0a4 853c 4763 c43b 5317 713c
00000160: ff40 553c 5f4f 983c 4d38 d43b 09cc db3b
00000170: bc57 773c 239c 3d3c d587 273c 4308 073c
00000180: 71b8 f93b 0cf2 813c 67c3 283c 699f 353c
00000190: abd1 ad3c 3e67 c53c efea f33c 0aac 7c3c
000001a0: b253 243c 3189 4b3c 8487 1b3c a8a0 a83b
000001b0: 0ce1 be3c 6a4a 9a3c 32e2 943c 5234 3e3c
000001c0: d034 c73c 8634 a93b 8841 823c d488 883c
000001d0: b00d 4b3c 23a4 8a3c ecb6 463c 7f06 8d3c
000001e0: 61de 363c f642 193c f8d4 473c 6055 a13c
000001f0: 7f57 a83c 31fd 703c 026f 483c 3448 303c
00000200: 9f2f 323c 4e62 413c ec19 aa3c 4a12 813c
00000210: ea0e 863c 4c0f 4c3b 1ec1 613c b6d7 f63c
00000220: 6728 163c c14e 073c c86c 5e3c 0125 cc3c
00000230: 190a 0c3c 9d23 8c3c 16c1 1e3c 1f4b 713c
00000240: a044 483c a09f 5c3c 693e aa3c dd03 f93c
00000250: 3a0d c83c a7e5 303c f7cd 1c3c b403 773c
00000260: c8e0 973c bc8d 923c 55ee cc3c a065 763b
00000270: dc24 333c 11e8 e43b 09b4 f33c 567a fd3b
00000280: d317 743c d28a 763b 2209 353c afac 0f3c
00000290: f942 503c 87de 283c 5314 b73c 067c 133c
000002a0: 4c38 da3c f51e 843b a1ff 053c a9a3 6a3c
000002b0: ce0e 693c 3f46 e83b c7b1 953c eea8 8a3c
000002c0: 85fc a53c 1dff 083c a123 ad3b f913 223c
000002d0: 915e a03c 9ebb 873c de3d 443c 4f95 913c
000002e0: 263d b53b e5df 943c 53fc df3b 52f5 7a3c
000002f0: 908a 0e3c 3ec5 1b3c 207a 003c a9d0 993c
00000300: eba4 3c3c f800 8f3c ed4a 743c 71c6 023c
00000310: 6e34 573c d707 9e3c 6d42 913c 892a 1b3c
0.00952437 0.007987649 0.03445215 0.013603636 0.0135515705 0.014230786 0.015652882 0.013631125
0.013265308 0.007651494 0.016505327 0.0025371104 0.010975243 0.017736478 0.024705105 0.014461524
0.012884847 0.012101548 0.005573562 0.012118668 0.018815584 0.005222048 0.0069126487 0.014555509
0.017784588 0.008962009 0.0059825955 0.011126123 0.019993048 0.028583638 0.009262187 0.034507975
0.036133338 0.010183682 0.020520044 0.00464199 0.012066246 0.0062087355 0.015563462 0.017241063
0.004206725 0.004193133 0.016141668 0.019807206 0.024844572 0.009010316 0.026035951 0.008916784
0.015285499 0.019139396 0.022265162 0.010506302 0.014333934 0.015119438 0.004656737 0.012638324
0.021775758 0.012427624 0.009878237 0.008516303 0.032468177 0.020133046 0.026204132 0.021640385
0.023105629 0.020007027 0.014410632 0.008749515 0.011789597 0.018115342 0.027874455 0.008535321
0.0071427654 0.0058521973 0.013075021 0.021403696 0.016641542 0.014667477 0.013769117 0.009484973
0.010924904 0.030617034 0.008003522 0.008080524 0.0032376612 0.016314 0.00599328 0.014715034
0.013015985 0.018592535 0.006476438 0.0067076725 0.015096601 0.01157287 0.010225256 0.008241716
0.007620864 0.015862487 0.010300494 0.01108537 0.021218142 0.024097081 0.029775111 0.015421877
0.01002972 0.012422846 0.009492759 0.005146105 0.02330067 0.018834312 0.018174265 0.011609154
0.024317175 0.005163732 0.015900388 0.016666807 0.0123934 0.01692397 0.012128573 0.017215012
0.011161418 0.009354344 0.012196772 0.01969403 0.020549534 0.014708803 0.012233498 0.010759402
0.010875612 0.011803223 0.020764314 0.015755791 0.016364533 0.0031137047 0.013778953 0.030132156
0.009164906 0.0082585225 0.01357574 0.024919989 0.008547329 0.017106825 0.00968959 0.014727383
0.012223393 0.013465792 0.020781713 0.03039735 0.02442037 0.010796941 0.00957059 0.0150765665
0.018539801 0.01788985 0.02501599 0.0037597194 0.010934081 0.0069856723 0.029748933 0.007735531
0.014898258 0.0037619364 0.011049541 0.008769198 0.01271128 0.010306961 0.022348559 0.009001737
0.026638173 0.0040320107 0.008178622 0.014321246 0.014224721 0.007088452 0.018273247 0.016926255
0.020262012 0.008361605 0.0052837883 0.009892457 0.019576343 0.016568955 0.011977641 0.017771391
0.005530971 0.018173167 0.0068354993 0.015317278 0.008700028 0.009507475 0.007841617 0.018776255
0.011513929 0.017456517 0.014910442 0.007981882 0.013135059 0.019290848 0.01773187 0.00947059

weight f4 [100, 200]
00000000: dfa3 573d 8f79 49bc 4e6d 8a3c fb54 5aba
00000010: 7139 7abd 82a0 86bd 3be1 78bd 531b dfb8
00000020: 3eab 173c 5068 19bd 37ec 623d 9f90 983d
00000030: 8cdf 453d a645 0c3d 9ee0 0dbd fd8b 60bd
00000040: e31f 7c3c a18d 803d 3349 df3b 53e5 653c
00000050: b6e5 8cbd 3ac3 cf3c 388f ba3c 1e88 a9bc
00000060: 0e4a 643d d3b2 a8bb 719a b7bd d0d0 a8bd
00000070: f8bd 803d db30 383c 54bd dc3b c89a 0fbb
00000080: c160 603d 03a4 84bd 4e12 6ebd 11de e1bc
00000090: 193b 8cbd ee92 b7bc e61a f1bc 8dda babd
000000a0: dbe2 8e3d 8261 773c 1ed9 943c 9c75 babc
000000b0: bd5c 1d3d a303 e9bc e7bf babc e5f2 853d
000000c0: b399 b13b d9c6 953d f86e 9d3c 267a 84bd
000000d0: 2462 d03c d50d 24bc 4188 9dbd eae8 a53c
000000e0: 30a7 473b 0d55 a33b e707 a93c 2dd6 a1bd
000000f0: ae38 1c3d e92b 81bd 2b36 0f3d ce72 e0bc
00000100: caf4 bb3c 8c2b a3bc 402f f0bc 80f1 33bd
00000110: a7a9 2abd 12ce 8a3c d0f8 94bd 84bb 983d
00000120: f284 613d 786e 013d 005b 8d3d 0e37 11bc
00000130: e720 59bd 7d37 82bd 0c0e 6bbd 06fc 4b3d
00000140: c2d7 113c b008 92bc c062 e23b 87c1 5fbd
00000150: ae0e a83c 92f4 15bd 6e36 93bd 91a3 d6bc
00000160: 01c9 80bd cdb0 52bd fab6 8e3d eb53 cdbd
00000170: 393f adbd 2697 56bd 7607 7dbd 59cc 4bbc
00000180: 19e0 f7bc 6f89 72bd a525 8abd bd3b dcbd
00000190: 9f47 49bd 669c 89bd 862b a2bb b189 283d
000001a0: c7bf acbd f6a2 4f3c b698 51bd 90cc 34bd
000001b0: bd15 68bd 28a3 8c3c 2df0 b4bd f445 8d3c
000001c0: bb05 823c 0358 753c 526c 933d 78b6 843a
000001d0: ce50 743c 1a7b fe3c 71ad 44bd fcb4 46bc
000001e0: 0e9a ee3c 08b1 6abd 5c50 3f3d 6420 aebb
000001f0: b883 83bd 5c07 663d 4995 a0bc 2e05 ee3a
00000200: f66f 473d 731a 27bc ebde 10bd 8f29 89bb
00000210: 605e 4abd 3fe1 d9bc cacb a63b bfce de3c
00000220: 6c6d 113c 2c51 24bd f777 12bc 2844 93bd
00000230: ac2c cd3c 4962 9dbc a0fa d73c d5c8 5d3d
00000240: 994c a9bd ecfd 0cbd 6a69 24bc 5034 693c
00000250: 45d1 67bc c56a 7e3d 7990 383d a51f 02bd
00000260: 616d 8fbd 87d8 813b 1ef7 2e3d 236b 663c
00000270: d004 563d 4a96 80bd f8b7 413d d00c c13b
00000280: fbe7 bebb c9a1 403c 470b 31bd b011 f3bc
00000290: a328 e73c caff 2b3d 5d54 43bd 6612 043c
000002a0: 3e14 113c d095 2ebd eb17 bbbd cb73 c2bb
000002b0: d654 803d 75a3 5dbd 1d68 b7bd 11b4 1abd
000002c0: 6fa2 113d 60e8 2d3d 2994 24bc d30b 283d
000002d0: 78ef 90bd 8681 62bd 010d 94bd 003f e33b
000002e0: b4f0 c63c bf14 9dbd f0e6 b03d 3a88 b4bd
000002f0: e4be 80bd 753a 40bd 68be 9dbd 2ffa 2a3d
00000300: 0257 cfbc 3158 96bc cb3f 7fbd 8407 10bc
00000310: 985c 9fbd b6c6 2a3d 079a f6bc 4661 8ebd
00000320: 277a 11bd b5f6 25bb 1c2e 41bd 1469 26bd
00000330: f3fc cabb ee0b 9abd 6693 39bd e286 2abd
00000340: 0fc9 173d c468 8cbc 6ad6 31bd dc8c 1c3b
00000350: eafb 3e3d e815 353d 416e 1dbd 7bc6 66bd
00000360: 04ec 0abd 1779 663c e1e5 47bd 199b 98ba
00000370: b277 95bc 0e4f afbd af08 ca3c ebe3 b43d
00000380: 28bd 833d b224 643a d00b 603d f592 7039
00000390: 443b 0b3d 5b07 d53c 3593 543d 1764 50bd
000003a0: b804 af3d 0c13 663d c797 34bd 850c 8bbd
000003b0: b797 bc3d 4de6 863d e638 3c3d d313 d9bc
000003c0: 93a6 36bd 194f 87bd f74d 713d c08d 87bd
000003d0: 9fa9 6b3d 247e 643d 0970 4abc 6a69 9a3d
000003e0: cf57 3cbd bb9a 703c 99f2 35bd d0a6 9a3d
000003f0: 2b86 2abd 71a1 7a3c ebb9 153d 75a1 8b3d
0.052646514 -0.012297048 0.016897824 -0.0008328703 -0.061089937 -0.06573583 -0.06076167 -0.00010638558
0.009257136 -0.037452996 0.055401053 0.07449459 0.048308894 0.03424611 -0.03463804 -0.054821003
0.015388462 0.062770136 0.006814146 0.014031726 -0.068797514 0.025361646 0.02277337 -0.020694789
0.055734687 -0.0051482706 -0.08965004 -0.08242953 0.06286234 0.011242117 0.006736437 -0.0021912325
0.05477977 -0.06476595 -0.058122925 -0.02757171 -0.068472095 -0.022408929 -0.029431771 -0.091237165
0.06976863 0.015098931 0.018169936 -0.022761159 0.03841852 -0.028444117 -0.022796584 0.06540469
0.0054199337 0.07313318 0.019217953 -0.064686105 0.025437422 -0.010013063 -0.07692004 0.020252664
0.0030464642 0.004984504 0.020633651 -0.07902179 0.03813999 -0.06307203 0.034963768 -0.027398493
0.022943873 -0.019918226 -0.029319406 -0.043931484 -0.0416657 0.016943965 -0.0727402 0.07457641
0.055058427 0.03159949 0.069021225 -0.008863224 -0.053009894 -0.0635824 -0.057386443 0.049800895
0.008901538 -0.017826408 0.0069087446 -0.05462792 0.020514812 -0.036610194 -0.07188116 -0.026201041
-0.062883385 -0.05143814 0.06968494 -0.10025772 -0.084593244 -0.05239024 -0.061774693 -0.012438857
-0.030258225 -0.0592131 -0.067454614 -0.10753582 -0.04914057 -0.06719284 -0.004949036 0.041146938
-0.08435016 0.01267313 -0.051171027 -0.0441404 -0.056661356 0.017167643 -0.088348724 0.01724527
0.015871873 0.014974597 0.07198395 0.0010125181 0.014911843 0.031064559 -0.04801697 -0.012128111
0.029126193 -0.057297736 0.046707496 -0.00531392 -0.06421608 0.056159362 -0.019602435 0.0018159503
0.04869076 -0.010199177 -0.03536884 -0.0041858624 -0.04940641 -0.026596664 0.0050902115 0.027198194
0.008876186 -0.040116474 -0.008939735 -0.07190734 0.025045715 -0.019211905 0.026364625 0.054146606
-0.08266563 -0.034421846 -0.010034898 0.014233664 -0.014149015 0.062113542 0.045059655 -0.03176846
-0.07003284 0.0039625796 0.042716138 0.014063629 0.052250683 -0.06278665 0.047294587 0.00589142
-0.005825994 0.011757323 -0.043223646 -0.02967152 0.02821762 0.041991986 -0.047687877 0.008061027
0.008854924 -0.04262334 -0.09135421 -0.0059342138 0.06266181 -0.054110963 -0.08955405 -0.03776938
0.0355553 0.04245794 -0.01004509 0.0410269 -0.07076925 -0.055299304 -0.07229043 0.0069350004
0.024284698 -0.07669973 0.08637798 -0.08815046 -0.062864095 -0.04693075 -0.07702333 0.0417425
-0.025310043 -0.0183526 -0.062316697 -0.008790854 -0.07781333 0.04169341 -0.030102743 -0.06952147
-0.035516884 -0.002532405 -0.047163114 -0.040627554 -0.0061947047 -0.07521807 -0.045306586 -0.04163254
0.03705698 -0.0171398 -0.04341737 0.002388767 0.046626963 0.044210345 -0.038435224 -0.05634163
-0.03391649 0.014066956 -0.048803214 -0.0011642902 -0.018245552 -0.0856 0.024662344 0.088325344
0.06432563 0.0008702978 0.054698765 0.0002294293 0.033992067 0.026004484 0.0518982 -0.050876703
0.08545822 0.05617051 -0.04409006 -0.06789497 0.09208625 0.06586895 0.0459527 -0.02649871
-0.04459245 -0.066068836 0.058912244 -0.066188335 0.05753481 0.05578436 -0.012355813 0.075396374
-0.04598218 0.014685328 -0.044420812 0.07551348 -0.04163186 0.01529728 0.03655426 0.06817905
